{"format": "layers-model", "generatedBy": "keras v2.2.4", "convertedBy": "TensorFlow.js Converter v1.2.6", "modelTopology": {"keras_version": "2.2.4", "backend": "tensorflow", "model_config": {"class_name": "Model", "config": {"name": "model_4", "layers": [{"name": "input_27", "class_name": "InputLayer", "config": {"batch_input_shape": [null, 64, 64, 3], "dtype": "float32", "sparse": false, "name": "input_27"}, "inbound_nodes": []}, {"name": "model_1", "class_name": "Model", "config": {"name": "model_1", "layers": [{"name": "input_1", "class_name": "InputLayer", "config": {"batch_input_shape": [null, 64, 64, 3], "dtype": "float32", "sparse": false, "name": "input_1"}, "inbound_nodes": []}, {"name": "ssr_G_model", "class_name": "Model", "config": {"name": "ssr_G_model", "layers": [{"name": "input_1", "class_name": "InputLayer", "config": {"batch_input_shape": [null, 64, 64, 3], "dtype": "float32", "sparse": false, "name": "input_1"}, "inbound_nodes": []}, {"name": "separable_conv2d_8", "class_name": "SeparableConv2D", "config": {"name": "separable_conv2d_8", "trainable": true, "filters": 16, "kernel_size": [3, 3], "strides": [1, 1], "padding": "same", "data_format": "channels_last", "dilation_rate": [1, 1], "activation": "linear", "use_bias": true, "bias_initializer": {"class_name": "Zeros", "config": {}}, "bias_regularizer": null, "activity_regularizer": null, "bias_constraint": null, "depth_multiplier": 1, "depthwise_initializer": {"class_name": "VarianceScaling", "config": {"scale": 1.0, "mode": "fan_avg", "distribution": "uniform", "seed": null}}, "pointwise_initializer": {"class_name": "VarianceScaling", "config": {"scale": 1.0, "mode": "fan_avg", "distribution": "uniform", "seed": null}}, "depthwise_regularizer": null, "pointwise_regularizer": null, "depthwise_constraint": null, "pointwise_constraint": null}, "inbound_nodes": [[["input_1", 0, 0, {}]]]}, {"name": "separable_conv2d_1", "class_name": "SeparableConv2D", "config": {"name": "separable_conv2d_1", "trainable": true, "filters": 16, "kernel_size": [3, 3], "strides": [1, 1], "padding": "same", "data_format": "channels_last", "dilation_rate": [1, 1], "activation": "linear", "use_bias": true, "bias_initializer": {"class_name": "Zeros", "config": {}}, "bias_regularizer": null, "activity_regularizer": null, "bias_constraint": null, "depth_multiplier": 1, "depthwise_initializer": {"class_name": "VarianceScaling", "config": {"scale": 1.0, "mode": "fan_avg", "distribution": "uniform", "seed": null}}, "pointwise_initializer": {"class_name": "VarianceScaling", "config": {"scale": 1.0, "mode": "fan_avg", "distribution": "uniform", "seed": null}}, "depthwise_regularizer": null, "pointwise_regularizer": null, "depthwise_constraint": null, "pointwise_constraint": null}, "inbound_nodes": [[["input_1", 0, 0, {}]]]}, {"name": "batch_normalization_8", "class_name": "BatchNormalization", "config": {"name": "batch_normalization_8", "trainable": true, "axis": -1, "momentum": 0.99, "epsilon": 0.001, "center": true, "scale": true, "beta_initializer": {"class_name": "Zeros", "config": {}}, "gamma_initializer": {"class_name": "Ones", "config": {}}, "moving_mean_initializer": {"class_name": "Zeros", "config": {}}, "moving_variance_initializer": {"class_name": "Ones", "config": {}}, "beta_regularizer": null, "gamma_regularizer": null, "beta_constraint": null, "gamma_constraint": null}, "inbound_nodes": [[["separable_conv2d_8", 0, 0, {}]]]}, {"name": "batch_normalization_1", "class_name": "BatchNormalization", "config": {"name": "batch_normalization_1", "trainable": true, "axis": -1, "momentum": 0.99, "epsilon": 0.001, "center": true, "scale": true, "beta_initializer": {"class_name": "Zeros", "config": {}}, "gamma_initializer": {"class_name": "Ones", "config": {}}, "moving_mean_initializer": {"class_name": "Zeros", "config": {}}, "moving_variance_initializer": {"class_name": "Ones", "config": {}}, "beta_regularizer": null, "gamma_regularizer": null, "beta_constraint": null, "gamma_constraint": null}, "inbound_nodes": [[["separable_conv2d_1", 0, 0, {}]]]}, {"name": "activation_8", "class_name": "Activation", "config": {"name": "activation_8", "trainable": true, "activation": "tanh"}, "inbound_nodes": [[["batch_normalization_8", 0, 0, {}]]]}, {"name": "activation_1", "class_name": "Activation", "config": {"name": "activation_1", "trainable": true, "activation": "relu"}, "inbound_nodes": [[["batch_normalization_1", 0, 0, {}]]]}, {"name": "max_pooling2d_1", "class_name": "MaxPooling2D", "config": {"name": "max_pooling2d_1", "trainable": true, "pool_size": [2, 2], "padding": "valid", "strides": [2, 2], "data_format": "channels_last"}, "inbound_nodes": [[["activation_8", 0, 0, {}]]]}, {"name": "average_pooling2d_1", "class_name": "AveragePooling2D", "config": {"name": "average_pooling2d_1", "trainable": true, "pool_size": [2, 2], "padding": "valid", "strides": [2, 2], "data_format": "channels_last"}, "inbound_nodes": [[["activation_1", 0, 0, {}]]]}, {"name": "separable_conv2d_9", "class_name": "SeparableConv2D", "config": {"name": "separable_conv2d_9", "trainable": true, "filters": 32, "kernel_size": [3, 3], "strides": [1, 1], "padding": "same", "data_format": "channels_last", "dilation_rate": [1, 1], "activation": "linear", "use_bias": true, "bias_initializer": {"class_name": "Zeros", "config": {}}, "bias_regularizer": null, "activity_regularizer": null, "bias_constraint": null, "depth_multiplier": 1, "depthwise_initializer": {"class_name": "VarianceScaling", "config": {"scale": 1.0, "mode": "fan_avg", "distribution": "uniform", "seed": null}}, "pointwise_initializer": {"class_name": "VarianceScaling", "config": {"scale": 1.0, "mode": "fan_avg", "distribution": "uniform", "seed": null}}, "depthwise_regularizer": null, "pointwise_regularizer": null, "depthwise_constraint": null, "pointwise_constraint": null}, "inbound_nodes": [[["max_pooling2d_1", 0, 0, {}]]]}, {"name": "separable_conv2d_2", "class_name": "SeparableConv2D", "config": {"name": "separable_conv2d_2", "trainable": true, "filters": 32, "kernel_size": [3, 3], "strides": [1, 1], "padding": "same", "data_format": "channels_last", "dilation_rate": [1, 1], "activation": "linear", "use_bias": true, "bias_initializer": {"class_name": "Zeros", "config": {}}, "bias_regularizer": null, "activity_regularizer": null, "bias_constraint": null, "depth_multiplier": 1, "depthwise_initializer": {"class_name": "VarianceScaling", "config": {"scale": 1.0, "mode": "fan_avg", "distribution": "uniform", "seed": null}}, "pointwise_initializer": {"class_name": "VarianceScaling", "config": {"scale": 1.0, "mode": "fan_avg", "distribution": "uniform", "seed": null}}, "depthwise_regularizer": null, "pointwise_regularizer": null, "depthwise_constraint": null, "pointwise_constraint": null}, "inbound_nodes": [[["average_pooling2d_1", 0, 0, {}]]]}, {"name": "batch_normalization_9", "class_name": "BatchNormalization", "config": {"name": "batch_normalization_9", "trainable": true, "axis": -1, "momentum": 0.99, "epsilon": 0.001, "center": true, "scale": true, "beta_initializer": {"class_name": "Zeros", "config": {}}, "gamma_initializer": {"class_name": "Ones", "config": {}}, "moving_mean_initializer": {"class_name": "Zeros", "config": {}}, "moving_variance_initializer": {"class_name": "Ones", "config": {}}, "beta_regularizer": null, "gamma_regularizer": null, "beta_constraint": null, "gamma_constraint": null}, "inbound_nodes": [[["separable_conv2d_9", 0, 0, {}]]]}, {"name": "batch_normalization_2", "class_name": "BatchNormalization", "config": {"name": "batch_normalization_2", "trainable": true, "axis": -1, "momentum": 0.99, "epsilon": 0.001, "center": true, "scale": true, "beta_initializer": {"class_name": "Zeros", "config": {}}, "gamma_initializer": {"class_name": "Ones", "config": {}}, "moving_mean_initializer": {"class_name": "Zeros", "config": {}}, "moving_variance_initializer": {"class_name": "Ones", "config": {}}, "beta_regularizer": null, "gamma_regularizer": null, "beta_constraint": null, "gamma_constraint": null}, "inbound_nodes": [[["separable_conv2d_2", 0, 0, {}]]]}, {"name": "activation_9", "class_name": "Activation", "config": {"name": "activation_9", "trainable": true, "activation": "tanh"}, "inbound_nodes": [[["batch_normalization_9", 0, 0, {}]]]}, {"name": "activation_2", "class_name": "Activation", "config": {"name": "activation_2", "trainable": true, "activation": "relu"}, "inbound_nodes": [[["batch_normalization_2", 0, 0, {}]]]}, {"name": "separable_conv2d_10", "class_name": "SeparableConv2D", "config": {"name": "separable_conv2d_10", "trainable": true, "filters": 32, "kernel_size": [3, 3], "strides": [1, 1], "padding": "same", "data_format": "channels_last", "dilation_rate": [1, 1], "activation": "linear", "use_bias": true, "bias_initializer": {"class_name": "Zeros", "config": {}}, "bias_regularizer": null, "activity_regularizer": null, "bias_constraint": null, "depth_multiplier": 1, "depthwise_initializer": {"class_name": "VarianceScaling", "config": {"scale": 1.0, "mode": "fan_avg", "distribution": "uniform", "seed": null}}, "pointwise_initializer": {"class_name": "VarianceScaling", "config": {"scale": 1.0, "mode": "fan_avg", "distribution": "uniform", "seed": null}}, "depthwise_regularizer": null, "pointwise_regularizer": null, "depthwise_constraint": null, "pointwise_constraint": null}, "inbound_nodes": [[["activation_9", 0, 0, {}]]]}, {"name": "separable_conv2d_3", "class_name": "SeparableConv2D", "config": {"name": "separable_conv2d_3", "trainable": true, "filters": 32, "kernel_size": [3, 3], "strides": [1, 1], "padding": "same", "data_format": "channels_last", "dilation_rate": [1, 1], "activation": "linear", "use_bias": true, "bias_initializer": {"class_name": "Zeros", "config": {}}, "bias_regularizer": null, "activity_regularizer": null, "bias_constraint": null, "depth_multiplier": 1, "depthwise_initializer": {"class_name": "VarianceScaling", "config": {"scale": 1.0, "mode": "fan_avg", "distribution": "uniform", "seed": null}}, "pointwise_initializer": {"class_name": "VarianceScaling", "config": {"scale": 1.0, "mode": "fan_avg", "distribution": "uniform", "seed": null}}, "depthwise_regularizer": null, "pointwise_regularizer": null, "depthwise_constraint": null, "pointwise_constraint": null}, "inbound_nodes": [[["activation_2", 0, 0, {}]]]}, {"name": "batch_normalization_10", "class_name": "BatchNormalization", "config": {"name": "batch_normalization_10", "trainable": true, "axis": -1, "momentum": 0.99, "epsilon": 0.001, "center": true, "scale": true, "beta_initializer": {"class_name": "Zeros", "config": {}}, "gamma_initializer": {"class_name": "Ones", "config": {}}, "moving_mean_initializer": {"class_name": "Zeros", "config": {}}, "moving_variance_initializer": {"class_name": "Ones", "config": {}}, "beta_regularizer": null, "gamma_regularizer": null, "beta_constraint": null, "gamma_constraint": null}, "inbound_nodes": [[["separable_conv2d_10", 0, 0, {}]]]}, {"name": "batch_normalization_3", "class_name": "BatchNormalization", "config": {"name": "batch_normalization_3", "trainable": true, "axis": -1, "momentum": 0.99, "epsilon": 0.001, "center": true, "scale": true, "beta_initializer": {"class_name": "Zeros", "config": {}}, "gamma_initializer": {"class_name": "Ones", "config": {}}, "moving_mean_initializer": {"class_name": "Zeros", "config": {}}, "moving_variance_initializer": {"class_name": "Ones", "config": {}}, "beta_regularizer": null, "gamma_regularizer": null, "beta_constraint": null, "gamma_constraint": null}, "inbound_nodes": [[["separable_conv2d_3", 0, 0, {}]]]}, {"name": "activation_10", "class_name": "Activation", "config": {"name": "activation_10", "trainable": true, "activation": "tanh"}, "inbound_nodes": [[["batch_normalization_10", 0, 0, {}]]]}, {"name": "activation_3", "class_name": "Activation", "config": {"name": "activation_3", "trainable": true, "activation": "relu"}, "inbound_nodes": [[["batch_normalization_3", 0, 0, {}]]]}, {"name": "max_pooling2d_2", "class_name": "MaxPooling2D", "config": {"name": "max_pooling2d_2", "trainable": true, "pool_size": [2, 2], "padding": "valid", "strides": [2, 2], "data_format": "channels_last"}, "inbound_nodes": [[["activation_10", 0, 0, {}]]]}, {"name": "average_pooling2d_2", "class_name": "AveragePooling2D", "config": {"name": "average_pooling2d_2", "trainable": true, "pool_size": [2, 2], "padding": "valid", "strides": [2, 2], "data_format": "channels_last"}, "inbound_nodes": [[["activation_3", 0, 0, {}]]]}, {"name": "separable_conv2d_11", "class_name": "SeparableConv2D", "config": {"name": "separable_conv2d_11", "trainable": true, "filters": 64, "kernel_size": [3, 3], "strides": [1, 1], "padding": "same", "data_format": "channels_last", "dilation_rate": [1, 1], "activation": "linear", "use_bias": true, "bias_initializer": {"class_name": "Zeros", "config": {}}, "bias_regularizer": null, "activity_regularizer": null, "bias_constraint": null, "depth_multiplier": 1, "depthwise_initializer": {"class_name": "VarianceScaling", "config": {"scale": 1.0, "mode": "fan_avg", "distribution": "uniform", "seed": null}}, "pointwise_initializer": {"class_name": "VarianceScaling", "config": {"scale": 1.0, "mode": "fan_avg", "distribution": "uniform", "seed": null}}, "depthwise_regularizer": null, "pointwise_regularizer": null, "depthwise_constraint": null, "pointwise_constraint": null}, "inbound_nodes": [[["max_pooling2d_2", 0, 0, {}]]]}, {"name": "separable_conv2d_4", "class_name": "SeparableConv2D", "config": {"name": "separable_conv2d_4", "trainable": true, "filters": 64, "kernel_size": [3, 3], "strides": [1, 1], "padding": "same", "data_format": "channels_last", "dilation_rate": [1, 1], "activation": "linear", "use_bias": true, "bias_initializer": {"class_name": "Zeros", "config": {}}, "bias_regularizer": null, "activity_regularizer": null, "bias_constraint": null, "depth_multiplier": 1, "depthwise_initializer": {"class_name": "VarianceScaling", "config": {"scale": 1.0, "mode": "fan_avg", "distribution": "uniform", "seed": null}}, "pointwise_initializer": {"class_name": "VarianceScaling", "config": {"scale": 1.0, "mode": "fan_avg", "distribution": "uniform", "seed": null}}, "depthwise_regularizer": null, "pointwise_regularizer": null, "depthwise_constraint": null, "pointwise_constraint": null}, "inbound_nodes": [[["average_pooling2d_2", 0, 0, {}]]]}, {"name": "batch_normalization_11", "class_name": "BatchNormalization", "config": {"name": "batch_normalization_11", "trainable": true, "axis": -1, "momentum": 0.99, "epsilon": 0.001, "center": true, "scale": true, "beta_initializer": {"class_name": "Zeros", "config": {}}, "gamma_initializer": {"class_name": "Ones", "config": {}}, "moving_mean_initializer": {"class_name": "Zeros", "config": {}}, "moving_variance_initializer": {"class_name": "Ones", "config": {}}, "beta_regularizer": null, "gamma_regularizer": null, "beta_constraint": null, "gamma_constraint": null}, "inbound_nodes": [[["separable_conv2d_11", 0, 0, {}]]]}, {"name": "batch_normalization_4", "class_name": "BatchNormalization", "config": {"name": "batch_normalization_4", "trainable": true, "axis": -1, "momentum": 0.99, "epsilon": 0.001, "center": true, "scale": true, "beta_initializer": {"class_name": "Zeros", "config": {}}, "gamma_initializer": {"class_name": "Ones", "config": {}}, "moving_mean_initializer": {"class_name": "Zeros", "config": {}}, "moving_variance_initializer": {"class_name": "Ones", "config": {}}, "beta_regularizer": null, "gamma_regularizer": null, "beta_constraint": null, "gamma_constraint": null}, "inbound_nodes": [[["separable_conv2d_4", 0, 0, {}]]]}, {"name": "activation_11", "class_name": "Activation", "config": {"name": "activation_11", "trainable": true, "activation": "tanh"}, "inbound_nodes": [[["batch_normalization_11", 0, 0, {}]]]}, {"name": "activation_4", "class_name": "Activation", "config": {"name": "activation_4", "trainable": true, "activation": "relu"}, "inbound_nodes": [[["batch_normalization_4", 0, 0, {}]]]}, {"name": "separable_conv2d_12", "class_name": "SeparableConv2D", "config": {"name": "separable_conv2d_12", "trainable": true, "filters": 64, "kernel_size": [3, 3], "strides": [1, 1], "padding": "same", "data_format": "channels_last", "dilation_rate": [1, 1], "activation": "linear", "use_bias": true, "bias_initializer": {"class_name": "Zeros", "config": {}}, "bias_regularizer": null, "activity_regularizer": null, "bias_constraint": null, "depth_multiplier": 1, "depthwise_initializer": {"class_name": "VarianceScaling", "config": {"scale": 1.0, "mode": "fan_avg", "distribution": "uniform", "seed": null}}, "pointwise_initializer": {"class_name": "VarianceScaling", "config": {"scale": 1.0, "mode": "fan_avg", "distribution": "uniform", "seed": null}}, "depthwise_regularizer": null, "pointwise_regularizer": null, "depthwise_constraint": null, "pointwise_constraint": null}, "inbound_nodes": [[["activation_11", 0, 0, {}]]]}, {"name": "separable_conv2d_5", "class_name": "SeparableConv2D", "config": {"name": "separable_conv2d_5", "trainable": true, "filters": 64, "kernel_size": [3, 3], "strides": [1, 1], "padding": "same", "data_format": "channels_last", "dilation_rate": [1, 1], "activation": "linear", "use_bias": true, "bias_initializer": {"class_name": "Zeros", "config": {}}, "bias_regularizer": null, "activity_regularizer": null, "bias_constraint": null, "depth_multiplier": 1, "depthwise_initializer": {"class_name": "VarianceScaling", "config": {"scale": 1.0, "mode": "fan_avg", "distribution": "uniform", "seed": null}}, "pointwise_initializer": {"class_name": "VarianceScaling", "config": {"scale": 1.0, "mode": "fan_avg", "distribution": "uniform", "seed": null}}, "depthwise_regularizer": null, "pointwise_regularizer": null, "depthwise_constraint": null, "pointwise_constraint": null}, "inbound_nodes": [[["activation_4", 0, 0, {}]]]}, {"name": "batch_normalization_12", "class_name": "BatchNormalization", "config": {"name": "batch_normalization_12", "trainable": true, "axis": -1, "momentum": 0.99, "epsilon": 0.001, "center": true, "scale": true, "beta_initializer": {"class_name": "Zeros", "config": {}}, "gamma_initializer": {"class_name": "Ones", "config": {}}, "moving_mean_initializer": {"class_name": "Zeros", "config": {}}, "moving_variance_initializer": {"class_name": "Ones", "config": {}}, "beta_regularizer": null, "gamma_regularizer": null, "beta_constraint": null, "gamma_constraint": null}, "inbound_nodes": [[["separable_conv2d_12", 0, 0, {}]]]}, {"name": "batch_normalization_5", "class_name": "BatchNormalization", "config": {"name": "batch_normalization_5", "trainable": true, "axis": -1, "momentum": 0.99, "epsilon": 0.001, "center": true, "scale": true, "beta_initializer": {"class_name": "Zeros", "config": {}}, "gamma_initializer": {"class_name": "Ones", "config": {}}, "moving_mean_initializer": {"class_name": "Zeros", "config": {}}, "moving_variance_initializer": {"class_name": "Ones", "config": {}}, "beta_regularizer": null, "gamma_regularizer": null, "beta_constraint": null, "gamma_constraint": null}, "inbound_nodes": [[["separable_conv2d_5", 0, 0, {}]]]}, {"name": "activation_12", "class_name": "Activation", "config": {"name": "activation_12", "trainable": true, "activation": "tanh"}, "inbound_nodes": [[["batch_normalization_12", 0, 0, {}]]]}, {"name": "activation_5", "class_name": "Activation", "config": {"name": "activation_5", "trainable": true, "activation": "relu"}, "inbound_nodes": [[["batch_normalization_5", 0, 0, {}]]]}, {"name": "max_pooling2d_3", "class_name": "MaxPooling2D", "config": {"name": "max_pooling2d_3", "trainable": true, "pool_size": [2, 2], "padding": "valid", "strides": [2, 2], "data_format": "channels_last"}, "inbound_nodes": [[["activation_12", 0, 0, {}]]]}, {"name": "average_pooling2d_3", "class_name": "AveragePooling2D", "config": {"name": "average_pooling2d_3", "trainable": true, "pool_size": [2, 2], "padding": "valid", "strides": [2, 2], "data_format": "channels_last"}, "inbound_nodes": [[["activation_5", 0, 0, {}]]]}, {"name": "separable_conv2d_13", "class_name": "SeparableConv2D", "config": {"name": "separable_conv2d_13", "trainable": true, "filters": 128, "kernel_size": [3, 3], "strides": [1, 1], "padding": "same", "data_format": "channels_last", "dilation_rate": [1, 1], "activation": "linear", "use_bias": true, "bias_initializer": {"class_name": "Zeros", "config": {}}, "bias_regularizer": null, "activity_regularizer": null, "bias_constraint": null, "depth_multiplier": 1, "depthwise_initializer": {"class_name": "VarianceScaling", "config": {"scale": 1.0, "mode": "fan_avg", "distribution": "uniform", "seed": null}}, "pointwise_initializer": {"class_name": "VarianceScaling", "config": {"scale": 1.0, "mode": "fan_avg", "distribution": "uniform", "seed": null}}, "depthwise_regularizer": null, "pointwise_regularizer": null, "depthwise_constraint": null, "pointwise_constraint": null}, "inbound_nodes": [[["max_pooling2d_3", 0, 0, {}]]]}, {"name": "separable_conv2d_6", "class_name": "SeparableConv2D", "config": {"name": "separable_conv2d_6", "trainable": true, "filters": 128, "kernel_size": [3, 3], "strides": [1, 1], "padding": "same", "data_format": "channels_last", "dilation_rate": [1, 1], "activation": "linear", "use_bias": true, "bias_initializer": {"class_name": "Zeros", "config": {}}, "bias_regularizer": null, "activity_regularizer": null, "bias_constraint": null, "depth_multiplier": 1, "depthwise_initializer": {"class_name": "VarianceScaling", "config": {"scale": 1.0, "mode": "fan_avg", "distribution": "uniform", "seed": null}}, "pointwise_initializer": {"class_name": "VarianceScaling", "config": {"scale": 1.0, "mode": "fan_avg", "distribution": "uniform", "seed": null}}, "depthwise_regularizer": null, "pointwise_regularizer": null, "depthwise_constraint": null, "pointwise_constraint": null}, "inbound_nodes": [[["average_pooling2d_3", 0, 0, {}]]]}, {"name": "batch_normalization_13", "class_name": "BatchNormalization", "config": {"name": "batch_normalization_13", "trainable": true, "axis": -1, "momentum": 0.99, "epsilon": 0.001, "center": true, "scale": true, "beta_initializer": {"class_name": "Zeros", "config": {}}, "gamma_initializer": {"class_name": "Ones", "config": {}}, "moving_mean_initializer": {"class_name": "Zeros", "config": {}}, "moving_variance_initializer": {"class_name": "Ones", "config": {}}, "beta_regularizer": null, "gamma_regularizer": null, "beta_constraint": null, "gamma_constraint": null}, "inbound_nodes": [[["separable_conv2d_13", 0, 0, {}]]]}, {"name": "batch_normalization_6", "class_name": "BatchNormalization", "config": {"name": "batch_normalization_6", "trainable": true, "axis": -1, "momentum": 0.99, "epsilon": 0.001, "center": true, "scale": true, "beta_initializer": {"class_name": "Zeros", "config": {}}, "gamma_initializer": {"class_name": "Ones", "config": {}}, "moving_mean_initializer": {"class_name": "Zeros", "config": {}}, "moving_variance_initializer": {"class_name": "Ones", "config": {}}, "beta_regularizer": null, "gamma_regularizer": null, "beta_constraint": null, "gamma_constraint": null}, "inbound_nodes": [[["separable_conv2d_6", 0, 0, {}]]]}, {"name": "activation_13", "class_name": "Activation", "config": {"name": "activation_13", "trainable": true, "activation": "tanh"}, "inbound_nodes": [[["batch_normalization_13", 0, 0, {}]]]}, {"name": "activation_6", "class_name": "Activation", "config": {"name": "activation_6", "trainable": true, "activation": "relu"}, "inbound_nodes": [[["batch_normalization_6", 0, 0, {}]]]}, {"name": "separable_conv2d_14", "class_name": "SeparableConv2D", "config": {"name": "separable_conv2d_14", "trainable": true, "filters": 128, "kernel_size": [3, 3], "strides": [1, 1], "padding": "same", "data_format": "channels_last", "dilation_rate": [1, 1], "activation": "linear", "use_bias": true, "bias_initializer": {"class_name": "Zeros", "config": {}}, "bias_regularizer": null, "activity_regularizer": null, "bias_constraint": null, "depth_multiplier": 1, "depthwise_initializer": {"class_name": "VarianceScaling", "config": {"scale": 1.0, "mode": "fan_avg", "distribution": "uniform", "seed": null}}, "pointwise_initializer": {"class_name": "VarianceScaling", "config": {"scale": 1.0, "mode": "fan_avg", "distribution": "uniform", "seed": null}}, "depthwise_regularizer": null, "pointwise_regularizer": null, "depthwise_constraint": null, "pointwise_constraint": null}, "inbound_nodes": [[["activation_13", 0, 0, {}]]]}, {"name": "separable_conv2d_7", "class_name": "SeparableConv2D", "config": {"name": "separable_conv2d_7", "trainable": true, "filters": 128, "kernel_size": [3, 3], "strides": [1, 1], "padding": "same", "data_format": "channels_last", "dilation_rate": [1, 1], "activation": "linear", "use_bias": true, "bias_initializer": {"class_name": "Zeros", "config": {}}, "bias_regularizer": null, "activity_regularizer": null, "bias_constraint": null, "depth_multiplier": 1, "depthwise_initializer": {"class_name": "VarianceScaling", "config": {"scale": 1.0, "mode": "fan_avg", "distribution": "uniform", "seed": null}}, "pointwise_initializer": {"class_name": "VarianceScaling", "config": {"scale": 1.0, "mode": "fan_avg", "distribution": "uniform", "seed": null}}, "depthwise_regularizer": null, "pointwise_regularizer": null, "depthwise_constraint": null, "pointwise_constraint": null}, "inbound_nodes": [[["activation_6", 0, 0, {}]]]}, {"name": "batch_normalization_14", "class_name": "BatchNormalization", "config": {"name": "batch_normalization_14", "trainable": true, "axis": -1, "momentum": 0.99, "epsilon": 0.001, "center": true, "scale": true, "beta_initializer": {"class_name": "Zeros", "config": {}}, "gamma_initializer": {"class_name": "Ones", "config": {}}, "moving_mean_initializer": {"class_name": "Zeros", "config": {}}, "moving_variance_initializer": {"class_name": "Ones", "config": {}}, "beta_regularizer": null, "gamma_regularizer": null, "beta_constraint": null, "gamma_constraint": null}, "inbound_nodes": [[["separable_conv2d_14", 0, 0, {}]]]}, {"name": "batch_normalization_7", "class_name": "BatchNormalization", "config": {"name": "batch_normalization_7", "trainable": true, "axis": -1, "momentum": 0.99, "epsilon": 0.001, "center": true, "scale": true, "beta_initializer": {"class_name": "Zeros", "config": {}}, "gamma_initializer": {"class_name": "Ones", "config": {}}, "moving_mean_initializer": {"class_name": "Zeros", "config": {}}, "moving_variance_initializer": {"class_name": "Ones", "config": {}}, "beta_regularizer": null, "gamma_regularizer": null, "beta_constraint": null, "gamma_constraint": null}, "inbound_nodes": [[["separable_conv2d_7", 0, 0, {}]]]}, {"name": "activation_14", "class_name": "Activation", "config": {"name": "activation_14", "trainable": true, "activation": "tanh"}, "inbound_nodes": [[["batch_normalization_14", 0, 0, {}]]]}, {"name": "activation_7", "class_name": "Activation", "config": {"name": "activation_7", "trainable": true, "activation": "relu"}, "inbound_nodes": [[["batch_normalization_7", 0, 0, {}]]]}, {"name": "conv2d_5", "class_name": "Conv2D", "config": {"name": "conv2d_5", "trainable": true, "filters": 64, "kernel_size": [1, 1], "strides": [1, 1], "padding": "valid", "data_format": "channels_last", "dilation_rate": [1, 1], "activation": "tanh", "use_bias": true, "kernel_initializer": {"class_name": "VarianceScaling", "config": {"scale": 1.0, "mode": "fan_avg", "distribution": "uniform", "seed": null}}, "bias_initializer": {"class_name": "Zeros", "config": {}}, "kernel_regularizer": null, "bias_regularizer": null, "activity_regularizer": null, "kernel_constraint": null, "bias_constraint": null}, "inbound_nodes": [[["max_pooling2d_2", 0, 0, {}]]]}, {"name": "conv2d_6", "class_name": "Conv2D", "config": {"name": "conv2d_6", "trainable": true, "filters": 64, "kernel_size": [1, 1], "strides": [1, 1], "padding": "valid", "data_format": "channels_last", "dilation_rate": [1, 1], "activation": "relu", "use_bias": true, "kernel_initializer": {"class_name": "VarianceScaling", "config": {"scale": 1.0, "mode": "fan_avg", "distribution": "uniform", "seed": null}}, "bias_initializer": {"class_name": "Zeros", "config": {}}, "kernel_regularizer": null, "bias_regularizer": null, "activity_regularizer": null, "kernel_constraint": null, "bias_constraint": null}, "inbound_nodes": [[["average_pooling2d_2", 0, 0, {}]]]}, {"name": "conv2d_1", "class_name": "Conv2D", "config": {"name": "conv2d_1", "trainable": true, "filters": 64, "kernel_size": [1, 1], "strides": [1, 1], "padding": "valid", "data_format": "channels_last", "dilation_rate": [1, 1], "activation": "tanh", "use_bias": true, "kernel_initializer": {"class_name": "VarianceScaling", "config": {"scale": 1.0, "mode": "fan_avg", "distribution": "uniform", "seed": null}}, "bias_initializer": {"class_name": "Zeros", "config": {}}, "kernel_regularizer": null, "bias_regularizer": null, "activity_regularizer": null, "kernel_constraint": null, "bias_constraint": null}, "inbound_nodes": [[["activation_14", 0, 0, {}]]]}, {"name": "conv2d_2", "class_name": "Conv2D", "config": {"name": "conv2d_2", "trainable": true, "filters": 64, "kernel_size": [1, 1], "strides": [1, 1], "padding": "valid", "data_format": "channels_last", "dilation_rate": [1, 1], "activation": "relu", "use_bias": true, "kernel_initializer": {"class_name": "VarianceScaling", "config": {"scale": 1.0, "mode": "fan_avg", "distribution": "uniform", "seed": null}}, "bias_initializer": {"class_name": "Zeros", "config": {}}, "kernel_regularizer": null, "bias_regularizer": null, "activity_regularizer": null, "kernel_constraint": null, "bias_constraint": null}, "inbound_nodes": [[["activation_7", 0, 0, {}]]]}, {"name": "conv2d_3", "class_name": "Conv2D", "config": {"name": "conv2d_3", "trainable": true, "filters": 64, "kernel_size": [1, 1], "strides": [1, 1], "padding": "valid", "data_format": "channels_last", "dilation_rate": [1, 1], "activation": "tanh", "use_bias": true, "kernel_initializer": {"class_name": "VarianceScaling", "config": {"scale": 1.0, "mode": "fan_avg", "distribution": "uniform", "seed": null}}, "bias_initializer": {"class_name": "Zeros", "config": {}}, "kernel_regularizer": null, "bias_regularizer": null, "activity_regularizer": null, "kernel_constraint": null, "bias_constraint": null}, "inbound_nodes": [[["max_pooling2d_3", 0, 0, {}]]]}, {"name": "conv2d_4", "class_name": "Conv2D", "config": {"name": "conv2d_4", "trainable": true, "filters": 64, "kernel_size": [1, 1], "strides": [1, 1], "padding": "valid", "data_format": "channels_last", "dilation_rate": [1, 1], "activation": "relu", "use_bias": true, "kernel_initializer": {"class_name": "VarianceScaling", "config": {"scale": 1.0, "mode": "fan_avg", "distribution": "uniform", "seed": null}}, "bias_initializer": {"class_name": "Zeros", "config": {}}, "kernel_regularizer": null, "bias_regularizer": null, "activity_regularizer": null, "kernel_constraint": null, "bias_constraint": null}, "inbound_nodes": [[["average_pooling2d_3", 0, 0, {}]]]}, {"name": "multiply_3", "class_name": "Multiply", "config": {"name": "multiply_3", "trainable": true}, "inbound_nodes": [[["conv2d_5", 0, 0, {}], ["conv2d_6", 0, 0, {}]]]}, {"name": "multiply_1", "class_name": "Multiply", "config": {"name": "multiply_1", "trainable": true}, "inbound_nodes": [[["conv2d_1", 0, 0, {}], ["conv2d_2", 0, 0, {}]]]}, {"name": "multiply_2", "class_name": "Multiply", "config": {"name": "multiply_2", "trainable": true}, "inbound_nodes": [[["conv2d_3", 0, 0, {}], ["conv2d_4", 0, 0, {}]]]}, {"name": "average_pooling2d_4", "class_name": "AveragePooling2D", "config": {"name": "average_pooling2d_4", "trainable": true, "pool_size": [2, 2], "padding": "valid", "strides": [2, 2], "data_format": "channels_last"}, "inbound_nodes": [[["multiply_3", 0, 0, {}]]]}], "input_layers": [["input_1", 0, 0]], "output_layers": [["multiply_1", 0, 0], ["multiply_2", 0, 0], ["average_pooling2d_4", 0, 0]]}, "inbound_nodes": [[["input_1", 0, 0, {}]]]}, {"name": "ssr_S_model", "class_name": "Model", "config": {"name": "ssr_S_model", "layers": [{"name": "input_3", "class_name": "InputLayer", "config": {"batch_input_shape": [null, 8, 8, 64], "dtype": "float32", "sparse": false, "name": "input_3"}, "inbound_nodes": []}, {"name": "input_4", "class_name": "InputLayer", "config": {"batch_input_shape": [null, 8, 8, 64], "dtype": "float32", "sparse": false, "name": "input_4"}, "inbound_nodes": []}, {"name": "input_5", "class_name": "InputLayer", "config": {"batch_input_shape": [null, 8, 8, 64], "dtype": "float32", "sparse": false, "name": "input_5"}, "inbound_nodes": []}, {"name": "feat_S_model", "class_name": "Model", "config": {"name": "feat_S_model", "layers": [{"name": "input_2", "class_name": "InputLayer", "config": {"batch_input_shape": [null, 8, 8, 64], "dtype": "float32", "sparse": false, "name": "input_2"}, "inbound_nodes": []}, {"name": "conv2d_7", "class_name": "Conv2D", "config": {"name": "conv2d_7", "trainable": true, "filters": 1, "kernel_size": [1, 1], "strides": [1, 1], "padding": "same", "data_format": "channels_last", "dilation_rate": [1, 1], "activation": "sigmoid", "use_bias": true, "kernel_initializer": {"class_name": "VarianceScaling", "config": {"scale": 1.0, "mode": "fan_avg", "distribution": "uniform", "seed": null}}, "bias_initializer": {"class_name": "Zeros", "config": {}}, "kernel_regularizer": null, "bias_regularizer": null, "activity_regularizer": null, "kernel_constraint": null, "bias_constraint": null}, "inbound_nodes": [[["input_2", 0, 0, {}]]]}, {"name": "reshape_1", "class_name": "Reshape", "config": {"name": "reshape_1", "trainable": true, "target_shape": [-1]}, "inbound_nodes": [[["conv2d_7", 0, 0, {}]]]}, {"name": "dense_1", "class_name": "Dense", "config": {"name": "dense_1", "trainable": true, "units": 960, "activation": "sigmoid", "use_bias": true, "kernel_initializer": {"class_name": "VarianceScaling", "config": {"scale": 1.0, "mode": "fan_avg", "distribution": "uniform", "seed": null}}, "bias_initializer": {"class_name": "Zeros", "config": {}}, "kernel_regularizer": null, "bias_regularizer": null, "activity_regularizer": null, "kernel_constraint": null, "bias_constraint": null}, "inbound_nodes": [[["reshape_1", 0, 0, {}]]]}, {"name": "reshape_2", "class_name": "Reshape", "config": {"name": "reshape_2", "trainable": true, "target_shape": [5, 192]}, "inbound_nodes": [[["dense_1", 0, 0, {}]]]}], "input_layers": [["input_2", 0, 0]], "output_layers": [["reshape_2", 0, 0], ["reshape_1", 0, 0]]}, "inbound_nodes": [[["input_3", 0, 0, {}]], [["input_4", 0, 0, {}]], [["input_5", 0, 0, {}]]]}, {"name": "concatenate_1", "class_name": "Concatenate", "config": {"name": "concatenate_1", "trainable": true, "axis": -1}, "inbound_nodes": [[["feat_S_model", 1, 1, {}], ["feat_S_model", 2, 1, {}], ["feat_S_model", 3, 1, {}]]]}, {"name": "dense_2", "class_name": "Dense", "config": {"name": "dense_2", "trainable": true, "units": 35, "activation": "sigmoid", "use_bias": true, "kernel_initializer": {"class_name": "VarianceScaling", "config": {"scale": 1.0, "mode": "fan_avg", "distribution": "uniform", "seed": null}}, "bias_initializer": {"class_name": "Zeros", "config": {}}, "kernel_regularizer": null, "bias_regularizer": null, "activity_regularizer": null, "kernel_constraint": null, "bias_constraint": null}, "inbound_nodes": [[["concatenate_1", 0, 0, {}]]]}, {"name": "reshape_3", "class_name": "Reshape", "config": {"name": "reshape_3", "trainable": true, "target_shape": [7, 5]}, "inbound_nodes": [[["dense_2", 0, 0, {}]]]}, {"name": "S_matrix_s1", "class_name": "Lambda", "config": {"name": "S_matrix_s1", "trainable": true, "function": ["4wEAAAAAAAAAAQAAAAQAAABTAAAAcxQAAAB0AGoBfABkARkAfABkAhkAgwJTACkDTukAAAAA6QEA\nAAApAtoCdGbaBm1hdG11bCkB2gF4qQByBgAAAPolL2NvbnRlbnQvRlNBLU5ldC9kZW1vL0ZTQU5F\nVF9tb2RlbC5wedoIPGxhbWJkYT4XAwAA8wAAAAA=\n", null, null], "function_type": "lambda", "output_shape": null, "output_shape_type": "raw", "arguments": {}}, "inbound_nodes": [[["reshape_3", 0, 0, {}], ["feat_S_model", 1, 0, {}]]]}, {"name": "reshape_4", "class_name": "Reshape", "config": {"name": "reshape_4", "trainable": true, "target_shape": [-1, 64]}, "inbound_nodes": [[["input_3", 0, 0, {}]]]}, {"name": "reshape_5", "class_name": "Reshape", "config": {"name": "reshape_5", "trainable": true, "target_shape": [-1, 64]}, "inbound_nodes": [[["input_4", 0, 0, {}]]]}, {"name": "reshape_6", "class_name": "Reshape", "config": {"name": "reshape_6", "trainable": true, "target_shape": [-1, 64]}, "inbound_nodes": [[["input_5", 0, 0, {}]]]}, {"name": "S_matrix_s2", "class_name": "Lambda", "config": {"name": "S_matrix_s2", "trainable": true, "function": ["4wEAAAAAAAAAAQAAAAQAAABTAAAAcxQAAAB0AGoBfABkARkAfABkAhkAgwJTACkDTukAAAAA6QEA\nAAApAtoCdGbaBm1hdG11bCkB2gF4qQByBgAAAPolL2NvbnRlbnQvRlNBLU5ldC9kZW1vL0ZTQU5F\nVF9tb2RlbC5wedoIPGxhbWJkYT4YAwAA8wAAAAA=\n", null, null], "function_type": "lambda", "output_shape": null, "output_shape_type": "raw", "arguments": {}}, "inbound_nodes": [[["reshape_3", 0, 0, {}], ["feat_S_model", 2, 0, {}]]]}, {"name": "S_matrix_s3", "class_name": "Lambda", "config": {"name": "S_matrix_s3", "trainable": true, "function": ["4wEAAAAAAAAAAQAAAAQAAABTAAAAcxQAAAB0AGoBfABkARkAfABkAhkAgwJTACkDTukAAAAA6QEA\nAAApAtoCdGbaBm1hdG11bCkB2gF4qQByBgAAAPolL2NvbnRlbnQvRlNBLU5ldC9kZW1vL0ZTQU5F\nVF9tb2RlbC5wedoIPGxhbWJkYT4ZAwAA8wAAAAA=\n", null, null], "function_type": "lambda", "output_shape": null, "output_shape_type": "raw", "arguments": {}}, "inbound_nodes": [[["reshape_3", 0, 0, {}], ["feat_S_model", 3, 0, {}]]]}, {"name": "concatenate_2", "class_name": "Concatenate", "config": {"name": "concatenate_2", "trainable": true, "axis": 1}, "inbound_nodes": [[["reshape_4", 0, 0, {}], ["reshape_5", 0, 0, {}], ["reshape_6", 0, 0, {}]]]}, {"name": "lambda_1", "class_name": "Lambda", "config": {"name": "lambda_1", "trainable": true, "function": ["4wEAAAAAAAAAAQAAAAYAAABTAAAAcxgAAAB0AGoBdABqAnwAZAVkAmQDjQNkBoMCUwApB07pAQAA\nAFQpAtoEYXhpc9oIa2VlcGRpbXPpQAAAAOn/////KQNyAQAAAHIBAAAAcgQAAAApA9oBS9oEdGls\nZdoDc3VtKQHaAXipAHIKAAAA+iUvY29udGVudC9GU0EtTmV0L2RlbW8vRlNBTkVUX21vZGVsLnB5\n2gg8bGFtYmRhPh0DAADzAAAAAA==\n", null, null], "function_type": "lambda", "output_shape": null, "output_shape_type": "raw", "arguments": {}}, "inbound_nodes": [[["S_matrix_s1", 0, 0, {}]]]}, {"name": "lambda_2", "class_name": "Lambda", "config": {"name": "lambda_2", "trainable": true, "function": ["4wEAAAAAAAAAAQAAAAYAAABTAAAAcxgAAAB0AGoBdABqAnwAZAVkAmQDjQNkBoMCUwApB07pAQAA\nAFQpAtoEYXhpc9oIa2VlcGRpbXPpQAAAAOn/////KQNyAQAAAHIBAAAAcgQAAAApA9oBS9oEdGls\nZdoDc3VtKQHaAXipAHIKAAAA+iUvY29udGVudC9GU0EtTmV0L2RlbW8vRlNBTkVUX21vZGVsLnB5\n2gg8bGFtYmRhPh4DAADzAAAAAA==\n", null, null], "function_type": "lambda", "output_shape": null, "output_shape_type": "raw", "arguments": {}}, "inbound_nodes": [[["S_matrix_s2", 0, 0, {}]]]}, {"name": "lambda_3", "class_name": "Lambda", "config": {"name": "lambda_3", "trainable": true, "function": ["4wEAAAAAAAAAAQAAAAYAAABTAAAAcxgAAAB0AGoBdABqAnwAZAVkAmQDjQNkBoMCUwApB07pAQAA\nAFQpAtoEYXhpc9oIa2VlcGRpbXPpQAAAAOn/////KQNyAQAAAHIBAAAAcgQAAAApA9oBS9oEdGls\nZdoDc3VtKQHaAXipAHIKAAAA+iUvY29udGVudC9GU0EtTmV0L2RlbW8vRlNBTkVUX21vZGVsLnB5\n2gg8bGFtYmRhPh8DAADzAAAAAA==\n", null, null], "function_type": "lambda", "output_shape": null, "output_shape_type": "raw", "arguments": {}}, "inbound_nodes": [[["S_matrix_s3", 0, 0, {}]]]}, {"name": "lambda_4", "class_name": "Lambda", "config": {"name": "lambda_4", "trainable": true, "function": ["4wEAAAAAAAAAAQAAAAQAAABTAAAAcxwAAAB0AGoBfABkARkAfABkAhkAgwJ8AGQDGQAbAFMAKQRO\n6QAAAADpAQAAAOkCAAAAKQLaAnRm2gZtYXRtdWwpAdoBeKkAcgcAAAD6JS9jb250ZW50L0ZTQS1O\nZXQvZGVtby9GU0FORVRfbW9kZWwucHnaCDxsYW1iZGE+KgMAAPMAAAAA\n", null, null], "function_type": "lambda", "output_shape": null, "output_shape_type": "raw", "arguments": {}}, "inbound_nodes": [[["S_matrix_s1", 0, 0, {}], ["concatenate_2", 0, 0, {}], ["lambda_1", 0, 0, {}]]]}, {"name": "lambda_5", "class_name": "Lambda", "config": {"name": "lambda_5", "trainable": true, "function": ["4wEAAAAAAAAAAQAAAAQAAABTAAAAcxwAAAB0AGoBfABkARkAfABkAhkAgwJ8AGQDGQAbAFMAKQRO\n6QAAAADpAQAAAOkCAAAAKQLaAnRm2gZtYXRtdWwpAdoBeKkAcgcAAAD6JS9jb250ZW50L0ZTQS1O\nZXQvZGVtby9GU0FORVRfbW9kZWwucHnaCDxsYW1iZGE+KwMAAPMAAAAA\n", null, null], "function_type": "lambda", "output_shape": null, "output_shape_type": "raw", "arguments": {}}, "inbound_nodes": [[["S_matrix_s2", 0, 0, {}], ["concatenate_2", 0, 0, {}], ["lambda_2", 0, 0, {}]]]}, {"name": "lambda_6", "class_name": "Lambda", "config": {"name": "lambda_6", "trainable": true, "function": ["4wEAAAAAAAAAAQAAAAQAAABTAAAAcxwAAAB0AGoBfABkARkAfABkAhkAgwJ8AGQDGQAbAFMAKQRO\n6QAAAADpAQAAAOkCAAAAKQLaAnRm2gZtYXRtdWwpAdoBeKkAcgcAAAD6JS9jb250ZW50L0ZTQS1O\nZXQvZGVtby9GU0FORVRfbW9kZWwucHnaCDxsYW1iZGE+LAMAAPMAAAAA\n", null, null], "function_type": "lambda", "output_shape": null, "output_shape_type": "raw", "arguments": {}}, "inbound_nodes": [[["S_matrix_s3", 0, 0, {}], ["concatenate_2", 0, 0, {}], ["lambda_3", 0, 0, {}]]]}, {"name": "concatenate_3", "class_name": "Concatenate", "config": {"name": "concatenate_3", "trainable": true, "axis": 1}, "inbound_nodes": [[["lambda_4", 0, 0, {}], ["lambda_5", 0, 0, {}], ["lambda_6", 0, 0, {}]]]}], "input_layers": [["input_3", 0, 0], ["input_4", 0, 0], ["input_5", 0, 0]], "output_layers": [["concatenate_3", 0, 0]]}, "inbound_nodes": [[["ssr_G_model", 1, 0, {}], ["ssr_G_model", 1, 1, {}], ["ssr_G_model", 1, 2, {}]]]}, {"name": "ssr_Cap_model", "class_name": "Model", "config": {"name": "ssr_Cap_model", "layers": [{"name": "input_6", "class_name": "InputLayer", "config": {"batch_input_shape": [null, 21, 64], "dtype": "float32", "sparse": false, "name": "input_6"}, "inbound_nodes": []}, {"name": "caps", "class_name": "CapsuleLayer", "config": {"name": "caps", "trainable": true, "num_capsule": 3, "dim_capsule": 16, "routings": 2}, "inbound_nodes": [[["input_6", 0, 0, {}]]]}, {"name": "lambda_7", "class_name": "Lambda", "config": {"name": "lambda_7", "trainable": true, "function": ["4wEAAAAAAAAAAQAAAAUAAAATAAAAcxoAAAB8AGQAZACFAogAiAGFAmQAZACFAmYDGQBTACkBTqkA\nKQHaAXgpAtoEczFfYdoEczFfYnIBAAAA+iUvY29udGVudC9GU0EtTmV0L2RlbW8vRlNBTkVUX21v\nZGVsLnB52gg8bGFtYmRhPjwDAADzAAAAAA==\n", null, [0, 1]], "function_type": "lambda", "output_shape": null, "output_shape_type": "raw", "arguments": {}}, "inbound_nodes": [[["caps", 0, 0, {}]]]}, {"name": "lambda_8", "class_name": "Lambda", "config": {"name": "lambda_8", "trainable": true, "function": ["4wEAAAAAAAAAAQAAAAUAAAATAAAAcxoAAAB8AGQAZACFAogAiAGFAmQAZACFAmYDGQBTACkBTqkA\nKQHaAXgpAtoEczJfYdoEczJfYnIBAAAA+iUvY29udGVudC9GU0EtTmV0L2RlbW8vRlNBTkVUX21v\nZGVsLnB52gg8bGFtYmRhPj8DAADzAAAAAA==\n", null, [1, 2]], "function_type": "lambda", "output_shape": null, "output_shape_type": "raw", "arguments": {}}, "inbound_nodes": [[["caps", 0, 0, {}]]]}, {"name": "lambda_9", "class_name": "Lambda", "config": {"name": "lambda_9", "trainable": true, "function": ["4wEAAAAAAAAAAQAAAAUAAAATAAAAcxoAAAB8AGQAZACFAogAiAGFAmQAZACFAmYDGQBTACkBTqkA\nKQHaAXgpAtoEczNfYdoEczNfYnIBAAAA+iUvY29udGVudC9GU0EtTmV0L2RlbW8vRlNBTkVUX21v\nZGVsLnB52gg8bGFtYmRhPkIDAADzAAAAAA==\n", null, [2, 3]], "function_type": "lambda", "output_shape": null, "output_shape_type": "raw", "arguments": {}}, "inbound_nodes": [[["caps", 0, 0, {}]]]}, {"name": "reshape_7", "class_name": "Reshape", "config": {"name": "reshape_7", "trainable": true, "target_shape": [-1]}, "inbound_nodes": [[["lambda_7", 0, 0, {}]]]}, {"name": "reshape_8", "class_name": "Reshape", "config": {"name": "reshape_8", "trainable": true, "target_shape": [-1]}, "inbound_nodes": [[["lambda_8", 0, 0, {}]]]}, {"name": "reshape_9", "class_name": "Reshape", "config": {"name": "reshape_9", "trainable": true, "target_shape": [-1]}, "inbound_nodes": [[["lambda_9", 0, 0, {}]]]}], "input_layers": [["input_6", 0, 0]], "output_layers": [["reshape_7", 0, 0], ["reshape_8", 0, 0], ["reshape_9", 0, 0]]}, "inbound_nodes": [[["ssr_S_model", 1, 0, {}]]]}, {"name": "ssr_F_Cap_model", "class_name": "Model", "config": {"name": "ssr_F_Cap_model", "layers": [{"name": "input_7", "class_name": "InputLayer", "config": {"batch_input_shape": [null, 16], "dtype": "float32", "sparse": false, "name": "input_7"}, "inbound_nodes": []}, {"name": "input_8", "class_name": "InputLayer", "config": {"batch_input_shape": [null, 16], "dtype": "float32", "sparse": false, "name": "input_8"}, "inbound_nodes": []}, {"name": "input_9", "class_name": "InputLayer", "config": {"batch_input_shape": [null, 16], "dtype": "float32", "sparse": false, "name": "input_9"}, "inbound_nodes": []}, {"name": "lambda_12", "class_name": "Lambda", "config": {"name": "lambda_12", "trainable": true, "function": ["4wEAAAAAAAAAAQAAAAQAAABTAAAAcxQAAAB8AGQAZACFAmQBZAKFAmYCGQBTACkDTukIAAAA6RAA\nAACpACkB2gF4cgMAAAByAwAAAPolL2NvbnRlbnQvRlNBLU5ldC9kZW1vL0ZTQU5FVF9tb2RlbC5w\nedoIPGxhbWJkYT5ZAwAA8wAAAAA=\n", null, null], "function_type": "lambda", "output_shape": null, "output_shape_type": "raw", "arguments": {}}, "inbound_nodes": [[["input_7", 0, 0, {}]]]}, {"name": "lambda_15", "class_name": "Lambda", "config": {"name": "lambda_15", "trainable": true, "function": ["4wEAAAAAAAAAAQAAAAQAAABTAAAAcxQAAAB8AGQAZACFAmQBZAKFAmYCGQBTACkDTukIAAAA6RAA\nAACpACkB2gF4cgMAAAByAwAAAPolL2NvbnRlbnQvRlNBLU5ldC9kZW1vL0ZTQU5FVF9tb2RlbC5w\nedoIPGxhbWJkYT5kAwAA8wAAAAA=\n", null, null], "function_type": "lambda", "output_shape": null, "output_shape_type": "raw", "arguments": {}}, "inbound_nodes": [[["input_8", 0, 0, {}]]]}, {"name": "lambda_18", "class_name": "Lambda", "config": {"name": "lambda_18", "trainable": true, "function": ["4wEAAAAAAAAAAQAAAAQAAABTAAAAcxQAAAB8AGQAZACFAmQBZAKFAmYCGQBTACkDTukIAAAA6RAA\nAACpACkB2gF4cgMAAAByAwAAAPolL2NvbnRlbnQvRlNBLU5ldC9kZW1vL0ZTQU5FVF9tb2RlbC5w\nedoIPGxhbWJkYT5vAwAA8wAAAAA=\n", null, null], "function_type": "lambda", "output_shape": null, "output_shape_type": "raw", "arguments": {}}, "inbound_nodes": [[["input_9", 0, 0, {}]]]}, {"name": "dense_3", "class_name": "Dense", "config": {"name": "dense_3", "trainable": true, "units": 9, "activation": "relu", "use_bias": true, "kernel_initializer": {"class_name": "VarianceScaling", "config": {"scale": 1.0, "mode": "fan_avg", "distribution": "uniform", "seed": null}}, "bias_initializer": {"class_name": "Zeros", "config": {}}, "kernel_regularizer": null, "bias_regularizer": null, "activity_regularizer": null, "kernel_constraint": null, "bias_constraint": null}, "inbound_nodes": [[["lambda_12", 0, 0, {}]]]}, {"name": "dense_4", "class_name": "Dense", "config": {"name": "dense_4", "trainable": true, "units": 9, "activation": "relu", "use_bias": true, "kernel_initializer": {"class_name": "VarianceScaling", "config": {"scale": 1.0, "mode": "fan_avg", "distribution": "uniform", "seed": null}}, "bias_initializer": {"class_name": "Zeros", "config": {}}, "kernel_regularizer": null, "bias_regularizer": null, "activity_regularizer": null, "kernel_constraint": null, "bias_constraint": null}, "inbound_nodes": [[["lambda_15", 0, 0, {}]]]}, {"name": "dense_5", "class_name": "Dense", "config": {"name": "dense_5", "trainable": true, "units": 9, "activation": "relu", "use_bias": true, "kernel_initializer": {"class_name": "VarianceScaling", "config": {"scale": 1.0, "mode": "fan_avg", "distribution": "uniform", "seed": null}}, "bias_initializer": {"class_name": "Zeros", "config": {}}, "kernel_regularizer": null, "bias_regularizer": null, "activity_regularizer": null, "kernel_constraint": null, "bias_constraint": null}, "inbound_nodes": [[["lambda_18", 0, 0, {}]]]}, {"name": "lambda_10", "class_name": "Lambda", "config": {"name": "lambda_10", "trainable": true, "function": ["4wEAAAAAAAAAAQAAAAQAAABTAAAAcxQAAAB8AGQAZACFAmQBZAKFAmYCGQBTACkDTukAAAAA6QQA\nAACpACkB2gF4cgMAAAByAwAAAPolL2NvbnRlbnQvRlNBLU5ldC9kZW1vL0ZTQU5FVF9tb2RlbC5w\nedoIPGxhbWJkYT5TAwAA8wAAAAA=\n", null, null], "function_type": "lambda", "output_shape": null, "output_shape_type": "raw", "arguments": {}}, "inbound_nodes": [[["input_7", 0, 0, {}]]]}, {"name": "lambda_13", "class_name": "Lambda", "config": {"name": "lambda_13", "trainable": true, "function": ["4wEAAAAAAAAAAQAAAAQAAABTAAAAcxQAAAB8AGQAZACFAmQBZAKFAmYCGQBTACkDTukAAAAA6QQA\nAACpACkB2gF4cgMAAAByAwAAAPolL2NvbnRlbnQvRlNBLU5ldC9kZW1vL0ZTQU5FVF9tb2RlbC5w\nedoIPGxhbWJkYT5eAwAA8wAAAAA=\n", null, null], "function_type": "lambda", "output_shape": null, "output_shape_type": "raw", "arguments": {}}, "inbound_nodes": [[["input_8", 0, 0, {}]]]}, {"name": "lambda_16", "class_name": "Lambda", "config": {"name": "lambda_16", "trainable": true, "function": ["4wEAAAAAAAAAAQAAAAQAAABTAAAAcxQAAAB8AGQAZACFAmQBZAKFAmYCGQBTACkDTukAAAAA6QQA\nAACpACkB2gF4cgMAAAByAwAAAPolL2NvbnRlbnQvRlNBLU5ldC9kZW1vL0ZTQU5FVF9tb2RlbC5w\nedoIPGxhbWJkYT5pAwAA8wAAAAA=\n", null, null], "function_type": "lambda", "output_shape": null, "output_shape_type": "raw", "arguments": {}}, "inbound_nodes": [[["input_9", 0, 0, {}]]]}, {"name": "lambda_11", "class_name": "Lambda", "config": {"name": "lambda_11", "trainable": true, "function": ["4wEAAAAAAAAAAQAAAAQAAABTAAAAcxQAAAB8AGQAZACFAmQBZAKFAmYCGQBTACkDTukEAAAA6QgA\nAACpACkB2gF4cgMAAAByAwAAAPolL2NvbnRlbnQvRlNBLU5ldC9kZW1vL0ZTQU5FVF9tb2RlbC5w\nedoIPGxhbWJkYT5WAwAA8wAAAAA=\n", null, null], "function_type": "lambda", "output_shape": null, "output_shape_type": "raw", "arguments": {}}, "inbound_nodes": [[["input_7", 0, 0, {}]]]}, {"name": "lambda_14", "class_name": "Lambda", "config": {"name": "lambda_14", "trainable": true, "function": ["4wEAAAAAAAAAAQAAAAQAAABTAAAAcxQAAAB8AGQAZACFAmQBZAKFAmYCGQBTACkDTukEAAAA6QgA\nAACpACkB2gF4cgMAAAByAwAAAPolL2NvbnRlbnQvRlNBLU5ldC9kZW1vL0ZTQU5FVF9tb2RlbC5w\nedoIPGxhbWJkYT5hAwAA8wAAAAA=\n", null, null], "function_type": "lambda", "output_shape": null, "output_shape_type": "raw", "arguments": {}}, "inbound_nodes": [[["input_8", 0, 0, {}]]]}, {"name": "lambda_17", "class_name": "Lambda", "config": {"name": "lambda_17", "trainable": true, "function": ["4wEAAAAAAAAAAQAAAAQAAABTAAAAcxQAAAB8AGQAZACFAmQBZAKFAmYCGQBTACkDTukEAAAA6QgA\nAACpACkB2gF4cgMAAAByAwAAAPolL2NvbnRlbnQvRlNBLU5ldC9kZW1vL0ZTQU5FVF9tb2RlbC5w\nedoIPGxhbWJkYT5sAwAA8wAAAAA=\n", null, null], "function_type": "lambda", "output_shape": null, "output_shape_type": "raw", "arguments": {}}, "inbound_nodes": [[["input_9", 0, 0, {}]]]}, {"name": "reshape_10", "class_name": "Reshape", "config": {"name": "reshape_10", "trainable": true, "target_shape": [3, 3]}, "inbound_nodes": [[["dense_3", 0, 0, {}]]]}, {"name": "reshape_11", "class_name": "Reshape", "config": {"name": "reshape_11", "trainable": true, "target_shape": [3, 3]}, "inbound_nodes": [[["dense_4", 0, 0, {}]]]}, {"name": "reshape_12", "class_name": "Reshape", "config": {"name": "reshape_12", "trainable": true, "target_shape": [3, 3]}, "inbound_nodes": [[["dense_5", 0, 0, {}]]]}, {"name": "delta_s1", "class_name": "Dense", "config": {"name": "delta_s1", "trainable": true, "units": 3, "activation": "tanh", "use_bias": true, "kernel_initializer": {"class_name": "VarianceScaling", "config": {"scale": 1.0, "mode": "fan_avg", "distribution": "uniform", "seed": null}}, "bias_initializer": {"class_name": "Zeros", "config": {}}, "kernel_regularizer": null, "bias_regularizer": null, "activity_regularizer": null, "kernel_constraint": null, "bias_constraint": null}, "inbound_nodes": [[["lambda_10", 0, 0, {}]]]}, {"name": "delta_s2", "class_name": "Dense", "config": {"name": "delta_s2", "trainable": true, "units": 3, "activation": "tanh", "use_bias": true, "kernel_initializer": {"class_name": "VarianceScaling", "config": {"scale": 1.0, "mode": "fan_avg", "distribution": "uniform", "seed": null}}, "bias_initializer": {"class_name": "Zeros", "config": {}}, "kernel_regularizer": null, "bias_regularizer": null, "activity_regularizer": null, "kernel_constraint": null, "bias_constraint": null}, "inbound_nodes": [[["lambda_13", 0, 0, {}]]]}, {"name": "delta_s3", "class_name": "Dense", "config": {"name": "delta_s3", "trainable": true, "units": 3, "activation": "tanh", "use_bias": true, "kernel_initializer": {"class_name": "VarianceScaling", "config": {"scale": 1.0, "mode": "fan_avg", "distribution": "uniform", "seed": null}}, "bias_initializer": {"class_name": "Zeros", "config": {}}, "kernel_regularizer": null, "bias_regularizer": null, "activity_regularizer": null, "kernel_constraint": null, "bias_constraint": null}, "inbound_nodes": [[["lambda_16", 0, 0, {}]]]}, {"name": "local_delta_stage1", "class_name": "Dense", "config": {"name": "local_delta_stage1", "trainable": true, "units": 3, "activation": "tanh", "use_bias": true, "kernel_initializer": {"class_name": "VarianceScaling", "config": {"scale": 1.0, "mode": "fan_avg", "distribution": "uniform", "seed": null}}, "bias_initializer": {"class_name": "Zeros", "config": {}}, "kernel_regularizer": null, "bias_regularizer": null, "activity_regularizer": null, "kernel_constraint": null, "bias_constraint": null}, "inbound_nodes": [[["lambda_11", 0, 0, {}]]]}, {"name": "local_delta_stage2", "class_name": "Dense", "config": {"name": "local_delta_stage2", "trainable": true, "units": 3, "activation": "tanh", "use_bias": true, "kernel_initializer": {"class_name": "VarianceScaling", "config": {"scale": 1.0, "mode": "fan_avg", "distribution": "uniform", "seed": null}}, "bias_initializer": {"class_name": "Zeros", "config": {}}, "kernel_regularizer": null, "bias_regularizer": null, "activity_regularizer": null, "kernel_constraint": null, "bias_constraint": null}, "inbound_nodes": [[["lambda_14", 0, 0, {}]]]}, {"name": "local_delta_stage3", "class_name": "Dense", "config": {"name": "local_delta_stage3", "trainable": true, "units": 3, "activation": "tanh", "use_bias": true, "kernel_initializer": {"class_name": "VarianceScaling", "config": {"scale": 1.0, "mode": "fan_avg", "distribution": "uniform", "seed": null}}, "bias_initializer": {"class_name": "Zeros", "config": {}}, "kernel_regularizer": null, "bias_regularizer": null, "activity_regularizer": null, "kernel_constraint": null, "bias_constraint": null}, "inbound_nodes": [[["lambda_17", 0, 0, {}]]]}], "input_layers": [["input_7", 0, 0], ["input_8", 0, 0], ["input_9", 0, 0]], "output_layers": [["reshape_10", 0, 0], ["reshape_11", 0, 0], ["reshape_12", 0, 0], ["delta_s1", 0, 0], ["delta_s2", 0, 0], ["delta_s3", 0, 0], ["local_delta_stage1", 0, 0], ["local_delta_stage2", 0, 0], ["local_delta_stage3", 0, 0]]}, "inbound_nodes": [[["ssr_Cap_model", 1, 0, {}], ["ssr_Cap_model", 1, 1, {}], ["ssr_Cap_model", 1, 2, {}]]]}, {"name": "pred_pose", "class_name": "Lambda", "config": {"name": "pred_pose", "trainable": true, "function": ["4wUAAAAAAAAAEAAAAAcAAABTAAAAc9YBAAB8AGQBGQBkAGQAhQJkAGQAhQJkAWYDGQBkARQAfQV8\nAGQBGQBkAGQAhQJkAGQAhQJkAWYDGQBkARQAfQZ8AGQBGQBkAGQAhQJkAGQAhQJkAWYDGQBkARQA\nfQd8AWQCGgB9CHwCZAIaAH0JfANkAhoAfQpkA30LeEB0AGQBfAGDAkQAXTJ9DHwFfAx8CBgAfABk\nBBkAFwB8AGQBGQBkAGQAhQJkAGQAhQJ8DGYDGQAUABcAfQVxglcAfAV8AWQFfAR8AGQGGQAUABcA\nFAAbAH0FeEB0AGQBfAKDAkQAXTJ9DXwGfA18CRgAfABkBxkAFwB8AGQFGQBkAGQAhQJkAGQAhQJ8\nDWYDGQAUABcAfQZx3FcAfAZ8AWQFfAR8AGQGGQAUABcAFAAbAHwCZAV8BHwAZAgZABQAFwAUABsA\nfQZ4QnQAZAF8A4MCRABdNH0OfAd8DnwKGAB8AGQJGQAXAHwAZAIZAGQAZACFAmQAZACFAnwOZgMZ\nABQAFwB9B5ABcUpXAHwHfAFkBXwEfABkBhkAFAAXABQAGwB8AmQFfAR8AGQIGQAUABcAFAAbAHwD\nZAV8BHwAZAoZABQAFwAUABsAfQd8BXwGFwB8BxcAfAsUAH0PfA9TACkLTukAAAAA6QIAAADpYwAA\nAOkGAAAA6QEAAADpAwAAAOkHAAAA6QQAAADpCAAAAOkFAAAAKQHaBXJhbmdlKRDaAXjaAnMx2gJz\nMtoCczPaCGxhbWJkYV9k2gFh2gFi2gFj2gJkadoCZGraAmRr2gFW2gFp2gFq2gFr2gRwcmVkqQBy\nHAAAAPolL2NvbnRlbnQvRlNBLU5ldC9kZW1vL0ZTQU5FVF9tb2RlbC5wedoKU1NSX21vZHVsZXsD\nAABzJAAAAAABHgEeAR4CCAEIAQgCBAMQATIBGAIQATIBLAIQATQBQAIQAg==\n", null, null], "function_type": "lambda", "output_shape": null, "output_shape_type": "raw", "arguments": {"s1": 3, "s2": 3, "s3": 3, "lambda_d": 1}}, "inbound_nodes": [[["ssr_F_Cap_model", 1, 0, {}], ["ssr_F_Cap_model", 1, 1, {}], ["ssr_F_Cap_model", 1, 2, {}], ["ssr_F_Cap_model", 1, 3, {}], ["ssr_F_Cap_model", 1, 4, {}], ["ssr_F_Cap_model", 1, 5, {}], ["ssr_F_Cap_model", 1, 6, {}], ["ssr_F_Cap_model", 1, 7, {}], ["ssr_F_Cap_model", 1, 8, {}]]]}], "input_layers": [["input_1", 0, 0]], "output_layers": [["pred_pose", 0, 0]]}, "inbound_nodes": [[["input_27", 0, 0, {}]]]}, {"name": "model_2", "class_name": "Model", "config": {"name": "model_2", "layers": [{"name": "input_10", "class_name": "InputLayer", "config": {"batch_input_shape": [null, 64, 64, 3], "dtype": "float32", "sparse": false, "name": "input_10"}, "inbound_nodes": []}, {"name": "ssr_G_model", "class_name": "Model", "config": {"name": "ssr_G_model", "layers": [{"name": "input_10", "class_name": "InputLayer", "config": {"batch_input_shape": [null, 64, 64, 3], "dtype": "float32", "sparse": false, "name": "input_10"}, "inbound_nodes": []}, {"name": "separable_conv2d_22", "class_name": "SeparableConv2D", "config": {"name": "separable_conv2d_22", "trainable": true, "filters": 16, "kernel_size": [3, 3], "strides": [1, 1], "padding": "same", "data_format": "channels_last", "dilation_rate": [1, 1], "activation": "linear", "use_bias": true, "bias_initializer": {"class_name": "Zeros", "config": {}}, "bias_regularizer": null, "activity_regularizer": null, "bias_constraint": null, "depth_multiplier": 1, "depthwise_initializer": {"class_name": "VarianceScaling", "config": {"scale": 1.0, "mode": "fan_avg", "distribution": "uniform", "seed": null}}, "pointwise_initializer": {"class_name": "VarianceScaling", "config": {"scale": 1.0, "mode": "fan_avg", "distribution": "uniform", "seed": null}}, "depthwise_regularizer": null, "pointwise_regularizer": null, "depthwise_constraint": null, "pointwise_constraint": null}, "inbound_nodes": [[["input_10", 0, 0, {}]]]}, {"name": "separable_conv2d_15", "class_name": "SeparableConv2D", "config": {"name": "separable_conv2d_15", "trainable": true, "filters": 16, "kernel_size": [3, 3], "strides": [1, 1], "padding": "same", "data_format": "channels_last", "dilation_rate": [1, 1], "activation": "linear", "use_bias": true, "bias_initializer": {"class_name": "Zeros", "config": {}}, "bias_regularizer": null, "activity_regularizer": null, "bias_constraint": null, "depth_multiplier": 1, "depthwise_initializer": {"class_name": "VarianceScaling", "config": {"scale": 1.0, "mode": "fan_avg", "distribution": "uniform", "seed": null}}, "pointwise_initializer": {"class_name": "VarianceScaling", "config": {"scale": 1.0, "mode": "fan_avg", "distribution": "uniform", "seed": null}}, "depthwise_regularizer": null, "pointwise_regularizer": null, "depthwise_constraint": null, "pointwise_constraint": null}, "inbound_nodes": [[["input_10", 0, 0, {}]]]}, {"name": "batch_normalization_22", "class_name": "BatchNormalization", "config": {"name": "batch_normalization_22", "trainable": true, "axis": -1, "momentum": 0.99, "epsilon": 0.001, "center": true, "scale": true, "beta_initializer": {"class_name": "Zeros", "config": {}}, "gamma_initializer": {"class_name": "Ones", "config": {}}, "moving_mean_initializer": {"class_name": "Zeros", "config": {}}, "moving_variance_initializer": {"class_name": "Ones", "config": {}}, "beta_regularizer": null, "gamma_regularizer": null, "beta_constraint": null, "gamma_constraint": null}, "inbound_nodes": [[["separable_conv2d_22", 0, 0, {}]]]}, {"name": "batch_normalization_15", "class_name": "BatchNormalization", "config": {"name": "batch_normalization_15", "trainable": true, "axis": -1, "momentum": 0.99, "epsilon": 0.001, "center": true, "scale": true, "beta_initializer": {"class_name": "Zeros", "config": {}}, "gamma_initializer": {"class_name": "Ones", "config": {}}, "moving_mean_initializer": {"class_name": "Zeros", "config": {}}, "moving_variance_initializer": {"class_name": "Ones", "config": {}}, "beta_regularizer": null, "gamma_regularizer": null, "beta_constraint": null, "gamma_constraint": null}, "inbound_nodes": [[["separable_conv2d_15", 0, 0, {}]]]}, {"name": "activation_22", "class_name": "Activation", "config": {"name": "activation_22", "trainable": true, "activation": "tanh"}, "inbound_nodes": [[["batch_normalization_22", 0, 0, {}]]]}, {"name": "activation_15", "class_name": "Activation", "config": {"name": "activation_15", "trainable": true, "activation": "relu"}, "inbound_nodes": [[["batch_normalization_15", 0, 0, {}]]]}, {"name": "max_pooling2d_4", "class_name": "MaxPooling2D", "config": {"name": "max_pooling2d_4", "trainable": true, "pool_size": [2, 2], "padding": "valid", "strides": [2, 2], "data_format": "channels_last"}, "inbound_nodes": [[["activation_22", 0, 0, {}]]]}, {"name": "average_pooling2d_5", "class_name": "AveragePooling2D", "config": {"name": "average_pooling2d_5", "trainable": true, "pool_size": [2, 2], "padding": "valid", "strides": [2, 2], "data_format": "channels_last"}, "inbound_nodes": [[["activation_15", 0, 0, {}]]]}, {"name": "separable_conv2d_23", "class_name": "SeparableConv2D", "config": {"name": "separable_conv2d_23", "trainable": true, "filters": 32, "kernel_size": [3, 3], "strides": [1, 1], "padding": "same", "data_format": "channels_last", "dilation_rate": [1, 1], "activation": "linear", "use_bias": true, "bias_initializer": {"class_name": "Zeros", "config": {}}, "bias_regularizer": null, "activity_regularizer": null, "bias_constraint": null, "depth_multiplier": 1, "depthwise_initializer": {"class_name": "VarianceScaling", "config": {"scale": 1.0, "mode": "fan_avg", "distribution": "uniform", "seed": null}}, "pointwise_initializer": {"class_name": "VarianceScaling", "config": {"scale": 1.0, "mode": "fan_avg", "distribution": "uniform", "seed": null}}, "depthwise_regularizer": null, "pointwise_regularizer": null, "depthwise_constraint": null, "pointwise_constraint": null}, "inbound_nodes": [[["max_pooling2d_4", 0, 0, {}]]]}, {"name": "separable_conv2d_16", "class_name": "SeparableConv2D", "config": {"name": "separable_conv2d_16", "trainable": true, "filters": 32, "kernel_size": [3, 3], "strides": [1, 1], "padding": "same", "data_format": "channels_last", "dilation_rate": [1, 1], "activation": "linear", "use_bias": true, "bias_initializer": {"class_name": "Zeros", "config": {}}, "bias_regularizer": null, "activity_regularizer": null, "bias_constraint": null, "depth_multiplier": 1, "depthwise_initializer": {"class_name": "VarianceScaling", "config": {"scale": 1.0, "mode": "fan_avg", "distribution": "uniform", "seed": null}}, "pointwise_initializer": {"class_name": "VarianceScaling", "config": {"scale": 1.0, "mode": "fan_avg", "distribution": "uniform", "seed": null}}, "depthwise_regularizer": null, "pointwise_regularizer": null, "depthwise_constraint": null, "pointwise_constraint": null}, "inbound_nodes": [[["average_pooling2d_5", 0, 0, {}]]]}, {"name": "batch_normalization_23", "class_name": "BatchNormalization", "config": {"name": "batch_normalization_23", "trainable": true, "axis": -1, "momentum": 0.99, "epsilon": 0.001, "center": true, "scale": true, "beta_initializer": {"class_name": "Zeros", "config": {}}, "gamma_initializer": {"class_name": "Ones", "config": {}}, "moving_mean_initializer": {"class_name": "Zeros", "config": {}}, "moving_variance_initializer": {"class_name": "Ones", "config": {}}, "beta_regularizer": null, "gamma_regularizer": null, "beta_constraint": null, "gamma_constraint": null}, "inbound_nodes": [[["separable_conv2d_23", 0, 0, {}]]]}, {"name": "batch_normalization_16", "class_name": "BatchNormalization", "config": {"name": "batch_normalization_16", "trainable": true, "axis": -1, "momentum": 0.99, "epsilon": 0.001, "center": true, "scale": true, "beta_initializer": {"class_name": "Zeros", "config": {}}, "gamma_initializer": {"class_name": "Ones", "config": {}}, "moving_mean_initializer": {"class_name": "Zeros", "config": {}}, "moving_variance_initializer": {"class_name": "Ones", "config": {}}, "beta_regularizer": null, "gamma_regularizer": null, "beta_constraint": null, "gamma_constraint": null}, "inbound_nodes": [[["separable_conv2d_16", 0, 0, {}]]]}, {"name": "activation_23", "class_name": "Activation", "config": {"name": "activation_23", "trainable": true, "activation": "tanh"}, "inbound_nodes": [[["batch_normalization_23", 0, 0, {}]]]}, {"name": "activation_16", "class_name": "Activation", "config": {"name": "activation_16", "trainable": true, "activation": "relu"}, "inbound_nodes": [[["batch_normalization_16", 0, 0, {}]]]}, {"name": "separable_conv2d_24", "class_name": "SeparableConv2D", "config": {"name": "separable_conv2d_24", "trainable": true, "filters": 32, "kernel_size": [3, 3], "strides": [1, 1], "padding": "same", "data_format": "channels_last", "dilation_rate": [1, 1], "activation": "linear", "use_bias": true, "bias_initializer": {"class_name": "Zeros", "config": {}}, "bias_regularizer": null, "activity_regularizer": null, "bias_constraint": null, "depth_multiplier": 1, "depthwise_initializer": {"class_name": "VarianceScaling", "config": {"scale": 1.0, "mode": "fan_avg", "distribution": "uniform", "seed": null}}, "pointwise_initializer": {"class_name": "VarianceScaling", "config": {"scale": 1.0, "mode": "fan_avg", "distribution": "uniform", "seed": null}}, "depthwise_regularizer": null, "pointwise_regularizer": null, "depthwise_constraint": null, "pointwise_constraint": null}, "inbound_nodes": [[["activation_23", 0, 0, {}]]]}, {"name": "separable_conv2d_17", "class_name": "SeparableConv2D", "config": {"name": "separable_conv2d_17", "trainable": true, "filters": 32, "kernel_size": [3, 3], "strides": [1, 1], "padding": "same", "data_format": "channels_last", "dilation_rate": [1, 1], "activation": "linear", "use_bias": true, "bias_initializer": {"class_name": "Zeros", "config": {}}, "bias_regularizer": null, "activity_regularizer": null, "bias_constraint": null, "depth_multiplier": 1, "depthwise_initializer": {"class_name": "VarianceScaling", "config": {"scale": 1.0, "mode": "fan_avg", "distribution": "uniform", "seed": null}}, "pointwise_initializer": {"class_name": "VarianceScaling", "config": {"scale": 1.0, "mode": "fan_avg", "distribution": "uniform", "seed": null}}, "depthwise_regularizer": null, "pointwise_regularizer": null, "depthwise_constraint": null, "pointwise_constraint": null}, "inbound_nodes": [[["activation_16", 0, 0, {}]]]}, {"name": "batch_normalization_24", "class_name": "BatchNormalization", "config": {"name": "batch_normalization_24", "trainable": true, "axis": -1, "momentum": 0.99, "epsilon": 0.001, "center": true, "scale": true, "beta_initializer": {"class_name": "Zeros", "config": {}}, "gamma_initializer": {"class_name": "Ones", "config": {}}, "moving_mean_initializer": {"class_name": "Zeros", "config": {}}, "moving_variance_initializer": {"class_name": "Ones", "config": {}}, "beta_regularizer": null, "gamma_regularizer": null, "beta_constraint": null, "gamma_constraint": null}, "inbound_nodes": [[["separable_conv2d_24", 0, 0, {}]]]}, {"name": "batch_normalization_17", "class_name": "BatchNormalization", "config": {"name": "batch_normalization_17", "trainable": true, "axis": -1, "momentum": 0.99, "epsilon": 0.001, "center": true, "scale": true, "beta_initializer": {"class_name": "Zeros", "config": {}}, "gamma_initializer": {"class_name": "Ones", "config": {}}, "moving_mean_initializer": {"class_name": "Zeros", "config": {}}, "moving_variance_initializer": {"class_name": "Ones", "config": {}}, "beta_regularizer": null, "gamma_regularizer": null, "beta_constraint": null, "gamma_constraint": null}, "inbound_nodes": [[["separable_conv2d_17", 0, 0, {}]]]}, {"name": "activation_24", "class_name": "Activation", "config": {"name": "activation_24", "trainable": true, "activation": "tanh"}, "inbound_nodes": [[["batch_normalization_24", 0, 0, {}]]]}, {"name": "activation_17", "class_name": "Activation", "config": {"name": "activation_17", "trainable": true, "activation": "relu"}, "inbound_nodes": [[["batch_normalization_17", 0, 0, {}]]]}, {"name": "max_pooling2d_5", "class_name": "MaxPooling2D", "config": {"name": "max_pooling2d_5", "trainable": true, "pool_size": [2, 2], "padding": "valid", "strides": [2, 2], "data_format": "channels_last"}, "inbound_nodes": [[["activation_24", 0, 0, {}]]]}, {"name": "average_pooling2d_6", "class_name": "AveragePooling2D", "config": {"name": "average_pooling2d_6", "trainable": true, "pool_size": [2, 2], "padding": "valid", "strides": [2, 2], "data_format": "channels_last"}, "inbound_nodes": [[["activation_17", 0, 0, {}]]]}, {"name": "separable_conv2d_25", "class_name": "SeparableConv2D", "config": {"name": "separable_conv2d_25", "trainable": true, "filters": 64, "kernel_size": [3, 3], "strides": [1, 1], "padding": "same", "data_format": "channels_last", "dilation_rate": [1, 1], "activation": "linear", "use_bias": true, "bias_initializer": {"class_name": "Zeros", "config": {}}, "bias_regularizer": null, "activity_regularizer": null, "bias_constraint": null, "depth_multiplier": 1, "depthwise_initializer": {"class_name": "VarianceScaling", "config": {"scale": 1.0, "mode": "fan_avg", "distribution": "uniform", "seed": null}}, "pointwise_initializer": {"class_name": "VarianceScaling", "config": {"scale": 1.0, "mode": "fan_avg", "distribution": "uniform", "seed": null}}, "depthwise_regularizer": null, "pointwise_regularizer": null, "depthwise_constraint": null, "pointwise_constraint": null}, "inbound_nodes": [[["max_pooling2d_5", 0, 0, {}]]]}, {"name": "separable_conv2d_18", "class_name": "SeparableConv2D", "config": {"name": "separable_conv2d_18", "trainable": true, "filters": 64, "kernel_size": [3, 3], "strides": [1, 1], "padding": "same", "data_format": "channels_last", "dilation_rate": [1, 1], "activation": "linear", "use_bias": true, "bias_initializer": {"class_name": "Zeros", "config": {}}, "bias_regularizer": null, "activity_regularizer": null, "bias_constraint": null, "depth_multiplier": 1, "depthwise_initializer": {"class_name": "VarianceScaling", "config": {"scale": 1.0, "mode": "fan_avg", "distribution": "uniform", "seed": null}}, "pointwise_initializer": {"class_name": "VarianceScaling", "config": {"scale": 1.0, "mode": "fan_avg", "distribution": "uniform", "seed": null}}, "depthwise_regularizer": null, "pointwise_regularizer": null, "depthwise_constraint": null, "pointwise_constraint": null}, "inbound_nodes": [[["average_pooling2d_6", 0, 0, {}]]]}, {"name": "batch_normalization_25", "class_name": "BatchNormalization", "config": {"name": "batch_normalization_25", "trainable": true, "axis": -1, "momentum": 0.99, "epsilon": 0.001, "center": true, "scale": true, "beta_initializer": {"class_name": "Zeros", "config": {}}, "gamma_initializer": {"class_name": "Ones", "config": {}}, "moving_mean_initializer": {"class_name": "Zeros", "config": {}}, "moving_variance_initializer": {"class_name": "Ones", "config": {}}, "beta_regularizer": null, "gamma_regularizer": null, "beta_constraint": null, "gamma_constraint": null}, "inbound_nodes": [[["separable_conv2d_25", 0, 0, {}]]]}, {"name": "batch_normalization_18", "class_name": "BatchNormalization", "config": {"name": "batch_normalization_18", "trainable": true, "axis": -1, "momentum": 0.99, "epsilon": 0.001, "center": true, "scale": true, "beta_initializer": {"class_name": "Zeros", "config": {}}, "gamma_initializer": {"class_name": "Ones", "config": {}}, "moving_mean_initializer": {"class_name": "Zeros", "config": {}}, "moving_variance_initializer": {"class_name": "Ones", "config": {}}, "beta_regularizer": null, "gamma_regularizer": null, "beta_constraint": null, "gamma_constraint": null}, "inbound_nodes": [[["separable_conv2d_18", 0, 0, {}]]]}, {"name": "activation_25", "class_name": "Activation", "config": {"name": "activation_25", "trainable": true, "activation": "tanh"}, "inbound_nodes": [[["batch_normalization_25", 0, 0, {}]]]}, {"name": "activation_18", "class_name": "Activation", "config": {"name": "activation_18", "trainable": true, "activation": "relu"}, "inbound_nodes": [[["batch_normalization_18", 0, 0, {}]]]}, {"name": "separable_conv2d_26", "class_name": "SeparableConv2D", "config": {"name": "separable_conv2d_26", "trainable": true, "filters": 64, "kernel_size": [3, 3], "strides": [1, 1], "padding": "same", "data_format": "channels_last", "dilation_rate": [1, 1], "activation": "linear", "use_bias": true, "bias_initializer": {"class_name": "Zeros", "config": {}}, "bias_regularizer": null, "activity_regularizer": null, "bias_constraint": null, "depth_multiplier": 1, "depthwise_initializer": {"class_name": "VarianceScaling", "config": {"scale": 1.0, "mode": "fan_avg", "distribution": "uniform", "seed": null}}, "pointwise_initializer": {"class_name": "VarianceScaling", "config": {"scale": 1.0, "mode": "fan_avg", "distribution": "uniform", "seed": null}}, "depthwise_regularizer": null, "pointwise_regularizer": null, "depthwise_constraint": null, "pointwise_constraint": null}, "inbound_nodes": [[["activation_25", 0, 0, {}]]]}, {"name": "separable_conv2d_19", "class_name": "SeparableConv2D", "config": {"name": "separable_conv2d_19", "trainable": true, "filters": 64, "kernel_size": [3, 3], "strides": [1, 1], "padding": "same", "data_format": "channels_last", "dilation_rate": [1, 1], "activation": "linear", "use_bias": true, "bias_initializer": {"class_name": "Zeros", "config": {}}, "bias_regularizer": null, "activity_regularizer": null, "bias_constraint": null, "depth_multiplier": 1, "depthwise_initializer": {"class_name": "VarianceScaling", "config": {"scale": 1.0, "mode": "fan_avg", "distribution": "uniform", "seed": null}}, "pointwise_initializer": {"class_name": "VarianceScaling", "config": {"scale": 1.0, "mode": "fan_avg", "distribution": "uniform", "seed": null}}, "depthwise_regularizer": null, "pointwise_regularizer": null, "depthwise_constraint": null, "pointwise_constraint": null}, "inbound_nodes": [[["activation_18", 0, 0, {}]]]}, {"name": "batch_normalization_26", "class_name": "BatchNormalization", "config": {"name": "batch_normalization_26", "trainable": true, "axis": -1, "momentum": 0.99, "epsilon": 0.001, "center": true, "scale": true, "beta_initializer": {"class_name": "Zeros", "config": {}}, "gamma_initializer": {"class_name": "Ones", "config": {}}, "moving_mean_initializer": {"class_name": "Zeros", "config": {}}, "moving_variance_initializer": {"class_name": "Ones", "config": {}}, "beta_regularizer": null, "gamma_regularizer": null, "beta_constraint": null, "gamma_constraint": null}, "inbound_nodes": [[["separable_conv2d_26", 0, 0, {}]]]}, {"name": "batch_normalization_19", "class_name": "BatchNormalization", "config": {"name": "batch_normalization_19", "trainable": true, "axis": -1, "momentum": 0.99, "epsilon": 0.001, "center": true, "scale": true, "beta_initializer": {"class_name": "Zeros", "config": {}}, "gamma_initializer": {"class_name": "Ones", "config": {}}, "moving_mean_initializer": {"class_name": "Zeros", "config": {}}, "moving_variance_initializer": {"class_name": "Ones", "config": {}}, "beta_regularizer": null, "gamma_regularizer": null, "beta_constraint": null, "gamma_constraint": null}, "inbound_nodes": [[["separable_conv2d_19", 0, 0, {}]]]}, {"name": "activation_26", "class_name": "Activation", "config": {"name": "activation_26", "trainable": true, "activation": "tanh"}, "inbound_nodes": [[["batch_normalization_26", 0, 0, {}]]]}, {"name": "activation_19", "class_name": "Activation", "config": {"name": "activation_19", "trainable": true, "activation": "relu"}, "inbound_nodes": [[["batch_normalization_19", 0, 0, {}]]]}, {"name": "max_pooling2d_6", "class_name": "MaxPooling2D", "config": {"name": "max_pooling2d_6", "trainable": true, "pool_size": [2, 2], "padding": "valid", "strides": [2, 2], "data_format": "channels_last"}, "inbound_nodes": [[["activation_26", 0, 0, {}]]]}, {"name": "average_pooling2d_7", "class_name": "AveragePooling2D", "config": {"name": "average_pooling2d_7", "trainable": true, "pool_size": [2, 2], "padding": "valid", "strides": [2, 2], "data_format": "channels_last"}, "inbound_nodes": [[["activation_19", 0, 0, {}]]]}, {"name": "separable_conv2d_27", "class_name": "SeparableConv2D", "config": {"name": "separable_conv2d_27", "trainable": true, "filters": 128, "kernel_size": [3, 3], "strides": [1, 1], "padding": "same", "data_format": "channels_last", "dilation_rate": [1, 1], "activation": "linear", "use_bias": true, "bias_initializer": {"class_name": "Zeros", "config": {}}, "bias_regularizer": null, "activity_regularizer": null, "bias_constraint": null, "depth_multiplier": 1, "depthwise_initializer": {"class_name": "VarianceScaling", "config": {"scale": 1.0, "mode": "fan_avg", "distribution": "uniform", "seed": null}}, "pointwise_initializer": {"class_name": "VarianceScaling", "config": {"scale": 1.0, "mode": "fan_avg", "distribution": "uniform", "seed": null}}, "depthwise_regularizer": null, "pointwise_regularizer": null, "depthwise_constraint": null, "pointwise_constraint": null}, "inbound_nodes": [[["max_pooling2d_6", 0, 0, {}]]]}, {"name": "separable_conv2d_20", "class_name": "SeparableConv2D", "config": {"name": "separable_conv2d_20", "trainable": true, "filters": 128, "kernel_size": [3, 3], "strides": [1, 1], "padding": "same", "data_format": "channels_last", "dilation_rate": [1, 1], "activation": "linear", "use_bias": true, "bias_initializer": {"class_name": "Zeros", "config": {}}, "bias_regularizer": null, "activity_regularizer": null, "bias_constraint": null, "depth_multiplier": 1, "depthwise_initializer": {"class_name": "VarianceScaling", "config": {"scale": 1.0, "mode": "fan_avg", "distribution": "uniform", "seed": null}}, "pointwise_initializer": {"class_name": "VarianceScaling", "config": {"scale": 1.0, "mode": "fan_avg", "distribution": "uniform", "seed": null}}, "depthwise_regularizer": null, "pointwise_regularizer": null, "depthwise_constraint": null, "pointwise_constraint": null}, "inbound_nodes": [[["average_pooling2d_7", 0, 0, {}]]]}, {"name": "batch_normalization_27", "class_name": "BatchNormalization", "config": {"name": "batch_normalization_27", "trainable": true, "axis": -1, "momentum": 0.99, "epsilon": 0.001, "center": true, "scale": true, "beta_initializer": {"class_name": "Zeros", "config": {}}, "gamma_initializer": {"class_name": "Ones", "config": {}}, "moving_mean_initializer": {"class_name": "Zeros", "config": {}}, "moving_variance_initializer": {"class_name": "Ones", "config": {}}, "beta_regularizer": null, "gamma_regularizer": null, "beta_constraint": null, "gamma_constraint": null}, "inbound_nodes": [[["separable_conv2d_27", 0, 0, {}]]]}, {"name": "batch_normalization_20", "class_name": "BatchNormalization", "config": {"name": "batch_normalization_20", "trainable": true, "axis": -1, "momentum": 0.99, "epsilon": 0.001, "center": true, "scale": true, "beta_initializer": {"class_name": "Zeros", "config": {}}, "gamma_initializer": {"class_name": "Ones", "config": {}}, "moving_mean_initializer": {"class_name": "Zeros", "config": {}}, "moving_variance_initializer": {"class_name": "Ones", "config": {}}, "beta_regularizer": null, "gamma_regularizer": null, "beta_constraint": null, "gamma_constraint": null}, "inbound_nodes": [[["separable_conv2d_20", 0, 0, {}]]]}, {"name": "activation_27", "class_name": "Activation", "config": {"name": "activation_27", "trainable": true, "activation": "tanh"}, "inbound_nodes": [[["batch_normalization_27", 0, 0, {}]]]}, {"name": "activation_20", "class_name": "Activation", "config": {"name": "activation_20", "trainable": true, "activation": "relu"}, "inbound_nodes": [[["batch_normalization_20", 0, 0, {}]]]}, {"name": "separable_conv2d_28", "class_name": "SeparableConv2D", "config": {"name": "separable_conv2d_28", "trainable": true, "filters": 128, "kernel_size": [3, 3], "strides": [1, 1], "padding": "same", "data_format": "channels_last", "dilation_rate": [1, 1], "activation": "linear", "use_bias": true, "bias_initializer": {"class_name": "Zeros", "config": {}}, "bias_regularizer": null, "activity_regularizer": null, "bias_constraint": null, "depth_multiplier": 1, "depthwise_initializer": {"class_name": "VarianceScaling", "config": {"scale": 1.0, "mode": "fan_avg", "distribution": "uniform", "seed": null}}, "pointwise_initializer": {"class_name": "VarianceScaling", "config": {"scale": 1.0, "mode": "fan_avg", "distribution": "uniform", "seed": null}}, "depthwise_regularizer": null, "pointwise_regularizer": null, "depthwise_constraint": null, "pointwise_constraint": null}, "inbound_nodes": [[["activation_27", 0, 0, {}]]]}, {"name": "separable_conv2d_21", "class_name": "SeparableConv2D", "config": {"name": "separable_conv2d_21", "trainable": true, "filters": 128, "kernel_size": [3, 3], "strides": [1, 1], "padding": "same", "data_format": "channels_last", "dilation_rate": [1, 1], "activation": "linear", "use_bias": true, "bias_initializer": {"class_name": "Zeros", "config": {}}, "bias_regularizer": null, "activity_regularizer": null, "bias_constraint": null, "depth_multiplier": 1, "depthwise_initializer": {"class_name": "VarianceScaling", "config": {"scale": 1.0, "mode": "fan_avg", "distribution": "uniform", "seed": null}}, "pointwise_initializer": {"class_name": "VarianceScaling", "config": {"scale": 1.0, "mode": "fan_avg", "distribution": "uniform", "seed": null}}, "depthwise_regularizer": null, "pointwise_regularizer": null, "depthwise_constraint": null, "pointwise_constraint": null}, "inbound_nodes": [[["activation_20", 0, 0, {}]]]}, {"name": "batch_normalization_28", "class_name": "BatchNormalization", "config": {"name": "batch_normalization_28", "trainable": true, "axis": -1, "momentum": 0.99, "epsilon": 0.001, "center": true, "scale": true, "beta_initializer": {"class_name": "Zeros", "config": {}}, "gamma_initializer": {"class_name": "Ones", "config": {}}, "moving_mean_initializer": {"class_name": "Zeros", "config": {}}, "moving_variance_initializer": {"class_name": "Ones", "config": {}}, "beta_regularizer": null, "gamma_regularizer": null, "beta_constraint": null, "gamma_constraint": null}, "inbound_nodes": [[["separable_conv2d_28", 0, 0, {}]]]}, {"name": "batch_normalization_21", "class_name": "BatchNormalization", "config": {"name": "batch_normalization_21", "trainable": true, "axis": -1, "momentum": 0.99, "epsilon": 0.001, "center": true, "scale": true, "beta_initializer": {"class_name": "Zeros", "config": {}}, "gamma_initializer": {"class_name": "Ones", "config": {}}, "moving_mean_initializer": {"class_name": "Zeros", "config": {}}, "moving_variance_initializer": {"class_name": "Ones", "config": {}}, "beta_regularizer": null, "gamma_regularizer": null, "beta_constraint": null, "gamma_constraint": null}, "inbound_nodes": [[["separable_conv2d_21", 0, 0, {}]]]}, {"name": "activation_28", "class_name": "Activation", "config": {"name": "activation_28", "trainable": true, "activation": "tanh"}, "inbound_nodes": [[["batch_normalization_28", 0, 0, {}]]]}, {"name": "activation_21", "class_name": "Activation", "config": {"name": "activation_21", "trainable": true, "activation": "relu"}, "inbound_nodes": [[["batch_normalization_21", 0, 0, {}]]]}, {"name": "conv2d_12", "class_name": "Conv2D", "config": {"name": "conv2d_12", "trainable": true, "filters": 64, "kernel_size": [1, 1], "strides": [1, 1], "padding": "valid", "data_format": "channels_last", "dilation_rate": [1, 1], "activation": "tanh", "use_bias": true, "kernel_initializer": {"class_name": "VarianceScaling", "config": {"scale": 1.0, "mode": "fan_avg", "distribution": "uniform", "seed": null}}, "bias_initializer": {"class_name": "Zeros", "config": {}}, "kernel_regularizer": null, "bias_regularizer": null, "activity_regularizer": null, "kernel_constraint": null, "bias_constraint": null}, "inbound_nodes": [[["max_pooling2d_5", 0, 0, {}]]]}, {"name": "conv2d_13", "class_name": "Conv2D", "config": {"name": "conv2d_13", "trainable": true, "filters": 64, "kernel_size": [1, 1], "strides": [1, 1], "padding": "valid", "data_format": "channels_last", "dilation_rate": [1, 1], "activation": "relu", "use_bias": true, "kernel_initializer": {"class_name": "VarianceScaling", "config": {"scale": 1.0, "mode": "fan_avg", "distribution": "uniform", "seed": null}}, "bias_initializer": {"class_name": "Zeros", "config": {}}, "kernel_regularizer": null, "bias_regularizer": null, "activity_regularizer": null, "kernel_constraint": null, "bias_constraint": null}, "inbound_nodes": [[["average_pooling2d_6", 0, 0, {}]]]}, {"name": "conv2d_8", "class_name": "Conv2D", "config": {"name": "conv2d_8", "trainable": true, "filters": 64, "kernel_size": [1, 1], "strides": [1, 1], "padding": "valid", "data_format": "channels_last", "dilation_rate": [1, 1], "activation": "tanh", "use_bias": true, "kernel_initializer": {"class_name": "VarianceScaling", "config": {"scale": 1.0, "mode": "fan_avg", "distribution": "uniform", "seed": null}}, "bias_initializer": {"class_name": "Zeros", "config": {}}, "kernel_regularizer": null, "bias_regularizer": null, "activity_regularizer": null, "kernel_constraint": null, "bias_constraint": null}, "inbound_nodes": [[["activation_28", 0, 0, {}]]]}, {"name": "conv2d_9", "class_name": "Conv2D", "config": {"name": "conv2d_9", "trainable": true, "filters": 64, "kernel_size": [1, 1], "strides": [1, 1], "padding": "valid", "data_format": "channels_last", "dilation_rate": [1, 1], "activation": "relu", "use_bias": true, "kernel_initializer": {"class_name": "VarianceScaling", "config": {"scale": 1.0, "mode": "fan_avg", "distribution": "uniform", "seed": null}}, "bias_initializer": {"class_name": "Zeros", "config": {}}, "kernel_regularizer": null, "bias_regularizer": null, "activity_regularizer": null, "kernel_constraint": null, "bias_constraint": null}, "inbound_nodes": [[["activation_21", 0, 0, {}]]]}, {"name": "conv2d_10", "class_name": "Conv2D", "config": {"name": "conv2d_10", "trainable": true, "filters": 64, "kernel_size": [1, 1], "strides": [1, 1], "padding": "valid", "data_format": "channels_last", "dilation_rate": [1, 1], "activation": "tanh", "use_bias": true, "kernel_initializer": {"class_name": "VarianceScaling", "config": {"scale": 1.0, "mode": "fan_avg", "distribution": "uniform", "seed": null}}, "bias_initializer": {"class_name": "Zeros", "config": {}}, "kernel_regularizer": null, "bias_regularizer": null, "activity_regularizer": null, "kernel_constraint": null, "bias_constraint": null}, "inbound_nodes": [[["max_pooling2d_6", 0, 0, {}]]]}, {"name": "conv2d_11", "class_name": "Conv2D", "config": {"name": "conv2d_11", "trainable": true, "filters": 64, "kernel_size": [1, 1], "strides": [1, 1], "padding": "valid", "data_format": "channels_last", "dilation_rate": [1, 1], "activation": "relu", "use_bias": true, "kernel_initializer": {"class_name": "VarianceScaling", "config": {"scale": 1.0, "mode": "fan_avg", "distribution": "uniform", "seed": null}}, "bias_initializer": {"class_name": "Zeros", "config": {}}, "kernel_regularizer": null, "bias_regularizer": null, "activity_regularizer": null, "kernel_constraint": null, "bias_constraint": null}, "inbound_nodes": [[["average_pooling2d_7", 0, 0, {}]]]}, {"name": "multiply_6", "class_name": "Multiply", "config": {"name": "multiply_6", "trainable": true}, "inbound_nodes": [[["conv2d_12", 0, 0, {}], ["conv2d_13", 0, 0, {}]]]}, {"name": "multiply_4", "class_name": "Multiply", "config": {"name": "multiply_4", "trainable": true}, "inbound_nodes": [[["conv2d_8", 0, 0, {}], ["conv2d_9", 0, 0, {}]]]}, {"name": "multiply_5", "class_name": "Multiply", "config": {"name": "multiply_5", "trainable": true}, "inbound_nodes": [[["conv2d_10", 0, 0, {}], ["conv2d_11", 0, 0, {}]]]}, {"name": "average_pooling2d_8", "class_name": "AveragePooling2D", "config": {"name": "average_pooling2d_8", "trainable": true, "pool_size": [2, 2], "padding": "valid", "strides": [2, 2], "data_format": "channels_last"}, "inbound_nodes": [[["multiply_6", 0, 0, {}]]]}], "input_layers": [["input_10", 0, 0]], "output_layers": [["multiply_4", 0, 0], ["multiply_5", 0, 0], ["average_pooling2d_8", 0, 0]]}, "inbound_nodes": [[["input_10", 0, 0, {}]]]}, {"name": "ssr_S_model", "class_name": "Model", "config": {"name": "ssr_S_model", "layers": [{"name": "input_12", "class_name": "InputLayer", "config": {"batch_input_shape": [null, 8, 8, 64], "dtype": "float32", "sparse": false, "name": "input_12"}, "inbound_nodes": []}, {"name": "input_13", "class_name": "InputLayer", "config": {"batch_input_shape": [null, 8, 8, 64], "dtype": "float32", "sparse": false, "name": "input_13"}, "inbound_nodes": []}, {"name": "input_14", "class_name": "InputLayer", "config": {"batch_input_shape": [null, 8, 8, 64], "dtype": "float32", "sparse": false, "name": "input_14"}, "inbound_nodes": []}, {"name": "feat_S_model", "class_name": "Model", "config": {"name": "feat_S_model", "layers": [{"name": "input_11", "class_name": "InputLayer", "config": {"batch_input_shape": [null, 8, 8, 64], "dtype": "float32", "sparse": false, "name": "input_11"}, "inbound_nodes": []}, {"name": "lambda_19", "class_name": "Lambda", "config": {"name": "lambda_19", "trainable": true, "function": ["4wEAAAAAAAAAAwAAAAQAAABTAAAAcxgAAAB0AGoBagJ8AGQDZAKNAlwCfQF9AnwCUwApBE7pAQAA\nACkB2gRheGVz6f////8pA9oCdGbaAm5u2gdtb21lbnRzKQPaAXjaBG1lYW7aA3ZhcqkAcgoAAAD6\nJS9jb250ZW50L0ZTQS1OZXQvZGVtby9GU0FORVRfbW9kZWwucHlyCQAAACEEAABzBAAAAAABFAE=\n", null, null], "function_type": "lambda", "output_shape": null, "output_shape_type": "raw", "arguments": {}}, "inbound_nodes": [[["input_11", 0, 0, {}]]]}, {"name": "reshape_13", "class_name": "Reshape", "config": {"name": "reshape_13", "trainable": true, "target_shape": [-1]}, "inbound_nodes": [[["lambda_19", 0, 0, {}]]]}, {"name": "dense_6", "class_name": "Dense", "config": {"name": "dense_6", "trainable": true, "units": 960, "activation": "sigmoid", "use_bias": true, "kernel_initializer": {"class_name": "VarianceScaling", "config": {"scale": 1.0, "mode": "fan_avg", "distribution": "uniform", "seed": null}}, "bias_initializer": {"class_name": "Zeros", "config": {}}, "kernel_regularizer": null, "bias_regularizer": null, "activity_regularizer": null, "kernel_constraint": null, "bias_constraint": null}, "inbound_nodes": [[["reshape_13", 0, 0, {}]]]}, {"name": "reshape_14", "class_name": "Reshape", "config": {"name": "reshape_14", "trainable": true, "target_shape": [5, 192]}, "inbound_nodes": [[["dense_6", 0, 0, {}]]]}], "input_layers": [["input_11", 0, 0]], "output_layers": [["reshape_14", 0, 0], ["reshape_13", 0, 0]]}, "inbound_nodes": [[["input_12", 0, 0, {}]], [["input_13", 0, 0, {}]], [["input_14", 0, 0, {}]]]}, {"name": "concatenate_4", "class_name": "Concatenate", "config": {"name": "concatenate_4", "trainable": true, "axis": -1}, "inbound_nodes": [[["feat_S_model", 1, 1, {}], ["feat_S_model", 2, 1, {}], ["feat_S_model", 3, 1, {}]]]}, {"name": "dense_7", "class_name": "Dense", "config": {"name": "dense_7", "trainable": true, "units": 35, "activation": "sigmoid", "use_bias": true, "kernel_initializer": {"class_name": "VarianceScaling", "config": {"scale": 1.0, "mode": "fan_avg", "distribution": "uniform", "seed": null}}, "bias_initializer": {"class_name": "Zeros", "config": {}}, "kernel_regularizer": null, "bias_regularizer": null, "activity_regularizer": null, "kernel_constraint": null, "bias_constraint": null}, "inbound_nodes": [[["concatenate_4", 0, 0, {}]]]}, {"name": "reshape_15", "class_name": "Reshape", "config": {"name": "reshape_15", "trainable": true, "target_shape": [7, 5]}, "inbound_nodes": [[["dense_7", 0, 0, {}]]]}, {"name": "S_matrix_s1", "class_name": "Lambda", "config": {"name": "S_matrix_s1", "trainable": true, "function": ["4wEAAAAAAAAAAQAAAAQAAABTAAAAcxQAAAB0AGoBfABkARkAfABkAhkAgwJTACkDTukAAAAA6QEA\nAAApAtoCdGbaBm1hdG11bCkB2gF4qQByBgAAAPolL2NvbnRlbnQvRlNBLU5ldC9kZW1vL0ZTQU5F\nVF9tb2RlbC5wedoIPGxhbWJkYT47BAAA8wAAAAA=\n", null, null], "function_type": "lambda", "output_shape": null, "output_shape_type": "raw", "arguments": {}}, "inbound_nodes": [[["reshape_15", 0, 0, {}], ["feat_S_model", 1, 0, {}]]]}, {"name": "reshape_16", "class_name": "Reshape", "config": {"name": "reshape_16", "trainable": true, "target_shape": [-1, 64]}, "inbound_nodes": [[["input_12", 0, 0, {}]]]}, {"name": "reshape_17", "class_name": "Reshape", "config": {"name": "reshape_17", "trainable": true, "target_shape": [-1, 64]}, "inbound_nodes": [[["input_13", 0, 0, {}]]]}, {"name": "reshape_18", "class_name": "Reshape", "config": {"name": "reshape_18", "trainable": true, "target_shape": [-1, 64]}, "inbound_nodes": [[["input_14", 0, 0, {}]]]}, {"name": "S_matrix_s2", "class_name": "Lambda", "config": {"name": "S_matrix_s2", "trainable": true, "function": ["4wEAAAAAAAAAAQAAAAQAAABTAAAAcxQAAAB0AGoBfABkARkAfABkAhkAgwJTACkDTukAAAAA6QEA\nAAApAtoCdGbaBm1hdG11bCkB2gF4qQByBgAAAPolL2NvbnRlbnQvRlNBLU5ldC9kZW1vL0ZTQU5F\nVF9tb2RlbC5wedoIPGxhbWJkYT48BAAA8wAAAAA=\n", null, null], "function_type": "lambda", "output_shape": null, "output_shape_type": "raw", "arguments": {}}, "inbound_nodes": [[["reshape_15", 0, 0, {}], ["feat_S_model", 2, 0, {}]]]}, {"name": "S_matrix_s3", "class_name": "Lambda", "config": {"name": "S_matrix_s3", "trainable": true, "function": ["4wEAAAAAAAAAAQAAAAQAAABTAAAAcxQAAAB0AGoBfABkARkAfABkAhkAgwJTACkDTukAAAAA6QEA\nAAApAtoCdGbaBm1hdG11bCkB2gF4qQByBgAAAPolL2NvbnRlbnQvRlNBLU5ldC9kZW1vL0ZTQU5F\nVF9tb2RlbC5wedoIPGxhbWJkYT49BAAA8wAAAAA=\n", null, null], "function_type": "lambda", "output_shape": null, "output_shape_type": "raw", "arguments": {}}, "inbound_nodes": [[["reshape_15", 0, 0, {}], ["feat_S_model", 3, 0, {}]]]}, {"name": "concatenate_5", "class_name": "Concatenate", "config": {"name": "concatenate_5", "trainable": true, "axis": 1}, "inbound_nodes": [[["reshape_16", 0, 0, {}], ["reshape_17", 0, 0, {}], ["reshape_18", 0, 0, {}]]]}, {"name": "lambda_20", "class_name": "Lambda", "config": {"name": "lambda_20", "trainable": true, "function": ["4wEAAAAAAAAAAQAAAAYAAABTAAAAcxgAAAB0AGoBdABqAnwAZAVkAmQDjQNkBoMCUwApB07pAQAA\nAFQpAtoEYXhpc9oIa2VlcGRpbXPpQAAAAOn/////KQNyAQAAAHIBAAAAcgQAAAApA9oBS9oEdGls\nZdoDc3VtKQHaAXipAHIKAAAA+iUvY29udGVudC9GU0EtTmV0L2RlbW8vRlNBTkVUX21vZGVsLnB5\n2gg8bGFtYmRhPkEEAADzAAAAAA==\n", null, null], "function_type": "lambda", "output_shape": null, "output_shape_type": "raw", "arguments": {}}, "inbound_nodes": [[["S_matrix_s1", 0, 0, {}]]]}, {"name": "lambda_21", "class_name": "Lambda", "config": {"name": "lambda_21", "trainable": true, "function": ["4wEAAAAAAAAAAQAAAAYAAABTAAAAcxgAAAB0AGoBdABqAnwAZAVkAmQDjQNkBoMCUwApB07pAQAA\nAFQpAtoEYXhpc9oIa2VlcGRpbXPpQAAAAOn/////KQNyAQAAAHIBAAAAcgQAAAApA9oBS9oEdGls\nZdoDc3VtKQHaAXipAHIKAAAA+iUvY29udGVudC9GU0EtTmV0L2RlbW8vRlNBTkVUX21vZGVsLnB5\n2gg8bGFtYmRhPkIEAADzAAAAAA==\n", null, null], "function_type": "lambda", "output_shape": null, "output_shape_type": "raw", "arguments": {}}, "inbound_nodes": [[["S_matrix_s2", 0, 0, {}]]]}, {"name": "lambda_22", "class_name": "Lambda", "config": {"name": "lambda_22", "trainable": true, "function": ["4wEAAAAAAAAAAQAAAAYAAABTAAAAcxgAAAB0AGoBdABqAnwAZAVkAmQDjQNkBoMCUwApB07pAQAA\nAFQpAtoEYXhpc9oIa2VlcGRpbXPpQAAAAOn/////KQNyAQAAAHIBAAAAcgQAAAApA9oBS9oEdGls\nZdoDc3VtKQHaAXipAHIKAAAA+iUvY29udGVudC9GU0EtTmV0L2RlbW8vRlNBTkVUX21vZGVsLnB5\n2gg8bGFtYmRhPkMEAADzAAAAAA==\n", null, null], "function_type": "lambda", "output_shape": null, "output_shape_type": "raw", "arguments": {}}, "inbound_nodes": [[["S_matrix_s3", 0, 0, {}]]]}, {"name": "lambda_23", "class_name": "Lambda", "config": {"name": "lambda_23", "trainable": true, "function": ["4wEAAAAAAAAAAQAAAAQAAABTAAAAcxwAAAB0AGoBfABkARkAfABkAhkAgwJ8AGQDGQAbAFMAKQRO\n6QAAAADpAQAAAOkCAAAAKQLaAnRm2gZtYXRtdWwpAdoBeKkAcgcAAAD6JS9jb250ZW50L0ZTQS1O\nZXQvZGVtby9GU0FORVRfbW9kZWwucHnaCDxsYW1iZGE+TgQAAPMAAAAA\n", null, null], "function_type": "lambda", "output_shape": null, "output_shape_type": "raw", "arguments": {}}, "inbound_nodes": [[["S_matrix_s1", 0, 0, {}], ["concatenate_5", 0, 0, {}], ["lambda_20", 0, 0, {}]]]}, {"name": "lambda_24", "class_name": "Lambda", "config": {"name": "lambda_24", "trainable": true, "function": ["4wEAAAAAAAAAAQAAAAQAAABTAAAAcxwAAAB0AGoBfABkARkAfABkAhkAgwJ8AGQDGQAbAFMAKQRO\n6QAAAADpAQAAAOkCAAAAKQLaAnRm2gZtYXRtdWwpAdoBeKkAcgcAAAD6JS9jb250ZW50L0ZTQS1O\nZXQvZGVtby9GU0FORVRfbW9kZWwucHnaCDxsYW1iZGE+TwQAAPMAAAAA\n", null, null], "function_type": "lambda", "output_shape": null, "output_shape_type": "raw", "arguments": {}}, "inbound_nodes": [[["S_matrix_s2", 0, 0, {}], ["concatenate_5", 0, 0, {}], ["lambda_21", 0, 0, {}]]]}, {"name": "lambda_25", "class_name": "Lambda", "config": {"name": "lambda_25", "trainable": true, "function": ["4wEAAAAAAAAAAQAAAAQAAABTAAAAcxwAAAB0AGoBfABkARkAfABkAhkAgwJ8AGQDGQAbAFMAKQRO\n6QAAAADpAQAAAOkCAAAAKQLaAnRm2gZtYXRtdWwpAdoBeKkAcgcAAAD6JS9jb250ZW50L0ZTQS1O\nZXQvZGVtby9GU0FORVRfbW9kZWwucHnaCDxsYW1iZGE+UAQAAPMAAAAA\n", null, null], "function_type": "lambda", "output_shape": null, "output_shape_type": "raw", "arguments": {}}, "inbound_nodes": [[["S_matrix_s3", 0, 0, {}], ["concatenate_5", 0, 0, {}], ["lambda_22", 0, 0, {}]]]}, {"name": "concatenate_6", "class_name": "Concatenate", "config": {"name": "concatenate_6", "trainable": true, "axis": 1}, "inbound_nodes": [[["lambda_23", 0, 0, {}], ["lambda_24", 0, 0, {}], ["lambda_25", 0, 0, {}]]]}], "input_layers": [["input_12", 0, 0], ["input_13", 0, 0], ["input_14", 0, 0]], "output_layers": [["concatenate_6", 0, 0]]}, "inbound_nodes": [[["ssr_G_model", 1, 0, {}], ["ssr_G_model", 1, 1, {}], ["ssr_G_model", 1, 2, {}]]]}, {"name": "ssr_Cap_model", "class_name": "Model", "config": {"name": "ssr_Cap_model", "layers": [{"name": "input_15", "class_name": "InputLayer", "config": {"batch_input_shape": [null, 21, 64], "dtype": "float32", "sparse": false, "name": "input_15"}, "inbound_nodes": []}, {"name": "caps", "class_name": "CapsuleLayer", "config": {"name": "caps", "trainable": true, "num_capsule": 3, "dim_capsule": 16, "routings": 2}, "inbound_nodes": [[["input_15", 0, 0, {}]]]}, {"name": "lambda_26", "class_name": "Lambda", "config": {"name": "lambda_26", "trainable": true, "function": ["4wEAAAAAAAAAAQAAAAUAAAATAAAAcxoAAAB8AGQAZACFAogAiAGFAmQAZACFAmYDGQBTACkBTqkA\nKQHaAXgpAtoEczFfYdoEczFfYnIBAAAA+iUvY29udGVudC9GU0EtTmV0L2RlbW8vRlNBTkVUX21v\nZGVsLnB52gg8bGFtYmRhPmAEAADzAAAAAA==\n", null, [0, 1]], "function_type": "lambda", "output_shape": null, "output_shape_type": "raw", "arguments": {}}, "inbound_nodes": [[["caps", 0, 0, {}]]]}, {"name": "lambda_27", "class_name": "Lambda", "config": {"name": "lambda_27", "trainable": true, "function": ["4wEAAAAAAAAAAQAAAAUAAAATAAAAcxoAAAB8AGQAZACFAogAiAGFAmQAZACFAmYDGQBTACkBTqkA\nKQHaAXgpAtoEczJfYdoEczJfYnIBAAAA+iUvY29udGVudC9GU0EtTmV0L2RlbW8vRlNBTkVUX21v\nZGVsLnB52gg8bGFtYmRhPmMEAADzAAAAAA==\n", null, [1, 2]], "function_type": "lambda", "output_shape": null, "output_shape_type": "raw", "arguments": {}}, "inbound_nodes": [[["caps", 0, 0, {}]]]}, {"name": "lambda_28", "class_name": "Lambda", "config": {"name": "lambda_28", "trainable": true, "function": ["4wEAAAAAAAAAAQAAAAUAAAATAAAAcxoAAAB8AGQAZACFAogAiAGFAmQAZACFAmYDGQBTACkBTqkA\nKQHaAXgpAtoEczNfYdoEczNfYnIBAAAA+iUvY29udGVudC9GU0EtTmV0L2RlbW8vRlNBTkVUX21v\nZGVsLnB52gg8bGFtYmRhPmYEAADzAAAAAA==\n", null, [2, 3]], "function_type": "lambda", "output_shape": null, "output_shape_type": "raw", "arguments": {}}, "inbound_nodes": [[["caps", 0, 0, {}]]]}, {"name": "reshape_19", "class_name": "Reshape", "config": {"name": "reshape_19", "trainable": true, "target_shape": [-1]}, "inbound_nodes": [[["lambda_26", 0, 0, {}]]]}, {"name": "reshape_20", "class_name": "Reshape", "config": {"name": "reshape_20", "trainable": true, "target_shape": [-1]}, "inbound_nodes": [[["lambda_27", 0, 0, {}]]]}, {"name": "reshape_21", "class_name": "Reshape", "config": {"name": "reshape_21", "trainable": true, "target_shape": [-1]}, "inbound_nodes": [[["lambda_28", 0, 0, {}]]]}], "input_layers": [["input_15", 0, 0]], "output_layers": [["reshape_19", 0, 0], ["reshape_20", 0, 0], ["reshape_21", 0, 0]]}, "inbound_nodes": [[["ssr_S_model", 1, 0, {}]]]}, {"name": "ssr_F_Cap_model", "class_name": "Model", "config": {"name": "ssr_F_Cap_model", "layers": [{"name": "input_16", "class_name": "InputLayer", "config": {"batch_input_shape": [null, 16], "dtype": "float32", "sparse": false, "name": "input_16"}, "inbound_nodes": []}, {"name": "input_17", "class_name": "InputLayer", "config": {"batch_input_shape": [null, 16], "dtype": "float32", "sparse": false, "name": "input_17"}, "inbound_nodes": []}, {"name": "input_18", "class_name": "InputLayer", "config": {"batch_input_shape": [null, 16], "dtype": "float32", "sparse": false, "name": "input_18"}, "inbound_nodes": []}, {"name": "lambda_31", "class_name": "Lambda", "config": {"name": "lambda_31", "trainable": true, "function": ["4wEAAAAAAAAAAQAAAAQAAABTAAAAcxQAAAB8AGQAZACFAmQBZAKFAmYCGQBTACkDTukIAAAA6RAA\nAACpACkB2gF4cgMAAAByAwAAAPolL2NvbnRlbnQvRlNBLU5ldC9kZW1vL0ZTQU5FVF9tb2RlbC5w\nedoIPGxhbWJkYT59BAAA8wAAAAA=\n", null, null], "function_type": "lambda", "output_shape": null, "output_shape_type": "raw", "arguments": {}}, "inbound_nodes": [[["input_16", 0, 0, {}]]]}, {"name": "lambda_34", "class_name": "Lambda", "config": {"name": "lambda_34", "trainable": true, "function": ["4wEAAAAAAAAAAQAAAAQAAABTAAAAcxQAAAB8AGQAZACFAmQBZAKFAmYCGQBTACkDTukIAAAA6RAA\nAACpACkB2gF4cgMAAAByAwAAAPolL2NvbnRlbnQvRlNBLU5ldC9kZW1vL0ZTQU5FVF9tb2RlbC5w\nedoIPGxhbWJkYT6IBAAA8wAAAAA=\n", null, null], "function_type": "lambda", "output_shape": null, "output_shape_type": "raw", "arguments": {}}, "inbound_nodes": [[["input_17", 0, 0, {}]]]}, {"name": "lambda_37", "class_name": "Lambda", "config": {"name": "lambda_37", "trainable": true, "function": ["4wEAAAAAAAAAAQAAAAQAAABTAAAAcxQAAAB8AGQAZACFAmQBZAKFAmYCGQBTACkDTukIAAAA6RAA\nAACpACkB2gF4cgMAAAByAwAAAPolL2NvbnRlbnQvRlNBLU5ldC9kZW1vL0ZTQU5FVF9tb2RlbC5w\nedoIPGxhbWJkYT6TBAAA8wAAAAA=\n", null, null], "function_type": "lambda", "output_shape": null, "output_shape_type": "raw", "arguments": {}}, "inbound_nodes": [[["input_18", 0, 0, {}]]]}, {"name": "dense_8", "class_name": "Dense", "config": {"name": "dense_8", "trainable": true, "units": 9, "activation": "relu", "use_bias": true, "kernel_initializer": {"class_name": "VarianceScaling", "config": {"scale": 1.0, "mode": "fan_avg", "distribution": "uniform", "seed": null}}, "bias_initializer": {"class_name": "Zeros", "config": {}}, "kernel_regularizer": null, "bias_regularizer": null, "activity_regularizer": null, "kernel_constraint": null, "bias_constraint": null}, "inbound_nodes": [[["lambda_31", 0, 0, {}]]]}, {"name": "dense_9", "class_name": "Dense", "config": {"name": "dense_9", "trainable": true, "units": 9, "activation": "relu", "use_bias": true, "kernel_initializer": {"class_name": "VarianceScaling", "config": {"scale": 1.0, "mode": "fan_avg", "distribution": "uniform", "seed": null}}, "bias_initializer": {"class_name": "Zeros", "config": {}}, "kernel_regularizer": null, "bias_regularizer": null, "activity_regularizer": null, "kernel_constraint": null, "bias_constraint": null}, "inbound_nodes": [[["lambda_34", 0, 0, {}]]]}, {"name": "dense_10", "class_name": "Dense", "config": {"name": "dense_10", "trainable": true, "units": 9, "activation": "relu", "use_bias": true, "kernel_initializer": {"class_name": "VarianceScaling", "config": {"scale": 1.0, "mode": "fan_avg", "distribution": "uniform", "seed": null}}, "bias_initializer": {"class_name": "Zeros", "config": {}}, "kernel_regularizer": null, "bias_regularizer": null, "activity_regularizer": null, "kernel_constraint": null, "bias_constraint": null}, "inbound_nodes": [[["lambda_37", 0, 0, {}]]]}, {"name": "lambda_29", "class_name": "Lambda", "config": {"name": "lambda_29", "trainable": true, "function": ["4wEAAAAAAAAAAQAAAAQAAABTAAAAcxQAAAB8AGQAZACFAmQBZAKFAmYCGQBTACkDTukAAAAA6QQA\nAACpACkB2gF4cgMAAAByAwAAAPolL2NvbnRlbnQvRlNBLU5ldC9kZW1vL0ZTQU5FVF9tb2RlbC5w\nedoIPGxhbWJkYT53BAAA8wAAAAA=\n", null, null], "function_type": "lambda", "output_shape": null, "output_shape_type": "raw", "arguments": {}}, "inbound_nodes": [[["input_16", 0, 0, {}]]]}, {"name": "lambda_32", "class_name": "Lambda", "config": {"name": "lambda_32", "trainable": true, "function": ["4wEAAAAAAAAAAQAAAAQAAABTAAAAcxQAAAB8AGQAZACFAmQBZAKFAmYCGQBTACkDTukAAAAA6QQA\nAACpACkB2gF4cgMAAAByAwAAAPolL2NvbnRlbnQvRlNBLU5ldC9kZW1vL0ZTQU5FVF9tb2RlbC5w\nedoIPGxhbWJkYT6CBAAA8wAAAAA=\n", null, null], "function_type": "lambda", "output_shape": null, "output_shape_type": "raw", "arguments": {}}, "inbound_nodes": [[["input_17", 0, 0, {}]]]}, {"name": "lambda_35", "class_name": "Lambda", "config": {"name": "lambda_35", "trainable": true, "function": ["4wEAAAAAAAAAAQAAAAQAAABTAAAAcxQAAAB8AGQAZACFAmQBZAKFAmYCGQBTACkDTukAAAAA6QQA\nAACpACkB2gF4cgMAAAByAwAAAPolL2NvbnRlbnQvRlNBLU5ldC9kZW1vL0ZTQU5FVF9tb2RlbC5w\nedoIPGxhbWJkYT6NBAAA8wAAAAA=\n", null, null], "function_type": "lambda", "output_shape": null, "output_shape_type": "raw", "arguments": {}}, "inbound_nodes": [[["input_18", 0, 0, {}]]]}, {"name": "lambda_30", "class_name": "Lambda", "config": {"name": "lambda_30", "trainable": true, "function": ["4wEAAAAAAAAAAQAAAAQAAABTAAAAcxQAAAB8AGQAZACFAmQBZAKFAmYCGQBTACkDTukEAAAA6QgA\nAACpACkB2gF4cgMAAAByAwAAAPolL2NvbnRlbnQvRlNBLU5ldC9kZW1vL0ZTQU5FVF9tb2RlbC5w\nedoIPGxhbWJkYT56BAAA8wAAAAA=\n", null, null], "function_type": "lambda", "output_shape": null, "output_shape_type": "raw", "arguments": {}}, "inbound_nodes": [[["input_16", 0, 0, {}]]]}, {"name": "lambda_33", "class_name": "Lambda", "config": {"name": "lambda_33", "trainable": true, "function": ["4wEAAAAAAAAAAQAAAAQAAABTAAAAcxQAAAB8AGQAZACFAmQBZAKFAmYCGQBTACkDTukEAAAA6QgA\nAACpACkB2gF4cgMAAAByAwAAAPolL2NvbnRlbnQvRlNBLU5ldC9kZW1vL0ZTQU5FVF9tb2RlbC5w\nedoIPGxhbWJkYT6FBAAA8wAAAAA=\n", null, null], "function_type": "lambda", "output_shape": null, "output_shape_type": "raw", "arguments": {}}, "inbound_nodes": [[["input_17", 0, 0, {}]]]}, {"name": "lambda_36", "class_name": "Lambda", "config": {"name": "lambda_36", "trainable": true, "function": ["4wEAAAAAAAAAAQAAAAQAAABTAAAAcxQAAAB8AGQAZACFAmQBZAKFAmYCGQBTACkDTukEAAAA6QgA\nAACpACkB2gF4cgMAAAByAwAAAPolL2NvbnRlbnQvRlNBLU5ldC9kZW1vL0ZTQU5FVF9tb2RlbC5w\nedoIPGxhbWJkYT6QBAAA8wAAAAA=\n", null, null], "function_type": "lambda", "output_shape": null, "output_shape_type": "raw", "arguments": {}}, "inbound_nodes": [[["input_18", 0, 0, {}]]]}, {"name": "reshape_22", "class_name": "Reshape", "config": {"name": "reshape_22", "trainable": true, "target_shape": [3, 3]}, "inbound_nodes": [[["dense_8", 0, 0, {}]]]}, {"name": "reshape_23", "class_name": "Reshape", "config": {"name": "reshape_23", "trainable": true, "target_shape": [3, 3]}, "inbound_nodes": [[["dense_9", 0, 0, {}]]]}, {"name": "reshape_24", "class_name": "Reshape", "config": {"name": "reshape_24", "trainable": true, "target_shape": [3, 3]}, "inbound_nodes": [[["dense_10", 0, 0, {}]]]}, {"name": "delta_s1", "class_name": "Dense", "config": {"name": "delta_s1", "trainable": true, "units": 3, "activation": "tanh", "use_bias": true, "kernel_initializer": {"class_name": "VarianceScaling", "config": {"scale": 1.0, "mode": "fan_avg", "distribution": "uniform", "seed": null}}, "bias_initializer": {"class_name": "Zeros", "config": {}}, "kernel_regularizer": null, "bias_regularizer": null, "activity_regularizer": null, "kernel_constraint": null, "bias_constraint": null}, "inbound_nodes": [[["lambda_29", 0, 0, {}]]]}, {"name": "delta_s2", "class_name": "Dense", "config": {"name": "delta_s2", "trainable": true, "units": 3, "activation": "tanh", "use_bias": true, "kernel_initializer": {"class_name": "VarianceScaling", "config": {"scale": 1.0, "mode": "fan_avg", "distribution": "uniform", "seed": null}}, "bias_initializer": {"class_name": "Zeros", "config": {}}, "kernel_regularizer": null, "bias_regularizer": null, "activity_regularizer": null, "kernel_constraint": null, "bias_constraint": null}, "inbound_nodes": [[["lambda_32", 0, 0, {}]]]}, {"name": "delta_s3", "class_name": "Dense", "config": {"name": "delta_s3", "trainable": true, "units": 3, "activation": "tanh", "use_bias": true, "kernel_initializer": {"class_name": "VarianceScaling", "config": {"scale": 1.0, "mode": "fan_avg", "distribution": "uniform", "seed": null}}, "bias_initializer": {"class_name": "Zeros", "config": {}}, "kernel_regularizer": null, "bias_regularizer": null, "activity_regularizer": null, "kernel_constraint": null, "bias_constraint": null}, "inbound_nodes": [[["lambda_35", 0, 0, {}]]]}, {"name": "local_delta_stage1", "class_name": "Dense", "config": {"name": "local_delta_stage1", "trainable": true, "units": 3, "activation": "tanh", "use_bias": true, "kernel_initializer": {"class_name": "VarianceScaling", "config": {"scale": 1.0, "mode": "fan_avg", "distribution": "uniform", "seed": null}}, "bias_initializer": {"class_name": "Zeros", "config": {}}, "kernel_regularizer": null, "bias_regularizer": null, "activity_regularizer": null, "kernel_constraint": null, "bias_constraint": null}, "inbound_nodes": [[["lambda_30", 0, 0, {}]]]}, {"name": "local_delta_stage2", "class_name": "Dense", "config": {"name": "local_delta_stage2", "trainable": true, "units": 3, "activation": "tanh", "use_bias": true, "kernel_initializer": {"class_name": "VarianceScaling", "config": {"scale": 1.0, "mode": "fan_avg", "distribution": "uniform", "seed": null}}, "bias_initializer": {"class_name": "Zeros", "config": {}}, "kernel_regularizer": null, "bias_regularizer": null, "activity_regularizer": null, "kernel_constraint": null, "bias_constraint": null}, "inbound_nodes": [[["lambda_33", 0, 0, {}]]]}, {"name": "local_delta_stage3", "class_name": "Dense", "config": {"name": "local_delta_stage3", "trainable": true, "units": 3, "activation": "tanh", "use_bias": true, "kernel_initializer": {"class_name": "VarianceScaling", "config": {"scale": 1.0, "mode": "fan_avg", "distribution": "uniform", "seed": null}}, "bias_initializer": {"class_name": "Zeros", "config": {}}, "kernel_regularizer": null, "bias_regularizer": null, "activity_regularizer": null, "kernel_constraint": null, "bias_constraint": null}, "inbound_nodes": [[["lambda_36", 0, 0, {}]]]}], "input_layers": [["input_16", 0, 0], ["input_17", 0, 0], ["input_18", 0, 0]], "output_layers": [["reshape_22", 0, 0], ["reshape_23", 0, 0], ["reshape_24", 0, 0], ["delta_s1", 0, 0], ["delta_s2", 0, 0], ["delta_s3", 0, 0], ["local_delta_stage1", 0, 0], ["local_delta_stage2", 0, 0], ["local_delta_stage3", 0, 0]]}, "inbound_nodes": [[["ssr_Cap_model", 1, 0, {}], ["ssr_Cap_model", 1, 1, {}], ["ssr_Cap_model", 1, 2, {}]]]}, {"name": "pred_pose", "class_name": "Lambda", "config": {"name": "pred_pose", "trainable": true, "function": ["4wUAAAAAAAAAEAAAAAcAAABTAAAAc9YBAAB8AGQBGQBkAGQAhQJkAGQAhQJkAWYDGQBkARQAfQV8\nAGQBGQBkAGQAhQJkAGQAhQJkAWYDGQBkARQAfQZ8AGQBGQBkAGQAhQJkAGQAhQJkAWYDGQBkARQA\nfQd8AWQCGgB9CHwCZAIaAH0JfANkAhoAfQpkA30LeEB0AGQBfAGDAkQAXTJ9DHwFfAx8CBgAfABk\nBBkAFwB8AGQBGQBkAGQAhQJkAGQAhQJ8DGYDGQAUABcAfQVxglcAfAV8AWQFfAR8AGQGGQAUABcA\nFAAbAH0FeEB0AGQBfAKDAkQAXTJ9DXwGfA18CRgAfABkBxkAFwB8AGQFGQBkAGQAhQJkAGQAhQJ8\nDWYDGQAUABcAfQZx3FcAfAZ8AWQFfAR8AGQGGQAUABcAFAAbAHwCZAV8BHwAZAgZABQAFwAUABsA\nfQZ4QnQAZAF8A4MCRABdNH0OfAd8DnwKGAB8AGQJGQAXAHwAZAIZAGQAZACFAmQAZACFAnwOZgMZ\nABQAFwB9B5ABcUpXAHwHfAFkBXwEfABkBhkAFAAXABQAGwB8AmQFfAR8AGQIGQAUABcAFAAbAHwD\nZAV8BHwAZAoZABQAFwAUABsAfQd8BXwGFwB8BxcAfAsUAH0PfA9TACkLTukAAAAA6QIAAADpYwAA\nAOkGAAAA6QEAAADpAwAAAOkHAAAA6QQAAADpCAAAAOkFAAAAKQHaBXJhbmdlKRDaAXjaAnMx2gJz\nMtoCczPaCGxhbWJkYV9k2gFh2gFi2gFj2gJkadoCZGraAmRr2gFW2gFp2gFq2gFr2gRwcmVkqQBy\nHAAAAPolL2NvbnRlbnQvRlNBLU5ldC9kZW1vL0ZTQU5FVF9tb2RlbC5wedoKU1NSX21vZHVsZZ8E\nAABzJAAAAAABHgEeAR4CCAEIAQgCBAMQATIBGAIQATIBLAIQATQBQAIQAg==\n", null, null], "function_type": "lambda", "output_shape": null, "output_shape_type": "raw", "arguments": {"s1": 3, "s2": 3, "s3": 3, "lambda_d": 1}}, "inbound_nodes": [[["ssr_F_Cap_model", 1, 0, {}], ["ssr_F_Cap_model", 1, 1, {}], ["ssr_F_Cap_model", 1, 2, {}], ["ssr_F_Cap_model", 1, 3, {}], ["ssr_F_Cap_model", 1, 4, {}], ["ssr_F_Cap_model", 1, 5, {}], ["ssr_F_Cap_model", 1, 6, {}], ["ssr_F_Cap_model", 1, 7, {}], ["ssr_F_Cap_model", 1, 8, {}]]]}], "input_layers": [["input_10", 0, 0]], "output_layers": [["pred_pose", 0, 0]]}, "inbound_nodes": [[["input_27", 0, 0, {}]]]}, {"name": "model_3", "class_name": "Model", "config": {"name": "model_3", "layers": [{"name": "input_19", "class_name": "InputLayer", "config": {"batch_input_shape": [null, 64, 64, 3], "dtype": "float32", "sparse": false, "name": "input_19"}, "inbound_nodes": []}, {"name": "ssr_G_model", "class_name": "Model", "config": {"name": "ssr_G_model", "layers": [{"name": "input_19", "class_name": "InputLayer", "config": {"batch_input_shape": [null, 64, 64, 3], "dtype": "float32", "sparse": false, "name": "input_19"}, "inbound_nodes": []}, {"name": "separable_conv2d_36", "class_name": "SeparableConv2D", "config": {"name": "separable_conv2d_36", "trainable": true, "filters": 16, "kernel_size": [3, 3], "strides": [1, 1], "padding": "same", "data_format": "channels_last", "dilation_rate": [1, 1], "activation": "linear", "use_bias": true, "bias_initializer": {"class_name": "Zeros", "config": {}}, "bias_regularizer": null, "activity_regularizer": null, "bias_constraint": null, "depth_multiplier": 1, "depthwise_initializer": {"class_name": "VarianceScaling", "config": {"scale": 1.0, "mode": "fan_avg", "distribution": "uniform", "seed": null}}, "pointwise_initializer": {"class_name": "VarianceScaling", "config": {"scale": 1.0, "mode": "fan_avg", "distribution": "uniform", "seed": null}}, "depthwise_regularizer": null, "pointwise_regularizer": null, "depthwise_constraint": null, "pointwise_constraint": null}, "inbound_nodes": [[["input_19", 0, 0, {}]]]}, {"name": "separable_conv2d_29", "class_name": "SeparableConv2D", "config": {"name": "separable_conv2d_29", "trainable": true, "filters": 16, "kernel_size": [3, 3], "strides": [1, 1], "padding": "same", "data_format": "channels_last", "dilation_rate": [1, 1], "activation": "linear", "use_bias": true, "bias_initializer": {"class_name": "Zeros", "config": {}}, "bias_regularizer": null, "activity_regularizer": null, "bias_constraint": null, "depth_multiplier": 1, "depthwise_initializer": {"class_name": "VarianceScaling", "config": {"scale": 1.0, "mode": "fan_avg", "distribution": "uniform", "seed": null}}, "pointwise_initializer": {"class_name": "VarianceScaling", "config": {"scale": 1.0, "mode": "fan_avg", "distribution": "uniform", "seed": null}}, "depthwise_regularizer": null, "pointwise_regularizer": null, "depthwise_constraint": null, "pointwise_constraint": null}, "inbound_nodes": [[["input_19", 0, 0, {}]]]}, {"name": "batch_normalization_36", "class_name": "BatchNormalization", "config": {"name": "batch_normalization_36", "trainable": true, "axis": -1, "momentum": 0.99, "epsilon": 0.001, "center": true, "scale": true, "beta_initializer": {"class_name": "Zeros", "config": {}}, "gamma_initializer": {"class_name": "Ones", "config": {}}, "moving_mean_initializer": {"class_name": "Zeros", "config": {}}, "moving_variance_initializer": {"class_name": "Ones", "config": {}}, "beta_regularizer": null, "gamma_regularizer": null, "beta_constraint": null, "gamma_constraint": null}, "inbound_nodes": [[["separable_conv2d_36", 0, 0, {}]]]}, {"name": "batch_normalization_29", "class_name": "BatchNormalization", "config": {"name": "batch_normalization_29", "trainable": true, "axis": -1, "momentum": 0.99, "epsilon": 0.001, "center": true, "scale": true, "beta_initializer": {"class_name": "Zeros", "config": {}}, "gamma_initializer": {"class_name": "Ones", "config": {}}, "moving_mean_initializer": {"class_name": "Zeros", "config": {}}, "moving_variance_initializer": {"class_name": "Ones", "config": {}}, "beta_regularizer": null, "gamma_regularizer": null, "beta_constraint": null, "gamma_constraint": null}, "inbound_nodes": [[["separable_conv2d_29", 0, 0, {}]]]}, {"name": "activation_36", "class_name": "Activation", "config": {"name": "activation_36", "trainable": true, "activation": "tanh"}, "inbound_nodes": [[["batch_normalization_36", 0, 0, {}]]]}, {"name": "activation_29", "class_name": "Activation", "config": {"name": "activation_29", "trainable": true, "activation": "relu"}, "inbound_nodes": [[["batch_normalization_29", 0, 0, {}]]]}, {"name": "max_pooling2d_7", "class_name": "MaxPooling2D", "config": {"name": "max_pooling2d_7", "trainable": true, "pool_size": [2, 2], "padding": "valid", "strides": [2, 2], "data_format": "channels_last"}, "inbound_nodes": [[["activation_36", 0, 0, {}]]]}, {"name": "average_pooling2d_9", "class_name": "AveragePooling2D", "config": {"name": "average_pooling2d_9", "trainable": true, "pool_size": [2, 2], "padding": "valid", "strides": [2, 2], "data_format": "channels_last"}, "inbound_nodes": [[["activation_29", 0, 0, {}]]]}, {"name": "separable_conv2d_37", "class_name": "SeparableConv2D", "config": {"name": "separable_conv2d_37", "trainable": true, "filters": 32, "kernel_size": [3, 3], "strides": [1, 1], "padding": "same", "data_format": "channels_last", "dilation_rate": [1, 1], "activation": "linear", "use_bias": true, "bias_initializer": {"class_name": "Zeros", "config": {}}, "bias_regularizer": null, "activity_regularizer": null, "bias_constraint": null, "depth_multiplier": 1, "depthwise_initializer": {"class_name": "VarianceScaling", "config": {"scale": 1.0, "mode": "fan_avg", "distribution": "uniform", "seed": null}}, "pointwise_initializer": {"class_name": "VarianceScaling", "config": {"scale": 1.0, "mode": "fan_avg", "distribution": "uniform", "seed": null}}, "depthwise_regularizer": null, "pointwise_regularizer": null, "depthwise_constraint": null, "pointwise_constraint": null}, "inbound_nodes": [[["max_pooling2d_7", 0, 0, {}]]]}, {"name": "separable_conv2d_30", "class_name": "SeparableConv2D", "config": {"name": "separable_conv2d_30", "trainable": true, "filters": 32, "kernel_size": [3, 3], "strides": [1, 1], "padding": "same", "data_format": "channels_last", "dilation_rate": [1, 1], "activation": "linear", "use_bias": true, "bias_initializer": {"class_name": "Zeros", "config": {}}, "bias_regularizer": null, "activity_regularizer": null, "bias_constraint": null, "depth_multiplier": 1, "depthwise_initializer": {"class_name": "VarianceScaling", "config": {"scale": 1.0, "mode": "fan_avg", "distribution": "uniform", "seed": null}}, "pointwise_initializer": {"class_name": "VarianceScaling", "config": {"scale": 1.0, "mode": "fan_avg", "distribution": "uniform", "seed": null}}, "depthwise_regularizer": null, "pointwise_regularizer": null, "depthwise_constraint": null, "pointwise_constraint": null}, "inbound_nodes": [[["average_pooling2d_9", 0, 0, {}]]]}, {"name": "batch_normalization_37", "class_name": "BatchNormalization", "config": {"name": "batch_normalization_37", "trainable": true, "axis": -1, "momentum": 0.99, "epsilon": 0.001, "center": true, "scale": true, "beta_initializer": {"class_name": "Zeros", "config": {}}, "gamma_initializer": {"class_name": "Ones", "config": {}}, "moving_mean_initializer": {"class_name": "Zeros", "config": {}}, "moving_variance_initializer": {"class_name": "Ones", "config": {}}, "beta_regularizer": null, "gamma_regularizer": null, "beta_constraint": null, "gamma_constraint": null}, "inbound_nodes": [[["separable_conv2d_37", 0, 0, {}]]]}, {"name": "batch_normalization_30", "class_name": "BatchNormalization", "config": {"name": "batch_normalization_30", "trainable": true, "axis": -1, "momentum": 0.99, "epsilon": 0.001, "center": true, "scale": true, "beta_initializer": {"class_name": "Zeros", "config": {}}, "gamma_initializer": {"class_name": "Ones", "config": {}}, "moving_mean_initializer": {"class_name": "Zeros", "config": {}}, "moving_variance_initializer": {"class_name": "Ones", "config": {}}, "beta_regularizer": null, "gamma_regularizer": null, "beta_constraint": null, "gamma_constraint": null}, "inbound_nodes": [[["separable_conv2d_30", 0, 0, {}]]]}, {"name": "activation_37", "class_name": "Activation", "config": {"name": "activation_37", "trainable": true, "activation": "tanh"}, "inbound_nodes": [[["batch_normalization_37", 0, 0, {}]]]}, {"name": "activation_30", "class_name": "Activation", "config": {"name": "activation_30", "trainable": true, "activation": "relu"}, "inbound_nodes": [[["batch_normalization_30", 0, 0, {}]]]}, {"name": "separable_conv2d_38", "class_name": "SeparableConv2D", "config": {"name": "separable_conv2d_38", "trainable": true, "filters": 32, "kernel_size": [3, 3], "strides": [1, 1], "padding": "same", "data_format": "channels_last", "dilation_rate": [1, 1], "activation": "linear", "use_bias": true, "bias_initializer": {"class_name": "Zeros", "config": {}}, "bias_regularizer": null, "activity_regularizer": null, "bias_constraint": null, "depth_multiplier": 1, "depthwise_initializer": {"class_name": "VarianceScaling", "config": {"scale": 1.0, "mode": "fan_avg", "distribution": "uniform", "seed": null}}, "pointwise_initializer": {"class_name": "VarianceScaling", "config": {"scale": 1.0, "mode": "fan_avg", "distribution": "uniform", "seed": null}}, "depthwise_regularizer": null, "pointwise_regularizer": null, "depthwise_constraint": null, "pointwise_constraint": null}, "inbound_nodes": [[["activation_37", 0, 0, {}]]]}, {"name": "separable_conv2d_31", "class_name": "SeparableConv2D", "config": {"name": "separable_conv2d_31", "trainable": true, "filters": 32, "kernel_size": [3, 3], "strides": [1, 1], "padding": "same", "data_format": "channels_last", "dilation_rate": [1, 1], "activation": "linear", "use_bias": true, "bias_initializer": {"class_name": "Zeros", "config": {}}, "bias_regularizer": null, "activity_regularizer": null, "bias_constraint": null, "depth_multiplier": 1, "depthwise_initializer": {"class_name": "VarianceScaling", "config": {"scale": 1.0, "mode": "fan_avg", "distribution": "uniform", "seed": null}}, "pointwise_initializer": {"class_name": "VarianceScaling", "config": {"scale": 1.0, "mode": "fan_avg", "distribution": "uniform", "seed": null}}, "depthwise_regularizer": null, "pointwise_regularizer": null, "depthwise_constraint": null, "pointwise_constraint": null}, "inbound_nodes": [[["activation_30", 0, 0, {}]]]}, {"name": "batch_normalization_38", "class_name": "BatchNormalization", "config": {"name": "batch_normalization_38", "trainable": true, "axis": -1, "momentum": 0.99, "epsilon": 0.001, "center": true, "scale": true, "beta_initializer": {"class_name": "Zeros", "config": {}}, "gamma_initializer": {"class_name": "Ones", "config": {}}, "moving_mean_initializer": {"class_name": "Zeros", "config": {}}, "moving_variance_initializer": {"class_name": "Ones", "config": {}}, "beta_regularizer": null, "gamma_regularizer": null, "beta_constraint": null, "gamma_constraint": null}, "inbound_nodes": [[["separable_conv2d_38", 0, 0, {}]]]}, {"name": "batch_normalization_31", "class_name": "BatchNormalization", "config": {"name": "batch_normalization_31", "trainable": true, "axis": -1, "momentum": 0.99, "epsilon": 0.001, "center": true, "scale": true, "beta_initializer": {"class_name": "Zeros", "config": {}}, "gamma_initializer": {"class_name": "Ones", "config": {}}, "moving_mean_initializer": {"class_name": "Zeros", "config": {}}, "moving_variance_initializer": {"class_name": "Ones", "config": {}}, "beta_regularizer": null, "gamma_regularizer": null, "beta_constraint": null, "gamma_constraint": null}, "inbound_nodes": [[["separable_conv2d_31", 0, 0, {}]]]}, {"name": "activation_38", "class_name": "Activation", "config": {"name": "activation_38", "trainable": true, "activation": "tanh"}, "inbound_nodes": [[["batch_normalization_38", 0, 0, {}]]]}, {"name": "activation_31", "class_name": "Activation", "config": {"name": "activation_31", "trainable": true, "activation": "relu"}, "inbound_nodes": [[["batch_normalization_31", 0, 0, {}]]]}, {"name": "max_pooling2d_8", "class_name": "MaxPooling2D", "config": {"name": "max_pooling2d_8", "trainable": true, "pool_size": [2, 2], "padding": "valid", "strides": [2, 2], "data_format": "channels_last"}, "inbound_nodes": [[["activation_38", 0, 0, {}]]]}, {"name": "average_pooling2d_10", "class_name": "AveragePooling2D", "config": {"name": "average_pooling2d_10", "trainable": true, "pool_size": [2, 2], "padding": "valid", "strides": [2, 2], "data_format": "channels_last"}, "inbound_nodes": [[["activation_31", 0, 0, {}]]]}, {"name": "separable_conv2d_39", "class_name": "SeparableConv2D", "config": {"name": "separable_conv2d_39", "trainable": true, "filters": 64, "kernel_size": [3, 3], "strides": [1, 1], "padding": "same", "data_format": "channels_last", "dilation_rate": [1, 1], "activation": "linear", "use_bias": true, "bias_initializer": {"class_name": "Zeros", "config": {}}, "bias_regularizer": null, "activity_regularizer": null, "bias_constraint": null, "depth_multiplier": 1, "depthwise_initializer": {"class_name": "VarianceScaling", "config": {"scale": 1.0, "mode": "fan_avg", "distribution": "uniform", "seed": null}}, "pointwise_initializer": {"class_name": "VarianceScaling", "config": {"scale": 1.0, "mode": "fan_avg", "distribution": "uniform", "seed": null}}, "depthwise_regularizer": null, "pointwise_regularizer": null, "depthwise_constraint": null, "pointwise_constraint": null}, "inbound_nodes": [[["max_pooling2d_8", 0, 0, {}]]]}, {"name": "separable_conv2d_32", "class_name": "SeparableConv2D", "config": {"name": "separable_conv2d_32", "trainable": true, "filters": 64, "kernel_size": [3, 3], "strides": [1, 1], "padding": "same", "data_format": "channels_last", "dilation_rate": [1, 1], "activation": "linear", "use_bias": true, "bias_initializer": {"class_name": "Zeros", "config": {}}, "bias_regularizer": null, "activity_regularizer": null, "bias_constraint": null, "depth_multiplier": 1, "depthwise_initializer": {"class_name": "VarianceScaling", "config": {"scale": 1.0, "mode": "fan_avg", "distribution": "uniform", "seed": null}}, "pointwise_initializer": {"class_name": "VarianceScaling", "config": {"scale": 1.0, "mode": "fan_avg", "distribution": "uniform", "seed": null}}, "depthwise_regularizer": null, "pointwise_regularizer": null, "depthwise_constraint": null, "pointwise_constraint": null}, "inbound_nodes": [[["average_pooling2d_10", 0, 0, {}]]]}, {"name": "batch_normalization_39", "class_name": "BatchNormalization", "config": {"name": "batch_normalization_39", "trainable": true, "axis": -1, "momentum": 0.99, "epsilon": 0.001, "center": true, "scale": true, "beta_initializer": {"class_name": "Zeros", "config": {}}, "gamma_initializer": {"class_name": "Ones", "config": {}}, "moving_mean_initializer": {"class_name": "Zeros", "config": {}}, "moving_variance_initializer": {"class_name": "Ones", "config": {}}, "beta_regularizer": null, "gamma_regularizer": null, "beta_constraint": null, "gamma_constraint": null}, "inbound_nodes": [[["separable_conv2d_39", 0, 0, {}]]]}, {"name": "batch_normalization_32", "class_name": "BatchNormalization", "config": {"name": "batch_normalization_32", "trainable": true, "axis": -1, "momentum": 0.99, "epsilon": 0.001, "center": true, "scale": true, "beta_initializer": {"class_name": "Zeros", "config": {}}, "gamma_initializer": {"class_name": "Ones", "config": {}}, "moving_mean_initializer": {"class_name": "Zeros", "config": {}}, "moving_variance_initializer": {"class_name": "Ones", "config": {}}, "beta_regularizer": null, "gamma_regularizer": null, "beta_constraint": null, "gamma_constraint": null}, "inbound_nodes": [[["separable_conv2d_32", 0, 0, {}]]]}, {"name": "activation_39", "class_name": "Activation", "config": {"name": "activation_39", "trainable": true, "activation": "tanh"}, "inbound_nodes": [[["batch_normalization_39", 0, 0, {}]]]}, {"name": "activation_32", "class_name": "Activation", "config": {"name": "activation_32", "trainable": true, "activation": "relu"}, "inbound_nodes": [[["batch_normalization_32", 0, 0, {}]]]}, {"name": "separable_conv2d_40", "class_name": "SeparableConv2D", "config": {"name": "separable_conv2d_40", "trainable": true, "filters": 64, "kernel_size": [3, 3], "strides": [1, 1], "padding": "same", "data_format": "channels_last", "dilation_rate": [1, 1], "activation": "linear", "use_bias": true, "bias_initializer": {"class_name": "Zeros", "config": {}}, "bias_regularizer": null, "activity_regularizer": null, "bias_constraint": null, "depth_multiplier": 1, "depthwise_initializer": {"class_name": "VarianceScaling", "config": {"scale": 1.0, "mode": "fan_avg", "distribution": "uniform", "seed": null}}, "pointwise_initializer": {"class_name": "VarianceScaling", "config": {"scale": 1.0, "mode": "fan_avg", "distribution": "uniform", "seed": null}}, "depthwise_regularizer": null, "pointwise_regularizer": null, "depthwise_constraint": null, "pointwise_constraint": null}, "inbound_nodes": [[["activation_39", 0, 0, {}]]]}, {"name": "separable_conv2d_33", "class_name": "SeparableConv2D", "config": {"name": "separable_conv2d_33", "trainable": true, "filters": 64, "kernel_size": [3, 3], "strides": [1, 1], "padding": "same", "data_format": "channels_last", "dilation_rate": [1, 1], "activation": "linear", "use_bias": true, "bias_initializer": {"class_name": "Zeros", "config": {}}, "bias_regularizer": null, "activity_regularizer": null, "bias_constraint": null, "depth_multiplier": 1, "depthwise_initializer": {"class_name": "VarianceScaling", "config": {"scale": 1.0, "mode": "fan_avg", "distribution": "uniform", "seed": null}}, "pointwise_initializer": {"class_name": "VarianceScaling", "config": {"scale": 1.0, "mode": "fan_avg", "distribution": "uniform", "seed": null}}, "depthwise_regularizer": null, "pointwise_regularizer": null, "depthwise_constraint": null, "pointwise_constraint": null}, "inbound_nodes": [[["activation_32", 0, 0, {}]]]}, {"name": "batch_normalization_40", "class_name": "BatchNormalization", "config": {"name": "batch_normalization_40", "trainable": true, "axis": -1, "momentum": 0.99, "epsilon": 0.001, "center": true, "scale": true, "beta_initializer": {"class_name": "Zeros", "config": {}}, "gamma_initializer": {"class_name": "Ones", "config": {}}, "moving_mean_initializer": {"class_name": "Zeros", "config": {}}, "moving_variance_initializer": {"class_name": "Ones", "config": {}}, "beta_regularizer": null, "gamma_regularizer": null, "beta_constraint": null, "gamma_constraint": null}, "inbound_nodes": [[["separable_conv2d_40", 0, 0, {}]]]}, {"name": "batch_normalization_33", "class_name": "BatchNormalization", "config": {"name": "batch_normalization_33", "trainable": true, "axis": -1, "momentum": 0.99, "epsilon": 0.001, "center": true, "scale": true, "beta_initializer": {"class_name": "Zeros", "config": {}}, "gamma_initializer": {"class_name": "Ones", "config": {}}, "moving_mean_initializer": {"class_name": "Zeros", "config": {}}, "moving_variance_initializer": {"class_name": "Ones", "config": {}}, "beta_regularizer": null, "gamma_regularizer": null, "beta_constraint": null, "gamma_constraint": null}, "inbound_nodes": [[["separable_conv2d_33", 0, 0, {}]]]}, {"name": "activation_40", "class_name": "Activation", "config": {"name": "activation_40", "trainable": true, "activation": "tanh"}, "inbound_nodes": [[["batch_normalization_40", 0, 0, {}]]]}, {"name": "activation_33", "class_name": "Activation", "config": {"name": "activation_33", "trainable": true, "activation": "relu"}, "inbound_nodes": [[["batch_normalization_33", 0, 0, {}]]]}, {"name": "max_pooling2d_9", "class_name": "MaxPooling2D", "config": {"name": "max_pooling2d_9", "trainable": true, "pool_size": [2, 2], "padding": "valid", "strides": [2, 2], "data_format": "channels_last"}, "inbound_nodes": [[["activation_40", 0, 0, {}]]]}, {"name": "average_pooling2d_11", "class_name": "AveragePooling2D", "config": {"name": "average_pooling2d_11", "trainable": true, "pool_size": [2, 2], "padding": "valid", "strides": [2, 2], "data_format": "channels_last"}, "inbound_nodes": [[["activation_33", 0, 0, {}]]]}, {"name": "separable_conv2d_41", "class_name": "SeparableConv2D", "config": {"name": "separable_conv2d_41", "trainable": true, "filters": 128, "kernel_size": [3, 3], "strides": [1, 1], "padding": "same", "data_format": "channels_last", "dilation_rate": [1, 1], "activation": "linear", "use_bias": true, "bias_initializer": {"class_name": "Zeros", "config": {}}, "bias_regularizer": null, "activity_regularizer": null, "bias_constraint": null, "depth_multiplier": 1, "depthwise_initializer": {"class_name": "VarianceScaling", "config": {"scale": 1.0, "mode": "fan_avg", "distribution": "uniform", "seed": null}}, "pointwise_initializer": {"class_name": "VarianceScaling", "config": {"scale": 1.0, "mode": "fan_avg", "distribution": "uniform", "seed": null}}, "depthwise_regularizer": null, "pointwise_regularizer": null, "depthwise_constraint": null, "pointwise_constraint": null}, "inbound_nodes": [[["max_pooling2d_9", 0, 0, {}]]]}, {"name": "separable_conv2d_34", "class_name": "SeparableConv2D", "config": {"name": "separable_conv2d_34", "trainable": true, "filters": 128, "kernel_size": [3, 3], "strides": [1, 1], "padding": "same", "data_format": "channels_last", "dilation_rate": [1, 1], "activation": "linear", "use_bias": true, "bias_initializer": {"class_name": "Zeros", "config": {}}, "bias_regularizer": null, "activity_regularizer": null, "bias_constraint": null, "depth_multiplier": 1, "depthwise_initializer": {"class_name": "VarianceScaling", "config": {"scale": 1.0, "mode": "fan_avg", "distribution": "uniform", "seed": null}}, "pointwise_initializer": {"class_name": "VarianceScaling", "config": {"scale": 1.0, "mode": "fan_avg", "distribution": "uniform", "seed": null}}, "depthwise_regularizer": null, "pointwise_regularizer": null, "depthwise_constraint": null, "pointwise_constraint": null}, "inbound_nodes": [[["average_pooling2d_11", 0, 0, {}]]]}, {"name": "batch_normalization_41", "class_name": "BatchNormalization", "config": {"name": "batch_normalization_41", "trainable": true, "axis": -1, "momentum": 0.99, "epsilon": 0.001, "center": true, "scale": true, "beta_initializer": {"class_name": "Zeros", "config": {}}, "gamma_initializer": {"class_name": "Ones", "config": {}}, "moving_mean_initializer": {"class_name": "Zeros", "config": {}}, "moving_variance_initializer": {"class_name": "Ones", "config": {}}, "beta_regularizer": null, "gamma_regularizer": null, "beta_constraint": null, "gamma_constraint": null}, "inbound_nodes": [[["separable_conv2d_41", 0, 0, {}]]]}, {"name": "batch_normalization_34", "class_name": "BatchNormalization", "config": {"name": "batch_normalization_34", "trainable": true, "axis": -1, "momentum": 0.99, "epsilon": 0.001, "center": true, "scale": true, "beta_initializer": {"class_name": "Zeros", "config": {}}, "gamma_initializer": {"class_name": "Ones", "config": {}}, "moving_mean_initializer": {"class_name": "Zeros", "config": {}}, "moving_variance_initializer": {"class_name": "Ones", "config": {}}, "beta_regularizer": null, "gamma_regularizer": null, "beta_constraint": null, "gamma_constraint": null}, "inbound_nodes": [[["separable_conv2d_34", 0, 0, {}]]]}, {"name": "activation_41", "class_name": "Activation", "config": {"name": "activation_41", "trainable": true, "activation": "tanh"}, "inbound_nodes": [[["batch_normalization_41", 0, 0, {}]]]}, {"name": "activation_34", "class_name": "Activation", "config": {"name": "activation_34", "trainable": true, "activation": "relu"}, "inbound_nodes": [[["batch_normalization_34", 0, 0, {}]]]}, {"name": "separable_conv2d_42", "class_name": "SeparableConv2D", "config": {"name": "separable_conv2d_42", "trainable": true, "filters": 128, "kernel_size": [3, 3], "strides": [1, 1], "padding": "same", "data_format": "channels_last", "dilation_rate": [1, 1], "activation": "linear", "use_bias": true, "bias_initializer": {"class_name": "Zeros", "config": {}}, "bias_regularizer": null, "activity_regularizer": null, "bias_constraint": null, "depth_multiplier": 1, "depthwise_initializer": {"class_name": "VarianceScaling", "config": {"scale": 1.0, "mode": "fan_avg", "distribution": "uniform", "seed": null}}, "pointwise_initializer": {"class_name": "VarianceScaling", "config": {"scale": 1.0, "mode": "fan_avg", "distribution": "uniform", "seed": null}}, "depthwise_regularizer": null, "pointwise_regularizer": null, "depthwise_constraint": null, "pointwise_constraint": null}, "inbound_nodes": [[["activation_41", 0, 0, {}]]]}, {"name": "separable_conv2d_35", "class_name": "SeparableConv2D", "config": {"name": "separable_conv2d_35", "trainable": true, "filters": 128, "kernel_size": [3, 3], "strides": [1, 1], "padding": "same", "data_format": "channels_last", "dilation_rate": [1, 1], "activation": "linear", "use_bias": true, "bias_initializer": {"class_name": "Zeros", "config": {}}, "bias_regularizer": null, "activity_regularizer": null, "bias_constraint": null, "depth_multiplier": 1, "depthwise_initializer": {"class_name": "VarianceScaling", "config": {"scale": 1.0, "mode": "fan_avg", "distribution": "uniform", "seed": null}}, "pointwise_initializer": {"class_name": "VarianceScaling", "config": {"scale": 1.0, "mode": "fan_avg", "distribution": "uniform", "seed": null}}, "depthwise_regularizer": null, "pointwise_regularizer": null, "depthwise_constraint": null, "pointwise_constraint": null}, "inbound_nodes": [[["activation_34", 0, 0, {}]]]}, {"name": "batch_normalization_42", "class_name": "BatchNormalization", "config": {"name": "batch_normalization_42", "trainable": true, "axis": -1, "momentum": 0.99, "epsilon": 0.001, "center": true, "scale": true, "beta_initializer": {"class_name": "Zeros", "config": {}}, "gamma_initializer": {"class_name": "Ones", "config": {}}, "moving_mean_initializer": {"class_name": "Zeros", "config": {}}, "moving_variance_initializer": {"class_name": "Ones", "config": {}}, "beta_regularizer": null, "gamma_regularizer": null, "beta_constraint": null, "gamma_constraint": null}, "inbound_nodes": [[["separable_conv2d_42", 0, 0, {}]]]}, {"name": "batch_normalization_35", "class_name": "BatchNormalization", "config": {"name": "batch_normalization_35", "trainable": true, "axis": -1, "momentum": 0.99, "epsilon": 0.001, "center": true, "scale": true, "beta_initializer": {"class_name": "Zeros", "config": {}}, "gamma_initializer": {"class_name": "Ones", "config": {}}, "moving_mean_initializer": {"class_name": "Zeros", "config": {}}, "moving_variance_initializer": {"class_name": "Ones", "config": {}}, "beta_regularizer": null, "gamma_regularizer": null, "beta_constraint": null, "gamma_constraint": null}, "inbound_nodes": [[["separable_conv2d_35", 0, 0, {}]]]}, {"name": "activation_42", "class_name": "Activation", "config": {"name": "activation_42", "trainable": true, "activation": "tanh"}, "inbound_nodes": [[["batch_normalization_42", 0, 0, {}]]]}, {"name": "activation_35", "class_name": "Activation", "config": {"name": "activation_35", "trainable": true, "activation": "relu"}, "inbound_nodes": [[["batch_normalization_35", 0, 0, {}]]]}, {"name": "conv2d_18", "class_name": "Conv2D", "config": {"name": "conv2d_18", "trainable": true, "filters": 64, "kernel_size": [1, 1], "strides": [1, 1], "padding": "valid", "data_format": "channels_last", "dilation_rate": [1, 1], "activation": "tanh", "use_bias": true, "kernel_initializer": {"class_name": "VarianceScaling", "config": {"scale": 1.0, "mode": "fan_avg", "distribution": "uniform", "seed": null}}, "bias_initializer": {"class_name": "Zeros", "config": {}}, "kernel_regularizer": null, "bias_regularizer": null, "activity_regularizer": null, "kernel_constraint": null, "bias_constraint": null}, "inbound_nodes": [[["max_pooling2d_8", 0, 0, {}]]]}, {"name": "conv2d_19", "class_name": "Conv2D", "config": {"name": "conv2d_19", "trainable": true, "filters": 64, "kernel_size": [1, 1], "strides": [1, 1], "padding": "valid", "data_format": "channels_last", "dilation_rate": [1, 1], "activation": "relu", "use_bias": true, "kernel_initializer": {"class_name": "VarianceScaling", "config": {"scale": 1.0, "mode": "fan_avg", "distribution": "uniform", "seed": null}}, "bias_initializer": {"class_name": "Zeros", "config": {}}, "kernel_regularizer": null, "bias_regularizer": null, "activity_regularizer": null, "kernel_constraint": null, "bias_constraint": null}, "inbound_nodes": [[["average_pooling2d_10", 0, 0, {}]]]}, {"name": "conv2d_14", "class_name": "Conv2D", "config": {"name": "conv2d_14", "trainable": true, "filters": 64, "kernel_size": [1, 1], "strides": [1, 1], "padding": "valid", "data_format": "channels_last", "dilation_rate": [1, 1], "activation": "tanh", "use_bias": true, "kernel_initializer": {"class_name": "VarianceScaling", "config": {"scale": 1.0, "mode": "fan_avg", "distribution": "uniform", "seed": null}}, "bias_initializer": {"class_name": "Zeros", "config": {}}, "kernel_regularizer": null, "bias_regularizer": null, "activity_regularizer": null, "kernel_constraint": null, "bias_constraint": null}, "inbound_nodes": [[["activation_42", 0, 0, {}]]]}, {"name": "conv2d_15", "class_name": "Conv2D", "config": {"name": "conv2d_15", "trainable": true, "filters": 64, "kernel_size": [1, 1], "strides": [1, 1], "padding": "valid", "data_format": "channels_last", "dilation_rate": [1, 1], "activation": "relu", "use_bias": true, "kernel_initializer": {"class_name": "VarianceScaling", "config": {"scale": 1.0, "mode": "fan_avg", "distribution": "uniform", "seed": null}}, "bias_initializer": {"class_name": "Zeros", "config": {}}, "kernel_regularizer": null, "bias_regularizer": null, "activity_regularizer": null, "kernel_constraint": null, "bias_constraint": null}, "inbound_nodes": [[["activation_35", 0, 0, {}]]]}, {"name": "conv2d_16", "class_name": "Conv2D", "config": {"name": "conv2d_16", "trainable": true, "filters": 64, "kernel_size": [1, 1], "strides": [1, 1], "padding": "valid", "data_format": "channels_last", "dilation_rate": [1, 1], "activation": "tanh", "use_bias": true, "kernel_initializer": {"class_name": "VarianceScaling", "config": {"scale": 1.0, "mode": "fan_avg", "distribution": "uniform", "seed": null}}, "bias_initializer": {"class_name": "Zeros", "config": {}}, "kernel_regularizer": null, "bias_regularizer": null, "activity_regularizer": null, "kernel_constraint": null, "bias_constraint": null}, "inbound_nodes": [[["max_pooling2d_9", 0, 0, {}]]]}, {"name": "conv2d_17", "class_name": "Conv2D", "config": {"name": "conv2d_17", "trainable": true, "filters": 64, "kernel_size": [1, 1], "strides": [1, 1], "padding": "valid", "data_format": "channels_last", "dilation_rate": [1, 1], "activation": "relu", "use_bias": true, "kernel_initializer": {"class_name": "VarianceScaling", "config": {"scale": 1.0, "mode": "fan_avg", "distribution": "uniform", "seed": null}}, "bias_initializer": {"class_name": "Zeros", "config": {}}, "kernel_regularizer": null, "bias_regularizer": null, "activity_regularizer": null, "kernel_constraint": null, "bias_constraint": null}, "inbound_nodes": [[["average_pooling2d_11", 0, 0, {}]]]}, {"name": "multiply_9", "class_name": "Multiply", "config": {"name": "multiply_9", "trainable": true}, "inbound_nodes": [[["conv2d_18", 0, 0, {}], ["conv2d_19", 0, 0, {}]]]}, {"name": "multiply_7", "class_name": "Multiply", "config": {"name": "multiply_7", "trainable": true}, "inbound_nodes": [[["conv2d_14", 0, 0, {}], ["conv2d_15", 0, 0, {}]]]}, {"name": "multiply_8", "class_name": "Multiply", "config": {"name": "multiply_8", "trainable": true}, "inbound_nodes": [[["conv2d_16", 0, 0, {}], ["conv2d_17", 0, 0, {}]]]}, {"name": "average_pooling2d_12", "class_name": "AveragePooling2D", "config": {"name": "average_pooling2d_12", "trainable": true, "pool_size": [2, 2], "padding": "valid", "strides": [2, 2], "data_format": "channels_last"}, "inbound_nodes": [[["multiply_9", 0, 0, {}]]]}], "input_layers": [["input_19", 0, 0]], "output_layers": [["multiply_7", 0, 0], ["multiply_8", 0, 0], ["average_pooling2d_12", 0, 0]]}, "inbound_nodes": [[["input_19", 0, 0, {}]]]}, {"name": "ssr_S_model", "class_name": "Model", "config": {"name": "ssr_S_model", "layers": [{"name": "input_20", "class_name": "InputLayer", "config": {"batch_input_shape": [null, 8, 8, 64], "dtype": "float32", "sparse": false, "name": "input_20"}, "inbound_nodes": []}, {"name": "input_21", "class_name": "InputLayer", "config": {"batch_input_shape": [null, 8, 8, 64], "dtype": "float32", "sparse": false, "name": "input_21"}, "inbound_nodes": []}, {"name": "input_22", "class_name": "InputLayer", "config": {"batch_input_shape": [null, 8, 8, 64], "dtype": "float32", "sparse": false, "name": "input_22"}, "inbound_nodes": []}, {"name": "reshape_25", "class_name": "Reshape", "config": {"name": "reshape_25", "trainable": true, "target_shape": [64, 64]}, "inbound_nodes": [[["input_20", 0, 0, {}]]]}, {"name": "reshape_26", "class_name": "Reshape", "config": {"name": "reshape_26", "trainable": true, "target_shape": [64, 64]}, "inbound_nodes": [[["input_21", 0, 0, {}]]]}, {"name": "reshape_27", "class_name": "Reshape", "config": {"name": "reshape_27", "trainable": true, "target_shape": [64, 64]}, "inbound_nodes": [[["input_22", 0, 0, {}]]]}, {"name": "concatenate_7", "class_name": "Concatenate", "config": {"name": "concatenate_7", "trainable": true, "axis": 1}, "inbound_nodes": [[["reshape_25", 0, 0, {}], ["reshape_26", 0, 0, {}], ["reshape_27", 0, 0, {}]]]}], "input_layers": [["input_20", 0, 0], ["input_21", 0, 0], ["input_22", 0, 0]], "output_layers": [["concatenate_7", 0, 0]]}, "inbound_nodes": [[["ssr_G_model", 1, 0, {}], ["ssr_G_model", 1, 1, {}], ["ssr_G_model", 1, 2, {}]]]}, {"name": "ssr_Cap_model", "class_name": "Model", "config": {"name": "ssr_Cap_model", "layers": [{"name": "input_23", "class_name": "InputLayer", "config": {"batch_input_shape": [null, 192, 64], "dtype": "float32", "sparse": false, "name": "input_23"}, "inbound_nodes": []}, {"name": "caps", "class_name": "CapsuleLayer", "config": {"name": "caps", "trainable": true, "num_capsule": 3, "dim_capsule": 16, "routings": 2}, "inbound_nodes": [[["input_23", 0, 0, {}]]]}, {"name": "lambda_38", "class_name": "Lambda", "config": {"name": "lambda_38", "trainable": true, "function": ["4wEAAAAAAAAAAQAAAAUAAAATAAAAcxoAAAB8AGQAZACFAogAiAGFAmQAZACFAmYDGQBTACkBTqkA\nKQHaAXgpAtoEczFfYdoEczFfYnIBAAAA+iUvY29udGVudC9GU0EtTmV0L2RlbW8vRlNBTkVUX21v\nZGVsLnB52gg8bGFtYmRhPloFAADzAAAAAA==\n", null, [0, 1]], "function_type": "lambda", "output_shape": null, "output_shape_type": "raw", "arguments": {}}, "inbound_nodes": [[["caps", 0, 0, {}]]]}, {"name": "lambda_39", "class_name": "Lambda", "config": {"name": "lambda_39", "trainable": true, "function": ["4wEAAAAAAAAAAQAAAAUAAAATAAAAcxoAAAB8AGQAZACFAogAiAGFAmQAZACFAmYDGQBTACkBTqkA\nKQHaAXgpAtoEczJfYdoEczJfYnIBAAAA+iUvY29udGVudC9GU0EtTmV0L2RlbW8vRlNBTkVUX21v\nZGVsLnB52gg8bGFtYmRhPl0FAADzAAAAAA==\n", null, [1, 2]], "function_type": "lambda", "output_shape": null, "output_shape_type": "raw", "arguments": {}}, "inbound_nodes": [[["caps", 0, 0, {}]]]}, {"name": "lambda_40", "class_name": "Lambda", "config": {"name": "lambda_40", "trainable": true, "function": ["4wEAAAAAAAAAAQAAAAUAAAATAAAAcxoAAAB8AGQAZACFAogAiAGFAmQAZACFAmYDGQBTACkBTqkA\nKQHaAXgpAtoEczNfYdoEczNfYnIBAAAA+iUvY29udGVudC9GU0EtTmV0L2RlbW8vRlNBTkVUX21v\nZGVsLnB52gg8bGFtYmRhPmAFAADzAAAAAA==\n", null, [2, 3]], "function_type": "lambda", "output_shape": null, "output_shape_type": "raw", "arguments": {}}, "inbound_nodes": [[["caps", 0, 0, {}]]]}, {"name": "reshape_28", "class_name": "Reshape", "config": {"name": "reshape_28", "trainable": true, "target_shape": [-1]}, "inbound_nodes": [[["lambda_38", 0, 0, {}]]]}, {"name": "reshape_29", "class_name": "Reshape", "config": {"name": "reshape_29", "trainable": true, "target_shape": [-1]}, "inbound_nodes": [[["lambda_39", 0, 0, {}]]]}, {"name": "reshape_30", "class_name": "Reshape", "config": {"name": "reshape_30", "trainable": true, "target_shape": [-1]}, "inbound_nodes": [[["lambda_40", 0, 0, {}]]]}], "input_layers": [["input_23", 0, 0]], "output_layers": [["reshape_28", 0, 0], ["reshape_29", 0, 0], ["reshape_30", 0, 0]]}, "inbound_nodes": [[["ssr_S_model", 1, 0, {}]]]}, {"name": "ssr_F_Cap_model", "class_name": "Model", "config": {"name": "ssr_F_Cap_model", "layers": [{"name": "input_24", "class_name": "InputLayer", "config": {"batch_input_shape": [null, 16], "dtype": "float32", "sparse": false, "name": "input_24"}, "inbound_nodes": []}, {"name": "input_25", "class_name": "InputLayer", "config": {"batch_input_shape": [null, 16], "dtype": "float32", "sparse": false, "name": "input_25"}, "inbound_nodes": []}, {"name": "input_26", "class_name": "InputLayer", "config": {"batch_input_shape": [null, 16], "dtype": "float32", "sparse": false, "name": "input_26"}, "inbound_nodes": []}, {"name": "lambda_43", "class_name": "Lambda", "config": {"name": "lambda_43", "trainable": true, "function": ["4wEAAAAAAAAAAQAAAAQAAABTAAAAcxQAAAB8AGQAZACFAmQBZAKFAmYCGQBTACkDTukIAAAA6RAA\nAACpACkB2gF4cgMAAAByAwAAAPolL2NvbnRlbnQvRlNBLU5ldC9kZW1vL0ZTQU5FVF9tb2RlbC5w\nedoIPGxhbWJkYT53BQAA8wAAAAA=\n", null, null], "function_type": "lambda", "output_shape": null, "output_shape_type": "raw", "arguments": {}}, "inbound_nodes": [[["input_24", 0, 0, {}]]]}, {"name": "lambda_46", "class_name": "Lambda", "config": {"name": "lambda_46", "trainable": true, "function": ["4wEAAAAAAAAAAQAAAAQAAABTAAAAcxQAAAB8AGQAZACFAmQBZAKFAmYCGQBTACkDTukIAAAA6RAA\nAACpACkB2gF4cgMAAAByAwAAAPolL2NvbnRlbnQvRlNBLU5ldC9kZW1vL0ZTQU5FVF9tb2RlbC5w\nedoIPGxhbWJkYT6CBQAA8wAAAAA=\n", null, null], "function_type": "lambda", "output_shape": null, "output_shape_type": "raw", "arguments": {}}, "inbound_nodes": [[["input_25", 0, 0, {}]]]}, {"name": "lambda_49", "class_name": "Lambda", "config": {"name": "lambda_49", "trainable": true, "function": ["4wEAAAAAAAAAAQAAAAQAAABTAAAAcxQAAAB8AGQAZACFAmQBZAKFAmYCGQBTACkDTukIAAAA6RAA\nAACpACkB2gF4cgMAAAByAwAAAPolL2NvbnRlbnQvRlNBLU5ldC9kZW1vL0ZTQU5FVF9tb2RlbC5w\nedoIPGxhbWJkYT6NBQAA8wAAAAA=\n", null, null], "function_type": "lambda", "output_shape": null, "output_shape_type": "raw", "arguments": {}}, "inbound_nodes": [[["input_26", 0, 0, {}]]]}, {"name": "dense_11", "class_name": "Dense", "config": {"name": "dense_11", "trainable": true, "units": 9, "activation": "relu", "use_bias": true, "kernel_initializer": {"class_name": "VarianceScaling", "config": {"scale": 1.0, "mode": "fan_avg", "distribution": "uniform", "seed": null}}, "bias_initializer": {"class_name": "Zeros", "config": {}}, "kernel_regularizer": null, "bias_regularizer": null, "activity_regularizer": null, "kernel_constraint": null, "bias_constraint": null}, "inbound_nodes": [[["lambda_43", 0, 0, {}]]]}, {"name": "dense_12", "class_name": "Dense", "config": {"name": "dense_12", "trainable": true, "units": 9, "activation": "relu", "use_bias": true, "kernel_initializer": {"class_name": "VarianceScaling", "config": {"scale": 1.0, "mode": "fan_avg", "distribution": "uniform", "seed": null}}, "bias_initializer": {"class_name": "Zeros", "config": {}}, "kernel_regularizer": null, "bias_regularizer": null, "activity_regularizer": null, "kernel_constraint": null, "bias_constraint": null}, "inbound_nodes": [[["lambda_46", 0, 0, {}]]]}, {"name": "dense_13", "class_name": "Dense", "config": {"name": "dense_13", "trainable": true, "units": 9, "activation": "relu", "use_bias": true, "kernel_initializer": {"class_name": "VarianceScaling", "config": {"scale": 1.0, "mode": "fan_avg", "distribution": "uniform", "seed": null}}, "bias_initializer": {"class_name": "Zeros", "config": {}}, "kernel_regularizer": null, "bias_regularizer": null, "activity_regularizer": null, "kernel_constraint": null, "bias_constraint": null}, "inbound_nodes": [[["lambda_49", 0, 0, {}]]]}, {"name": "lambda_41", "class_name": "Lambda", "config": {"name": "lambda_41", "trainable": true, "function": ["4wEAAAAAAAAAAQAAAAQAAABTAAAAcxQAAAB8AGQAZACFAmQBZAKFAmYCGQBTACkDTukAAAAA6QQA\nAACpACkB2gF4cgMAAAByAwAAAPolL2NvbnRlbnQvRlNBLU5ldC9kZW1vL0ZTQU5FVF9tb2RlbC5w\nedoIPGxhbWJkYT5xBQAA8wAAAAA=\n", null, null], "function_type": "lambda", "output_shape": null, "output_shape_type": "raw", "arguments": {}}, "inbound_nodes": [[["input_24", 0, 0, {}]]]}, {"name": "lambda_44", "class_name": "Lambda", "config": {"name": "lambda_44", "trainable": true, "function": ["4wEAAAAAAAAAAQAAAAQAAABTAAAAcxQAAAB8AGQAZACFAmQBZAKFAmYCGQBTACkDTukAAAAA6QQA\nAACpACkB2gF4cgMAAAByAwAAAPolL2NvbnRlbnQvRlNBLU5ldC9kZW1vL0ZTQU5FVF9tb2RlbC5w\nedoIPGxhbWJkYT58BQAA8wAAAAA=\n", null, null], "function_type": "lambda", "output_shape": null, "output_shape_type": "raw", "arguments": {}}, "inbound_nodes": [[["input_25", 0, 0, {}]]]}, {"name": "lambda_47", "class_name": "Lambda", "config": {"name": "lambda_47", "trainable": true, "function": ["4wEAAAAAAAAAAQAAAAQAAABTAAAAcxQAAAB8AGQAZACFAmQBZAKFAmYCGQBTACkDTukAAAAA6QQA\nAACpACkB2gF4cgMAAAByAwAAAPolL2NvbnRlbnQvRlNBLU5ldC9kZW1vL0ZTQU5FVF9tb2RlbC5w\nedoIPGxhbWJkYT6HBQAA8wAAAAA=\n", null, null], "function_type": "lambda", "output_shape": null, "output_shape_type": "raw", "arguments": {}}, "inbound_nodes": [[["input_26", 0, 0, {}]]]}, {"name": "lambda_42", "class_name": "Lambda", "config": {"name": "lambda_42", "trainable": true, "function": ["4wEAAAAAAAAAAQAAAAQAAABTAAAAcxQAAAB8AGQAZACFAmQBZAKFAmYCGQBTACkDTukEAAAA6QgA\nAACpACkB2gF4cgMAAAByAwAAAPolL2NvbnRlbnQvRlNBLU5ldC9kZW1vL0ZTQU5FVF9tb2RlbC5w\nedoIPGxhbWJkYT50BQAA8wAAAAA=\n", null, null], "function_type": "lambda", "output_shape": null, "output_shape_type": "raw", "arguments": {}}, "inbound_nodes": [[["input_24", 0, 0, {}]]]}, {"name": "lambda_45", "class_name": "Lambda", "config": {"name": "lambda_45", "trainable": true, "function": ["4wEAAAAAAAAAAQAAAAQAAABTAAAAcxQAAAB8AGQAZACFAmQBZAKFAmYCGQBTACkDTukEAAAA6QgA\nAACpACkB2gF4cgMAAAByAwAAAPolL2NvbnRlbnQvRlNBLU5ldC9kZW1vL0ZTQU5FVF9tb2RlbC5w\nedoIPGxhbWJkYT5/BQAA8wAAAAA=\n", null, null], "function_type": "lambda", "output_shape": null, "output_shape_type": "raw", "arguments": {}}, "inbound_nodes": [[["input_25", 0, 0, {}]]]}, {"name": "lambda_48", "class_name": "Lambda", "config": {"name": "lambda_48", "trainable": true, "function": ["4wEAAAAAAAAAAQAAAAQAAABTAAAAcxQAAAB8AGQAZACFAmQBZAKFAmYCGQBTACkDTukEAAAA6QgA\nAACpACkB2gF4cgMAAAByAwAAAPolL2NvbnRlbnQvRlNBLU5ldC9kZW1vL0ZTQU5FVF9tb2RlbC5w\nedoIPGxhbWJkYT6KBQAA8wAAAAA=\n", null, null], "function_type": "lambda", "output_shape": null, "output_shape_type": "raw", "arguments": {}}, "inbound_nodes": [[["input_26", 0, 0, {}]]]}, {"name": "reshape_31", "class_name": "Reshape", "config": {"name": "reshape_31", "trainable": true, "target_shape": [3, 3]}, "inbound_nodes": [[["dense_11", 0, 0, {}]]]}, {"name": "reshape_32", "class_name": "Reshape", "config": {"name": "reshape_32", "trainable": true, "target_shape": [3, 3]}, "inbound_nodes": [[["dense_12", 0, 0, {}]]]}, {"name": "reshape_33", "class_name": "Reshape", "config": {"name": "reshape_33", "trainable": true, "target_shape": [3, 3]}, "inbound_nodes": [[["dense_13", 0, 0, {}]]]}, {"name": "delta_s1", "class_name": "Dense", "config": {"name": "delta_s1", "trainable": true, "units": 3, "activation": "tanh", "use_bias": true, "kernel_initializer": {"class_name": "VarianceScaling", "config": {"scale": 1.0, "mode": "fan_avg", "distribution": "uniform", "seed": null}}, "bias_initializer": {"class_name": "Zeros", "config": {}}, "kernel_regularizer": null, "bias_regularizer": null, "activity_regularizer": null, "kernel_constraint": null, "bias_constraint": null}, "inbound_nodes": [[["lambda_41", 0, 0, {}]]]}, {"name": "delta_s2", "class_name": "Dense", "config": {"name": "delta_s2", "trainable": true, "units": 3, "activation": "tanh", "use_bias": true, "kernel_initializer": {"class_name": "VarianceScaling", "config": {"scale": 1.0, "mode": "fan_avg", "distribution": "uniform", "seed": null}}, "bias_initializer": {"class_name": "Zeros", "config": {}}, "kernel_regularizer": null, "bias_regularizer": null, "activity_regularizer": null, "kernel_constraint": null, "bias_constraint": null}, "inbound_nodes": [[["lambda_44", 0, 0, {}]]]}, {"name": "delta_s3", "class_name": "Dense", "config": {"name": "delta_s3", "trainable": true, "units": 3, "activation": "tanh", "use_bias": true, "kernel_initializer": {"class_name": "VarianceScaling", "config": {"scale": 1.0, "mode": "fan_avg", "distribution": "uniform", "seed": null}}, "bias_initializer": {"class_name": "Zeros", "config": {}}, "kernel_regularizer": null, "bias_regularizer": null, "activity_regularizer": null, "kernel_constraint": null, "bias_constraint": null}, "inbound_nodes": [[["lambda_47", 0, 0, {}]]]}, {"name": "local_delta_stage1", "class_name": "Dense", "config": {"name": "local_delta_stage1", "trainable": true, "units": 3, "activation": "tanh", "use_bias": true, "kernel_initializer": {"class_name": "VarianceScaling", "config": {"scale": 1.0, "mode": "fan_avg", "distribution": "uniform", "seed": null}}, "bias_initializer": {"class_name": "Zeros", "config": {}}, "kernel_regularizer": null, "bias_regularizer": null, "activity_regularizer": null, "kernel_constraint": null, "bias_constraint": null}, "inbound_nodes": [[["lambda_42", 0, 0, {}]]]}, {"name": "local_delta_stage2", "class_name": "Dense", "config": {"name": "local_delta_stage2", "trainable": true, "units": 3, "activation": "tanh", "use_bias": true, "kernel_initializer": {"class_name": "VarianceScaling", "config": {"scale": 1.0, "mode": "fan_avg", "distribution": "uniform", "seed": null}}, "bias_initializer": {"class_name": "Zeros", "config": {}}, "kernel_regularizer": null, "bias_regularizer": null, "activity_regularizer": null, "kernel_constraint": null, "bias_constraint": null}, "inbound_nodes": [[["lambda_45", 0, 0, {}]]]}, {"name": "local_delta_stage3", "class_name": "Dense", "config": {"name": "local_delta_stage3", "trainable": true, "units": 3, "activation": "tanh", "use_bias": true, "kernel_initializer": {"class_name": "VarianceScaling", "config": {"scale": 1.0, "mode": "fan_avg", "distribution": "uniform", "seed": null}}, "bias_initializer": {"class_name": "Zeros", "config": {}}, "kernel_regularizer": null, "bias_regularizer": null, "activity_regularizer": null, "kernel_constraint": null, "bias_constraint": null}, "inbound_nodes": [[["lambda_48", 0, 0, {}]]]}], "input_layers": [["input_24", 0, 0], ["input_25", 0, 0], ["input_26", 0, 0]], "output_layers": [["reshape_31", 0, 0], ["reshape_32", 0, 0], ["reshape_33", 0, 0], ["delta_s1", 0, 0], ["delta_s2", 0, 0], ["delta_s3", 0, 0], ["local_delta_stage1", 0, 0], ["local_delta_stage2", 0, 0], ["local_delta_stage3", 0, 0]]}, "inbound_nodes": [[["ssr_Cap_model", 1, 0, {}], ["ssr_Cap_model", 1, 1, {}], ["ssr_Cap_model", 1, 2, {}]]]}, {"name": "pred_pose", "class_name": "Lambda", "config": {"name": "pred_pose", "trainable": true, "function": ["4wUAAAAAAAAAEAAAAAcAAABTAAAAc9YBAAB8AGQBGQBkAGQAhQJkAGQAhQJkAWYDGQBkARQAfQV8\nAGQBGQBkAGQAhQJkAGQAhQJkAWYDGQBkARQAfQZ8AGQBGQBkAGQAhQJkAGQAhQJkAWYDGQBkARQA\nfQd8AWQCGgB9CHwCZAIaAH0JfANkAhoAfQpkA30LeEB0AGQBfAGDAkQAXTJ9DHwFfAx8CBgAfABk\nBBkAFwB8AGQBGQBkAGQAhQJkAGQAhQJ8DGYDGQAUABcAfQVxglcAfAV8AWQFfAR8AGQGGQAUABcA\nFAAbAH0FeEB0AGQBfAKDAkQAXTJ9DXwGfA18CRgAfABkBxkAFwB8AGQFGQBkAGQAhQJkAGQAhQJ8\nDWYDGQAUABcAfQZx3FcAfAZ8AWQFfAR8AGQGGQAUABcAFAAbAHwCZAV8BHwAZAgZABQAFwAUABsA\nfQZ4QnQAZAF8A4MCRABdNH0OfAd8DnwKGAB8AGQJGQAXAHwAZAIZAGQAZACFAmQAZACFAnwOZgMZ\nABQAFwB9B5ABcUpXAHwHfAFkBXwEfABkBhkAFAAXABQAGwB8AmQFfAR8AGQIGQAUABcAFAAbAHwD\nZAV8BHwAZAoZABQAFwAUABsAfQd8BXwGFwB8BxcAfAsUAH0PfA9TACkLTukAAAAA6QIAAADpYwAA\nAOkGAAAA6QEAAADpAwAAAOkHAAAA6QQAAADpCAAAAOkFAAAAKQHaBXJhbmdlKRDaAXjaAnMx2gJz\nMtoCczPaCGxhbWJkYV9k2gFh2gFi2gFj2gJkadoCZGraAmRr2gFW2gFp2gFq2gFr2gRwcmVkqQBy\nHAAAAPolL2NvbnRlbnQvRlNBLU5ldC9kZW1vL0ZTQU5FVF9tb2RlbC5wedoKU1NSX21vZHVsZZcF\nAABzJAAAAAABHgEeAR4CCAEIAQgCBAMQATIBGAIQATIBLAIQATQBQAIQAg==\n", null, null], "function_type": "lambda", "output_shape": null, "output_shape_type": "raw", "arguments": {"s1": 3, "s2": 3, "s3": 3, "lambda_d": 1}}, "inbound_nodes": [[["ssr_F_Cap_model", 1, 0, {}], ["ssr_F_Cap_model", 1, 1, {}], ["ssr_F_Cap_model", 1, 2, {}], ["ssr_F_Cap_model", 1, 3, {}], ["ssr_F_Cap_model", 1, 4, {}], ["ssr_F_Cap_model", 1, 5, {}], ["ssr_F_Cap_model", 1, 6, {}], ["ssr_F_Cap_model", 1, 7, {}], ["ssr_F_Cap_model", 1, 8, {}]]]}], "input_layers": [["input_19", 0, 0]], "output_layers": [["pred_pose", 0, 0]]}, "inbound_nodes": [[["input_27", 0, 0, {}]]]}, {"name": "average_1", "class_name": "Average", "config": {"name": "average_1", "trainable": true}, "inbound_nodes": [[["model_1", 1, 0, {}], ["model_2", 1, 0, {}], ["model_3", 1, 0, {}]]]}], "input_layers": [["input_27", 0, 0]], "output_layers": [["average_1", 0, 0]]}}}, "weightsManifest": [{"paths": ["group1-shard1of2.bin", "group1-shard2of2.bin"], "weights": [{"name": "separable_conv2d_8/depthwise_kernel", "shape": [3, 3, 3, 1], "dtype": "float32"}, {"name": "separable_conv2d_8/pointwise_kernel", "shape": [1, 1, 3, 16], "dtype": "float32"}, {"name": "separable_conv2d_8/bias", "shape": [16], "dtype": "float32"}, {"name": "separable_conv2d_1/depthwise_kernel", "shape": [3, 3, 3, 1], "dtype": "float32"}, {"name": "separable_conv2d_1/pointwise_kernel", "shape": [1, 1, 3, 16], "dtype": "float32"}, {"name": "separable_conv2d_1/bias", "shape": [16], "dtype": "float32"}, {"name": "batch_normalization_8/gamma", "shape": [16], "dtype": "float32"}, {"name": "batch_normalization_8/beta", "shape": [16], "dtype": "float32"}, {"name": "batch_normalization_1/gamma", "shape": [16], "dtype": "float32"}, {"name": "batch_normalization_1/beta", "shape": [16], "dtype": "float32"}, {"name": "separable_conv2d_9/depthwise_kernel", "shape": [3, 3, 16, 1], "dtype": "float32"}, {"name": "separable_conv2d_9/pointwise_kernel", "shape": [1, 1, 16, 32], "dtype": "float32"}, {"name": "separable_conv2d_9/bias", "shape": [32], "dtype": "float32"}, {"name": "separable_conv2d_2/depthwise_kernel", "shape": [3, 3, 16, 1], "dtype": "float32"}, {"name": "separable_conv2d_2/pointwise_kernel", "shape": [1, 1, 16, 32], "dtype": "float32"}, {"name": "separable_conv2d_2/bias", "shape": [32], "dtype": "float32"}, {"name": "batch_normalization_9/gamma", "shape": [32], "dtype": "float32"}, {"name": "batch_normalization_9/beta", "shape": [32], "dtype": "float32"}, {"name": "batch_normalization_2/gamma", "shape": [32], "dtype": "float32"}, {"name": "batch_normalization_2/beta", "shape": [32], "dtype": "float32"}, {"name": "separable_conv2d_10/depthwise_kernel", "shape": [3, 3, 32, 1], "dtype": "float32"}, {"name": "separable_conv2d_10/pointwise_kernel", "shape": [1, 1, 32, 32], "dtype": "float32"}, {"name": "separable_conv2d_10/bias", "shape": [32], "dtype": "float32"}, {"name": "separable_conv2d_3/depthwise_kernel", "shape": [3, 3, 32, 1], "dtype": "float32"}, {"name": "separable_conv2d_3/pointwise_kernel", "shape": [1, 1, 32, 32], "dtype": "float32"}, {"name": "separable_conv2d_3/bias", "shape": [32], "dtype": "float32"}, {"name": "batch_normalization_10/gamma", "shape": [32], "dtype": "float32"}, {"name": "batch_normalization_10/beta", "shape": [32], "dtype": "float32"}, {"name": "batch_normalization_3/gamma", "shape": [32], "dtype": "float32"}, {"name": "batch_normalization_3/beta", "shape": [32], "dtype": "float32"}, {"name": "separable_conv2d_11/depthwise_kernel", "shape": [3, 3, 32, 1], "dtype": "float32"}, {"name": "separable_conv2d_11/pointwise_kernel", "shape": [1, 1, 32, 64], "dtype": "float32"}, {"name": "separable_conv2d_11/bias", "shape": [64], "dtype": "float32"}, {"name": "separable_conv2d_4/depthwise_kernel", "shape": [3, 3, 32, 1], "dtype": "float32"}, {"name": "separable_conv2d_4/pointwise_kernel", "shape": [1, 1, 32, 64], "dtype": "float32"}, {"name": "separable_conv2d_4/bias", "shape": [64], "dtype": "float32"}, {"name": "batch_normalization_11/gamma", "shape": [64], "dtype": "float32"}, {"name": "batch_normalization_11/beta", "shape": [64], "dtype": "float32"}, {"name": "batch_normalization_4/gamma", "shape": [64], "dtype": "float32"}, {"name": "batch_normalization_4/beta", "shape": [64], "dtype": "float32"}, {"name": "separable_conv2d_12/depthwise_kernel", "shape": [3, 3, 64, 1], "dtype": "float32"}, {"name": "separable_conv2d_12/pointwise_kernel", "shape": [1, 1, 64, 64], "dtype": "float32"}, {"name": "separable_conv2d_12/bias", "shape": [64], "dtype": "float32"}, {"name": "separable_conv2d_5/depthwise_kernel", "shape": [3, 3, 64, 1], "dtype": "float32"}, {"name": "separable_conv2d_5/pointwise_kernel", "shape": [1, 1, 64, 64], "dtype": "float32"}, {"name": "separable_conv2d_5/bias", "shape": [64], "dtype": "float32"}, {"name": "batch_normalization_12/gamma", "shape": [64], "dtype": "float32"}, {"name": "batch_normalization_12/beta", "shape": [64], "dtype": "float32"}, {"name": "batch_normalization_5/gamma", "shape": [64], "dtype": "float32"}, {"name": "batch_normalization_5/beta", "shape": [64], "dtype": "float32"}, {"name": "separable_conv2d_13/depthwise_kernel", "shape": [3, 3, 64, 1], "dtype": "float32"}, {"name": "separable_conv2d_13/pointwise_kernel", "shape": [1, 1, 64, 128], "dtype": "float32"}, {"name": "separable_conv2d_13/bias", "shape": [128], "dtype": "float32"}, {"name": "separable_conv2d_6/depthwise_kernel", "shape": [3, 3, 64, 1], "dtype": "float32"}, {"name": "separable_conv2d_6/pointwise_kernel", "shape": [1, 1, 64, 128], "dtype": "float32"}, {"name": "separable_conv2d_6/bias", "shape": [128], "dtype": "float32"}, {"name": "batch_normalization_13/gamma", "shape": [128], "dtype": "float32"}, {"name": "batch_normalization_13/beta", "shape": [128], "dtype": "float32"}, {"name": "batch_normalization_6/gamma", "shape": [128], "dtype": "float32"}, {"name": "batch_normalization_6/beta", "shape": [128], "dtype": "float32"}, {"name": "separable_conv2d_14/depthwise_kernel", "shape": [3, 3, 128, 1], "dtype": "float32"}, {"name": "separable_conv2d_14/pointwise_kernel", "shape": [1, 1, 128, 128], "dtype": "float32"}, {"name": "separable_conv2d_14/bias", "shape": [128], "dtype": "float32"}, {"name": "separable_conv2d_7/depthwise_kernel", "shape": [3, 3, 128, 1], "dtype": "float32"}, {"name": "separable_conv2d_7/pointwise_kernel", "shape": [1, 1, 128, 128], "dtype": "float32"}, {"name": "separable_conv2d_7/bias", "shape": [128], "dtype": "float32"}, {"name": "batch_normalization_14/gamma", "shape": [128], "dtype": "float32"}, {"name": "batch_normalization_14/beta", "shape": [128], "dtype": "float32"}, {"name": "batch_normalization_7/gamma", "shape": [128], "dtype": "float32"}, {"name": "batch_normalization_7/beta", "shape": [128], "dtype": "float32"}, {"name": "conv2d_5/kernel", "shape": [1, 1, 32, 64], "dtype": "float32"}, {"name": "conv2d_5/bias", "shape": [64], "dtype": "float32"}, {"name": "conv2d_6/kernel", "shape": [1, 1, 32, 64], "dtype": "float32"}, {"name": "conv2d_6/bias", "shape": [64], "dtype": "float32"}, {"name": "conv2d_1/kernel", "shape": [1, 1, 128, 64], "dtype": "float32"}, {"name": "conv2d_1/bias", "shape": [64], "dtype": "float32"}, {"name": "conv2d_2/kernel", "shape": [1, 1, 128, 64], "dtype": "float32"}, {"name": "conv2d_2/bias", "shape": [64], "dtype": "float32"}, {"name": "conv2d_3/kernel", "shape": [1, 1, 64, 64], "dtype": "float32"}, {"name": "conv2d_3/bias", "shape": [64], "dtype": "float32"}, {"name": "conv2d_4/kernel", "shape": [1, 1, 64, 64], "dtype": "float32"}, {"name": "conv2d_4/bias", "shape": [64], "dtype": "float32"}, {"name": "conv2d_7/kernel", "shape": [1, 1, 64, 1], "dtype": "float32"}, {"name": "conv2d_7/bias", "shape": [1], "dtype": "float32"}, {"name": "dense_1/kernel", "shape": [64, 960], "dtype": "float32"}, {"name": "dense_1/bias", "shape": [960], "dtype": "float32"}, {"name": "dense_2/kernel", "shape": [192, 35], "dtype": "float32"}, {"name": "dense_2/bias", "shape": [35], "dtype": "float32"}, {"name": "caps/W", "shape": [3, 21, 16, 64], "dtype": "float32"}, {"name": "dense_3/kernel", "shape": [8, 9], "dtype": "float32"}, {"name": "dense_3/bias", "shape": [9], "dtype": "float32"}, {"name": "dense_4/kernel", "shape": [8, 9], "dtype": "float32"}, {"name": "dense_4/bias", "shape": [9], "dtype": "float32"}, {"name": "dense_5/kernel", "shape": [8, 9], "dtype": "float32"}, {"name": "dense_5/bias", "shape": [9], "dtype": "float32"}, {"name": "delta_s1/kernel", "shape": [4, 3], "dtype": "float32"}, {"name": "delta_s1/bias", "shape": [3], "dtype": "float32"}, {"name": "delta_s2/kernel", "shape": [4, 3], "dtype": "float32"}, {"name": "delta_s2/bias", "shape": [3], "dtype": "float32"}, {"name": "delta_s3/kernel", "shape": [4, 3], "dtype": "float32"}, {"name": "delta_s3/bias", "shape": [3], "dtype": "float32"}, {"name": "local_delta_stage1/kernel", "shape": [4, 3], "dtype": "float32"}, {"name": "local_delta_stage1/bias", "shape": [3], "dtype": "float32"}, {"name": "local_delta_stage2/kernel", "shape": [4, 3], "dtype": "float32"}, {"name": "local_delta_stage2/bias", "shape": [3], "dtype": "float32"}, {"name": "local_delta_stage3/kernel", "shape": [4, 3], "dtype": "float32"}, {"name": "local_delta_stage3/bias", "shape": [3], "dtype": "float32"}, {"name": "batch_normalization_8/moving_mean", "shape": [16], "dtype": "float32"}, {"name": "batch_normalization_8/moving_variance", "shape": [16], "dtype": "float32"}, {"name": "batch_normalization_1/moving_mean", "shape": [16], "dtype": "float32"}, {"name": "batch_normalization_1/moving_variance", "shape": [16], "dtype": "float32"}, {"name": "batch_normalization_9/moving_mean", "shape": [32], "dtype": "float32"}, {"name": "batch_normalization_9/moving_variance", "shape": [32], "dtype": "float32"}, {"name": "batch_normalization_2/moving_mean", "shape": [32], "dtype": "float32"}, {"name": "batch_normalization_2/moving_variance", "shape": [32], "dtype": "float32"}, {"name": "batch_normalization_10/moving_mean", "shape": [32], "dtype": "float32"}, {"name": "batch_normalization_10/moving_variance", "shape": [32], "dtype": "float32"}, {"name": "batch_normalization_3/moving_mean", "shape": [32], "dtype": "float32"}, {"name": "batch_normalization_3/moving_variance", "shape": [32], "dtype": "float32"}, {"name": "batch_normalization_11/moving_mean", "shape": [64], "dtype": "float32"}, {"name": "batch_normalization_11/moving_variance", "shape": [64], "dtype": "float32"}, {"name": "batch_normalization_4/moving_mean", "shape": [64], "dtype": "float32"}, {"name": "batch_normalization_4/moving_variance", "shape": [64], "dtype": "float32"}, {"name": "batch_normalization_12/moving_mean", "shape": [64], "dtype": "float32"}, {"name": "batch_normalization_12/moving_variance", "shape": [64], "dtype": "float32"}, {"name": "batch_normalization_5/moving_mean", "shape": [64], "dtype": "float32"}, {"name": "batch_normalization_5/moving_variance", "shape": [64], "dtype": "float32"}, {"name": "batch_normalization_13/moving_mean", "shape": [128], "dtype": "float32"}, {"name": "batch_normalization_13/moving_variance", "shape": [128], "dtype": "float32"}, {"name": "batch_normalization_6/moving_mean", "shape": [128], "dtype": "float32"}, {"name": "batch_normalization_6/moving_variance", "shape": [128], "dtype": "float32"}, {"name": "batch_normalization_14/moving_mean", "shape": [128], "dtype": "float32"}, {"name": "batch_normalization_14/moving_variance", "shape": [128], "dtype": "float32"}, {"name": "batch_normalization_7/moving_mean", "shape": [128], "dtype": "float32"}, {"name": "batch_normalization_7/moving_variance", "shape": [128], "dtype": "float32"}, {"name": "separable_conv2d_22/depthwise_kernel", "shape": [3, 3, 3, 1], "dtype": "float32"}, {"name": "separable_conv2d_22/pointwise_kernel", "shape": [1, 1, 3, 16], "dtype": "float32"}, {"name": "separable_conv2d_22/bias", "shape": [16], "dtype": "float32"}, {"name": "separable_conv2d_15/depthwise_kernel", "shape": [3, 3, 3, 1], "dtype": "float32"}, {"name": "separable_conv2d_15/pointwise_kernel", "shape": [1, 1, 3, 16], "dtype": "float32"}, {"name": "separable_conv2d_15/bias", "shape": [16], "dtype": "float32"}, {"name": "batch_normalization_22/gamma", "shape": [16], "dtype": "float32"}, {"name": "batch_normalization_22/beta", "shape": [16], "dtype": "float32"}, {"name": "batch_normalization_15/gamma", "shape": [16], "dtype": "float32"}, {"name": "batch_normalization_15/beta", "shape": [16], "dtype": "float32"}, {"name": "separable_conv2d_23/depthwise_kernel", "shape": [3, 3, 16, 1], "dtype": "float32"}, {"name": "separable_conv2d_23/pointwise_kernel", "shape": [1, 1, 16, 32], "dtype": "float32"}, {"name": "separable_conv2d_23/bias", "shape": [32], "dtype": "float32"}, {"name": "separable_conv2d_16/depthwise_kernel", "shape": [3, 3, 16, 1], "dtype": "float32"}, {"name": "separable_conv2d_16/pointwise_kernel", "shape": [1, 1, 16, 32], "dtype": "float32"}, {"name": "separable_conv2d_16/bias", "shape": [32], "dtype": "float32"}, {"name": "batch_normalization_23/gamma", "shape": [32], "dtype": "float32"}, {"name": "batch_normalization_23/beta", "shape": [32], "dtype": "float32"}, {"name": "batch_normalization_16/gamma", "shape": [32], "dtype": "float32"}, {"name": "batch_normalization_16/beta", "shape": [32], "dtype": "float32"}, {"name": "separable_conv2d_24/depthwise_kernel", "shape": [3, 3, 32, 1], "dtype": "float32"}, {"name": "separable_conv2d_24/pointwise_kernel", "shape": [1, 1, 32, 32], "dtype": "float32"}, {"name": "separable_conv2d_24/bias", "shape": [32], "dtype": "float32"}, {"name": "separable_conv2d_17/depthwise_kernel", "shape": [3, 3, 32, 1], "dtype": "float32"}, {"name": "separable_conv2d_17/pointwise_kernel", "shape": [1, 1, 32, 32], "dtype": "float32"}, {"name": "separable_conv2d_17/bias", "shape": [32], "dtype": "float32"}, {"name": "batch_normalization_24/gamma", "shape": [32], "dtype": "float32"}, {"name": "batch_normalization_24/beta", "shape": [32], "dtype": "float32"}, {"name": "batch_normalization_17/gamma", "shape": [32], "dtype": "float32"}, {"name": "batch_normalization_17/beta", "shape": [32], "dtype": "float32"}, {"name": "separable_conv2d_25/depthwise_kernel", "shape": [3, 3, 32, 1], "dtype": "float32"}, {"name": "separable_conv2d_25/pointwise_kernel", "shape": [1, 1, 32, 64], "dtype": "float32"}, {"name": "separable_conv2d_25/bias", "shape": [64], "dtype": "float32"}, {"name": "separable_conv2d_18/depthwise_kernel", "shape": [3, 3, 32, 1], "dtype": "float32"}, {"name": "separable_conv2d_18/pointwise_kernel", "shape": [1, 1, 32, 64], "dtype": "float32"}, {"name": "separable_conv2d_18/bias", "shape": [64], "dtype": "float32"}, {"name": "batch_normalization_25/gamma", "shape": [64], "dtype": "float32"}, {"name": "batch_normalization_25/beta", "shape": [64], "dtype": "float32"}, {"name": "batch_normalization_18/gamma", "shape": [64], "dtype": "float32"}, {"name": "batch_normalization_18/beta", "shape": [64], "dtype": "float32"}, {"name": "separable_conv2d_26/depthwise_kernel", "shape": [3, 3, 64, 1], "dtype": "float32"}, {"name": "separable_conv2d_26/pointwise_kernel", "shape": [1, 1, 64, 64], "dtype": "float32"}, {"name": "separable_conv2d_26/bias", "shape": [64], "dtype": "float32"}, {"name": "separable_conv2d_19/depthwise_kernel", "shape": [3, 3, 64, 1], "dtype": "float32"}, {"name": "separable_conv2d_19/pointwise_kernel", "shape": [1, 1, 64, 64], "dtype": "float32"}, {"name": "separable_conv2d_19/bias", "shape": [64], "dtype": "float32"}, {"name": "batch_normalization_26/gamma", "shape": [64], "dtype": "float32"}, {"name": "batch_normalization_26/beta", "shape": [64], "dtype": "float32"}, {"name": "batch_normalization_19/gamma", "shape": [64], "dtype": "float32"}, {"name": "batch_normalization_19/beta", "shape": [64], "dtype": "float32"}, {"name": "separable_conv2d_27/depthwise_kernel", "shape": [3, 3, 64, 1], "dtype": "float32"}, {"name": "separable_conv2d_27/pointwise_kernel", "shape": [1, 1, 64, 128], "dtype": "float32"}, {"name": "separable_conv2d_27/bias", "shape": [128], "dtype": "float32"}, {"name": "separable_conv2d_20/depthwise_kernel", "shape": [3, 3, 64, 1], "dtype": "float32"}, {"name": "separable_conv2d_20/pointwise_kernel", "shape": [1, 1, 64, 128], "dtype": "float32"}, {"name": "separable_conv2d_20/bias", "shape": [128], "dtype": "float32"}, {"name": "batch_normalization_27/gamma", "shape": [128], "dtype": "float32"}, {"name": "batch_normalization_27/beta", "shape": [128], "dtype": "float32"}, {"name": "batch_normalization_20/gamma", "shape": [128], "dtype": "float32"}, {"name": "batch_normalization_20/beta", "shape": [128], "dtype": "float32"}, {"name": "separable_conv2d_28/depthwise_kernel", "shape": [3, 3, 128, 1], "dtype": "float32"}, {"name": "separable_conv2d_28/pointwise_kernel", "shape": [1, 1, 128, 128], "dtype": "float32"}, {"name": "separable_conv2d_28/bias", "shape": [128], "dtype": "float32"}, {"name": "separable_conv2d_21/depthwise_kernel", "shape": [3, 3, 128, 1], "dtype": "float32"}, {"name": "separable_conv2d_21/pointwise_kernel", "shape": [1, 1, 128, 128], "dtype": "float32"}, {"name": "separable_conv2d_21/bias", "shape": [128], "dtype": "float32"}, {"name": "batch_normalization_28/gamma", "shape": [128], "dtype": "float32"}, {"name": "batch_normalization_28/beta", "shape": [128], "dtype": "float32"}, {"name": "batch_normalization_21/gamma", "shape": [128], "dtype": "float32"}, {"name": "batch_normalization_21/beta", "shape": [128], "dtype": "float32"}, {"name": "conv2d_12/kernel", "shape": [1, 1, 32, 64], "dtype": "float32"}, {"name": "conv2d_12/bias", "shape": [64], "dtype": "float32"}, {"name": "conv2d_13/kernel", "shape": [1, 1, 32, 64], "dtype": "float32"}, {"name": "conv2d_13/bias", "shape": [64], "dtype": "float32"}, {"name": "conv2d_8/kernel", "shape": [1, 1, 128, 64], "dtype": "float32"}, {"name": "conv2d_8/bias", "shape": [64], "dtype": "float32"}, {"name": "conv2d_9/kernel", "shape": [1, 1, 128, 64], "dtype": "float32"}, {"name": "conv2d_9/bias", "shape": [64], "dtype": "float32"}, {"name": "conv2d_10/kernel", "shape": [1, 1, 64, 64], "dtype": "float32"}, {"name": "conv2d_10/bias", "shape": [64], "dtype": "float32"}, {"name": "conv2d_11/kernel", "shape": [1, 1, 64, 64], "dtype": "float32"}, {"name": "conv2d_11/bias", "shape": [64], "dtype": "float32"}, {"name": "dense_6/kernel", "shape": [64, 960], "dtype": "float32"}, {"name": "dense_6/bias", "shape": [960], "dtype": "float32"}, {"name": "dense_7/kernel", "shape": [192, 35], "dtype": "float32"}, {"name": "dense_7/bias", "shape": [35], "dtype": "float32"}, {"name": "caps_1/W", "shape": [3, 21, 16, 64], "dtype": "float32"}, {"name": "dense_8/kernel", "shape": [8, 9], "dtype": "float32"}, {"name": "dense_8/bias", "shape": [9], "dtype": "float32"}, {"name": "dense_9/kernel", "shape": [8, 9], "dtype": "float32"}, {"name": "dense_9/bias", "shape": [9], "dtype": "float32"}, {"name": "dense_10/kernel", "shape": [8, 9], "dtype": "float32"}, {"name": "dense_10/bias", "shape": [9], "dtype": "float32"}, {"name": "delta_s1_1/kernel", "shape": [4, 3], "dtype": "float32"}, {"name": "delta_s1_1/bias", "shape": [3], "dtype": "float32"}, {"name": "delta_s2_1/kernel", "shape": [4, 3], "dtype": "float32"}, {"name": "delta_s2_1/bias", "shape": [3], "dtype": "float32"}, {"name": "delta_s3_1/kernel", "shape": [4, 3], "dtype": "float32"}, {"name": "delta_s3_1/bias", "shape": [3], "dtype": "float32"}, {"name": "local_delta_stage1_1/kernel", "shape": [4, 3], "dtype": "float32"}, {"name": "local_delta_stage1_1/bias", "shape": [3], "dtype": "float32"}, {"name": "local_delta_stage2_1/kernel", "shape": [4, 3], "dtype": "float32"}, {"name": "local_delta_stage2_1/bias", "shape": [3], "dtype": "float32"}, {"name": "local_delta_stage3_1/kernel", "shape": [4, 3], "dtype": "float32"}, {"name": "local_delta_stage3_1/bias", "shape": [3], "dtype": "float32"}, {"name": "batch_normalization_22/moving_mean", "shape": [16], "dtype": "float32"}, {"name": "batch_normalization_22/moving_variance", "shape": [16], "dtype": "float32"}, {"name": "batch_normalization_15/moving_mean", "shape": [16], "dtype": "float32"}, {"name": "batch_normalization_15/moving_variance", "shape": [16], "dtype": "float32"}, {"name": "batch_normalization_23/moving_mean", "shape": [32], "dtype": "float32"}, {"name": "batch_normalization_23/moving_variance", "shape": [32], "dtype": "float32"}, {"name": "batch_normalization_16/moving_mean", "shape": [32], "dtype": "float32"}, {"name": "batch_normalization_16/moving_variance", "shape": [32], "dtype": "float32"}, {"name": "batch_normalization_24/moving_mean", "shape": [32], "dtype": "float32"}, {"name": "batch_normalization_24/moving_variance", "shape": [32], "dtype": "float32"}, {"name": "batch_normalization_17/moving_mean", "shape": [32], "dtype": "float32"}, {"name": "batch_normalization_17/moving_variance", "shape": [32], "dtype": "float32"}, {"name": "batch_normalization_25/moving_mean", "shape": [64], "dtype": "float32"}, {"name": "batch_normalization_25/moving_variance", "shape": [64], "dtype": "float32"}, {"name": "batch_normalization_18/moving_mean", "shape": [64], "dtype": "float32"}, {"name": "batch_normalization_18/moving_variance", "shape": [64], "dtype": "float32"}, {"name": "batch_normalization_26/moving_mean", "shape": [64], "dtype": "float32"}, {"name": "batch_normalization_26/moving_variance", "shape": [64], "dtype": "float32"}, {"name": "batch_normalization_19/moving_mean", "shape": [64], "dtype": "float32"}, {"name": "batch_normalization_19/moving_variance", "shape": [64], "dtype": "float32"}, {"name": "batch_normalization_27/moving_mean", "shape": [128], "dtype": "float32"}, {"name": "batch_normalization_27/moving_variance", "shape": [128], "dtype": "float32"}, {"name": "batch_normalization_20/moving_mean", "shape": [128], "dtype": "float32"}, {"name": "batch_normalization_20/moving_variance", "shape": [128], "dtype": "float32"}, {"name": "batch_normalization_28/moving_mean", "shape": [128], "dtype": "float32"}, {"name": "batch_normalization_28/moving_variance", "shape": [128], "dtype": "float32"}, {"name": "batch_normalization_21/moving_mean", "shape": [128], "dtype": "float32"}, {"name": "batch_normalization_21/moving_variance", "shape": [128], "dtype": "float32"}, {"name": "separable_conv2d_36/depthwise_kernel", "shape": [3, 3, 3, 1], "dtype": "float32"}, {"name": "separable_conv2d_36/pointwise_kernel", "shape": [1, 1, 3, 16], "dtype": "float32"}, {"name": "separable_conv2d_36/bias", "shape": [16], "dtype": "float32"}, {"name": "separable_conv2d_29/depthwise_kernel", "shape": [3, 3, 3, 1], "dtype": "float32"}, {"name": "separable_conv2d_29/pointwise_kernel", "shape": [1, 1, 3, 16], "dtype": "float32"}, {"name": "separable_conv2d_29/bias", "shape": [16], "dtype": "float32"}, {"name": "batch_normalization_36/gamma", "shape": [16], "dtype": "float32"}, {"name": "batch_normalization_36/beta", "shape": [16], "dtype": "float32"}, {"name": "batch_normalization_29/gamma", "shape": [16], "dtype": "float32"}, {"name": "batch_normalization_29/beta", "shape": [16], "dtype": "float32"}, {"name": "separable_conv2d_37/depthwise_kernel", "shape": [3, 3, 16, 1], "dtype": "float32"}, {"name": "separable_conv2d_37/pointwise_kernel", "shape": [1, 1, 16, 32], "dtype": "float32"}, {"name": "separable_conv2d_37/bias", "shape": [32], "dtype": "float32"}, {"name": "separable_conv2d_30/depthwise_kernel", "shape": [3, 3, 16, 1], "dtype": "float32"}, {"name": "separable_conv2d_30/pointwise_kernel", "shape": [1, 1, 16, 32], "dtype": "float32"}, {"name": "separable_conv2d_30/bias", "shape": [32], "dtype": "float32"}, {"name": "batch_normalization_37/gamma", "shape": [32], "dtype": "float32"}, {"name": "batch_normalization_37/beta", "shape": [32], "dtype": "float32"}, {"name": "batch_normalization_30/gamma", "shape": [32], "dtype": "float32"}, {"name": "batch_normalization_30/beta", "shape": [32], "dtype": "float32"}, {"name": "separable_conv2d_38/depthwise_kernel", "shape": [3, 3, 32, 1], "dtype": "float32"}, {"name": "separable_conv2d_38/pointwise_kernel", "shape": [1, 1, 32, 32], "dtype": "float32"}, {"name": "separable_conv2d_38/bias", "shape": [32], "dtype": "float32"}, {"name": "separable_conv2d_31/depthwise_kernel", "shape": [3, 3, 32, 1], "dtype": "float32"}, {"name": "separable_conv2d_31/pointwise_kernel", "shape": [1, 1, 32, 32], "dtype": "float32"}, {"name": "separable_conv2d_31/bias", "shape": [32], "dtype": "float32"}, {"name": "batch_normalization_38/gamma", "shape": [32], "dtype": "float32"}, {"name": "batch_normalization_38/beta", "shape": [32], "dtype": "float32"}, {"name": "batch_normalization_31/gamma", "shape": [32], "dtype": "float32"}, {"name": "batch_normalization_31/beta", "shape": [32], "dtype": "float32"}, {"name": "separable_conv2d_39/depthwise_kernel", "shape": [3, 3, 32, 1], "dtype": "float32"}, {"name": "separable_conv2d_39/pointwise_kernel", "shape": [1, 1, 32, 64], "dtype": "float32"}, {"name": "separable_conv2d_39/bias", "shape": [64], "dtype": "float32"}, {"name": "separable_conv2d_32/depthwise_kernel", "shape": [3, 3, 32, 1], "dtype": "float32"}, {"name": "separable_conv2d_32/pointwise_kernel", "shape": [1, 1, 32, 64], "dtype": "float32"}, {"name": "separable_conv2d_32/bias", "shape": [64], "dtype": "float32"}, {"name": "batch_normalization_39/gamma", "shape": [64], "dtype": "float32"}, {"name": "batch_normalization_39/beta", "shape": [64], "dtype": "float32"}, {"name": "batch_normalization_32/gamma", "shape": [64], "dtype": "float32"}, {"name": "batch_normalization_32/beta", "shape": [64], "dtype": "float32"}, {"name": "separable_conv2d_40/depthwise_kernel", "shape": [3, 3, 64, 1], "dtype": "float32"}, {"name": "separable_conv2d_40/pointwise_kernel", "shape": [1, 1, 64, 64], "dtype": "float32"}, {"name": "separable_conv2d_40/bias", "shape": [64], "dtype": "float32"}, {"name": "separable_conv2d_33/depthwise_kernel", "shape": [3, 3, 64, 1], "dtype": "float32"}, {"name": "separable_conv2d_33/pointwise_kernel", "shape": [1, 1, 64, 64], "dtype": "float32"}, {"name": "separable_conv2d_33/bias", "shape": [64], "dtype": "float32"}, {"name": "batch_normalization_40/gamma", "shape": [64], "dtype": "float32"}, {"name": "batch_normalization_40/beta", "shape": [64], "dtype": "float32"}, {"name": "batch_normalization_33/gamma", "shape": [64], "dtype": "float32"}, {"name": "batch_normalization_33/beta", "shape": [64], "dtype": "float32"}, {"name": "separable_conv2d_41/depthwise_kernel", "shape": [3, 3, 64, 1], "dtype": "float32"}, {"name": "separable_conv2d_41/pointwise_kernel", "shape": [1, 1, 64, 128], "dtype": "float32"}, {"name": "separable_conv2d_41/bias", "shape": [128], "dtype": "float32"}, {"name": "separable_conv2d_34/depthwise_kernel", "shape": [3, 3, 64, 1], "dtype": "float32"}, {"name": "separable_conv2d_34/pointwise_kernel", "shape": [1, 1, 64, 128], "dtype": "float32"}, {"name": "separable_conv2d_34/bias", "shape": [128], "dtype": "float32"}, {"name": "batch_normalization_41/gamma", "shape": [128], "dtype": "float32"}, {"name": "batch_normalization_41/beta", "shape": [128], "dtype": "float32"}, {"name": "batch_normalization_34/gamma", "shape": [128], "dtype": "float32"}, {"name": "batch_normalization_34/beta", "shape": [128], "dtype": "float32"}, {"name": "separable_conv2d_42/depthwise_kernel", "shape": [3, 3, 128, 1], "dtype": "float32"}, {"name": "separable_conv2d_42/pointwise_kernel", "shape": [1, 1, 128, 128], "dtype": "float32"}, {"name": "separable_conv2d_42/bias", "shape": [128], "dtype": "float32"}, {"name": "separable_conv2d_35/depthwise_kernel", "shape": [3, 3, 128, 1], "dtype": "float32"}, {"name": "separable_conv2d_35/pointwise_kernel", "shape": [1, 1, 128, 128], "dtype": "float32"}, {"name": "separable_conv2d_35/bias", "shape": [128], "dtype": "float32"}, {"name": "batch_normalization_42/gamma", "shape": [128], "dtype": "float32"}, {"name": "batch_normalization_42/beta", "shape": [128], "dtype": "float32"}, {"name": "batch_normalization_35/gamma", "shape": [128], "dtype": "float32"}, {"name": "batch_normalization_35/beta", "shape": [128], "dtype": "float32"}, {"name": "conv2d_18/kernel", "shape": [1, 1, 32, 64], "dtype": "float32"}, {"name": "conv2d_18/bias", "shape": [64], "dtype": "float32"}, {"name": "conv2d_19/kernel", "shape": [1, 1, 32, 64], "dtype": "float32"}, {"name": "conv2d_19/bias", "shape": [64], "dtype": "float32"}, {"name": "conv2d_14/kernel", "shape": [1, 1, 128, 64], "dtype": "float32"}, {"name": "conv2d_14/bias", "shape": [64], "dtype": "float32"}, {"name": "conv2d_15/kernel", "shape": [1, 1, 128, 64], "dtype": "float32"}, {"name": "conv2d_15/bias", "shape": [64], "dtype": "float32"}, {"name": "conv2d_16/kernel", "shape": [1, 1, 64, 64], "dtype": "float32"}, {"name": "conv2d_16/bias", "shape": [64], "dtype": "float32"}, {"name": "conv2d_17/kernel", "shape": [1, 1, 64, 64], "dtype": "float32"}, {"name": "conv2d_17/bias", "shape": [64], "dtype": "float32"}, {"name": "caps_2/W", "shape": [3, 192, 16, 64], "dtype": "float32"}, {"name": "dense_11/kernel", "shape": [8, 9], "dtype": "float32"}, {"name": "dense_11/bias", "shape": [9], "dtype": "float32"}, {"name": "dense_12/kernel", "shape": [8, 9], "dtype": "float32"}, {"name": "dense_12/bias", "shape": [9], "dtype": "float32"}, {"name": "dense_13/kernel", "shape": [8, 9], "dtype": "float32"}, {"name": "dense_13/bias", "shape": [9], "dtype": "float32"}, {"name": "delta_s1_2/kernel", "shape": [4, 3], "dtype": "float32"}, {"name": "delta_s1_2/bias", "shape": [3], "dtype": "float32"}, {"name": "delta_s2_2/kernel", "shape": [4, 3], "dtype": "float32"}, {"name": "delta_s2_2/bias", "shape": [3], "dtype": "float32"}, {"name": "delta_s3_2/kernel", "shape": [4, 3], "dtype": "float32"}, {"name": "delta_s3_2/bias", "shape": [3], "dtype": "float32"}, {"name": "local_delta_stage1_2/kernel", "shape": [4, 3], "dtype": "float32"}, {"name": "local_delta_stage1_2/bias", "shape": [3], "dtype": "float32"}, {"name": "local_delta_stage2_2/kernel", "shape": [4, 3], "dtype": "float32"}, {"name": "local_delta_stage2_2/bias", "shape": [3], "dtype": "float32"}, {"name": "local_delta_stage3_2/kernel", "shape": [4, 3], "dtype": "float32"}, {"name": "local_delta_stage3_2/bias", "shape": [3], "dtype": "float32"}, {"name": "batch_normalization_36/moving_mean", "shape": [16], "dtype": "float32"}, {"name": "batch_normalization_36/moving_variance", "shape": [16], "dtype": "float32"}, {"name": "batch_normalization_29/moving_mean", "shape": [16], "dtype": "float32"}, {"name": "batch_normalization_29/moving_variance", "shape": [16], "dtype": "float32"}, {"name": "batch_normalization_37/moving_mean", "shape": [32], "dtype": "float32"}, {"name": "batch_normalization_37/moving_variance", "shape": [32], "dtype": "float32"}, {"name": "batch_normalization_30/moving_mean", "shape": [32], "dtype": "float32"}, {"name": "batch_normalization_30/moving_variance", "shape": [32], "dtype": "float32"}, {"name": "batch_normalization_38/moving_mean", "shape": [32], "dtype": "float32"}, {"name": "batch_normalization_38/moving_variance", "shape": [32], "dtype": "float32"}, {"name": "batch_normalization_31/moving_mean", "shape": [32], "dtype": "float32"}, {"name": "batch_normalization_31/moving_variance", "shape": [32], "dtype": "float32"}, {"name": "batch_normalization_39/moving_mean", "shape": [64], "dtype": "float32"}, {"name": "batch_normalization_39/moving_variance", "shape": [64], "dtype": "float32"}, {"name": "batch_normalization_32/moving_mean", "shape": [64], "dtype": "float32"}, {"name": "batch_normalization_32/moving_variance", "shape": [64], "dtype": "float32"}, {"name": "batch_normalization_40/moving_mean", "shape": [64], "dtype": "float32"}, {"name": "batch_normalization_40/moving_variance", "shape": [64], "dtype": "float32"}, {"name": "batch_normalization_33/moving_mean", "shape": [64], "dtype": "float32"}, {"name": "batch_normalization_33/moving_variance", "shape": [64], "dtype": "float32"}, {"name": "batch_normalization_41/moving_mean", "shape": [128], "dtype": "float32"}, {"name": "batch_normalization_41/moving_variance", "shape": [128], "dtype": "float32"}, {"name": "batch_normalization_34/moving_mean", "shape": [128], "dtype": "float32"}, {"name": "batch_normalization_34/moving_variance", "shape": [128], "dtype": "float32"}, {"name": "batch_normalization_42/moving_mean", "shape": [128], "dtype": "float32"}, {"name": "batch_normalization_42/moving_variance", "shape": [128], "dtype": "float32"}, {"name": "batch_normalization_35/moving_mean", "shape": [128], "dtype": "float32"}, {"name": "batch_normalization_35/moving_variance", "shape": [128], "dtype": "float32"}]}]}