{"format": "layers-model", "generatedBy": "keras v2.2.4", "convertedBy": "TensorFlow.js Converter v1.2.6", "modelTopology": {"keras_version": "2.2.4", "backend": "tensorflow", "model_config": {"class_name": "Model", "config": {"name": "model_1", "layers": [{"name": "input_1", "class_name": "InputLayer", "config": {"batch_input_shape": [null, 64, 64, 3], "dtype": "float32", "sparse": false, "name": "input_1"}, "inbound_nodes": []}, {"name": "ssr_G_model", "class_name": "Model", "config": {"name": "ssr_G_model", "layers": [{"name": "input_1", "class_name": "InputLayer", "config": {"batch_input_shape": [null, 64, 64, 3], "dtype": "float32", "sparse": false, "name": "input_1"}, "inbound_nodes": []}, {"name": "separable_conv2d_8", "class_name": "SeparableConv2D", "config": {"name": "separable_conv2d_8", "trainable": true, "filters": 16, "kernel_size": [3, 3], "strides": [1, 1], "padding": "same", "data_format": "channels_last", "dilation_rate": [1, 1], "activation": "linear", "use_bias": true, "bias_initializer": {"class_name": "Zeros", "config": {}}, "bias_regularizer": null, "activity_regularizer": null, "bias_constraint": null, "depth_multiplier": 1, "depthwise_initializer": {"class_name": "VarianceScaling", "config": {"scale": 1.0, "mode": "fan_avg", "distribution": "uniform", "seed": null}}, "pointwise_initializer": {"class_name": "VarianceScaling", "config": {"scale": 1.0, "mode": "fan_avg", "distribution": "uniform", "seed": null}}, "depthwise_regularizer": null, "pointwise_regularizer": null, "depthwise_constraint": null, "pointwise_constraint": null}, "inbound_nodes": [[["input_1", 0, 0, {}]]]}, {"name": "separable_conv2d_1", "class_name": "SeparableConv2D", "config": {"name": "separable_conv2d_1", "trainable": true, "filters": 16, "kernel_size": [3, 3], "strides": [1, 1], "padding": "same", "data_format": "channels_last", "dilation_rate": [1, 1], "activation": "linear", "use_bias": true, "bias_initializer": {"class_name": "Zeros", "config": {}}, "bias_regularizer": null, "activity_regularizer": null, "bias_constraint": null, "depth_multiplier": 1, "depthwise_initializer": {"class_name": "VarianceScaling", "config": {"scale": 1.0, "mode": "fan_avg", "distribution": "uniform", "seed": null}}, "pointwise_initializer": {"class_name": "VarianceScaling", "config": {"scale": 1.0, "mode": "fan_avg", "distribution": "uniform", "seed": null}}, "depthwise_regularizer": null, "pointwise_regularizer": null, "depthwise_constraint": null, "pointwise_constraint": null}, "inbound_nodes": [[["input_1", 0, 0, {}]]]}, {"name": "batch_normalization_8", "class_name": "BatchNormalization", "config": {"name": "batch_normalization_8", "trainable": true, "axis": -1, "momentum": 0.99, "epsilon": 0.001, "center": true, "scale": true, "beta_initializer": {"class_name": "Zeros", "config": {}}, "gamma_initializer": {"class_name": "Ones", "config": {}}, "moving_mean_initializer": {"class_name": "Zeros", "config": {}}, "moving_variance_initializer": {"class_name": "Ones", "config": {}}, "beta_regularizer": null, "gamma_regularizer": null, "beta_constraint": null, "gamma_constraint": null}, "inbound_nodes": [[["separable_conv2d_8", 0, 0, {}]]]}, {"name": "batch_normalization_1", "class_name": "BatchNormalization", "config": {"name": "batch_normalization_1", "trainable": true, "axis": -1, "momentum": 0.99, "epsilon": 0.001, "center": true, "scale": true, "beta_initializer": {"class_name": "Zeros", "config": {}}, "gamma_initializer": {"class_name": "Ones", "config": {}}, "moving_mean_initializer": {"class_name": "Zeros", "config": {}}, "moving_variance_initializer": {"class_name": "Ones", "config": {}}, "beta_regularizer": null, "gamma_regularizer": null, "beta_constraint": null, "gamma_constraint": null}, "inbound_nodes": [[["separable_conv2d_1", 0, 0, {}]]]}, {"name": "activation_8", "class_name": "Activation", "config": {"name": "activation_8", "trainable": true, "activation": "tanh"}, "inbound_nodes": [[["batch_normalization_8", 0, 0, {}]]]}, {"name": "activation_1", "class_name": "Activation", "config": {"name": "activation_1", "trainable": true, "activation": "relu"}, "inbound_nodes": [[["batch_normalization_1", 0, 0, {}]]]}, {"name": "max_pooling2d_1", "class_name": "MaxPooling2D", "config": {"name": "max_pooling2d_1", "trainable": true, "pool_size": [2, 2], "padding": "valid", "strides": [2, 2], "data_format": "channels_last"}, "inbound_nodes": [[["activation_8", 0, 0, {}]]]}, {"name": "average_pooling2d_1", "class_name": "AveragePooling2D", "config": {"name": "average_pooling2d_1", "trainable": true, "pool_size": [2, 2], "padding": "valid", "strides": [2, 2], "data_format": "channels_last"}, "inbound_nodes": [[["activation_1", 0, 0, {}]]]}, {"name": "separable_conv2d_9", "class_name": "SeparableConv2D", "config": {"name": "separable_conv2d_9", "trainable": true, "filters": 32, "kernel_size": [3, 3], "strides": [1, 1], "padding": "same", "data_format": "channels_last", "dilation_rate": [1, 1], "activation": "linear", "use_bias": true, "bias_initializer": {"class_name": "Zeros", "config": {}}, "bias_regularizer": null, "activity_regularizer": null, "bias_constraint": null, "depth_multiplier": 1, "depthwise_initializer": {"class_name": "VarianceScaling", "config": {"scale": 1.0, "mode": "fan_avg", "distribution": "uniform", "seed": null}}, "pointwise_initializer": {"class_name": "VarianceScaling", "config": {"scale": 1.0, "mode": "fan_avg", "distribution": "uniform", "seed": null}}, "depthwise_regularizer": null, "pointwise_regularizer": null, "depthwise_constraint": null, "pointwise_constraint": null}, "inbound_nodes": [[["max_pooling2d_1", 0, 0, {}]]]}, {"name": "separable_conv2d_2", "class_name": "SeparableConv2D", "config": {"name": "separable_conv2d_2", "trainable": true, "filters": 32, "kernel_size": [3, 3], "strides": [1, 1], "padding": "same", "data_format": "channels_last", "dilation_rate": [1, 1], "activation": "linear", "use_bias": true, "bias_initializer": {"class_name": "Zeros", "config": {}}, "bias_regularizer": null, "activity_regularizer": null, "bias_constraint": null, "depth_multiplier": 1, "depthwise_initializer": {"class_name": "VarianceScaling", "config": {"scale": 1.0, "mode": "fan_avg", "distribution": "uniform", "seed": null}}, "pointwise_initializer": {"class_name": "VarianceScaling", "config": {"scale": 1.0, "mode": "fan_avg", "distribution": "uniform", "seed": null}}, "depthwise_regularizer": null, "pointwise_regularizer": null, "depthwise_constraint": null, "pointwise_constraint": null}, "inbound_nodes": [[["average_pooling2d_1", 0, 0, {}]]]}, {"name": "batch_normalization_9", "class_name": "BatchNormalization", "config": {"name": "batch_normalization_9", "trainable": true, "axis": -1, "momentum": 0.99, "epsilon": 0.001, "center": true, "scale": true, "beta_initializer": {"class_name": "Zeros", "config": {}}, "gamma_initializer": {"class_name": "Ones", "config": {}}, "moving_mean_initializer": {"class_name": "Zeros", "config": {}}, "moving_variance_initializer": {"class_name": "Ones", "config": {}}, "beta_regularizer": null, "gamma_regularizer": null, "beta_constraint": null, "gamma_constraint": null}, "inbound_nodes": [[["separable_conv2d_9", 0, 0, {}]]]}, {"name": "batch_normalization_2", "class_name": "BatchNormalization", "config": {"name": "batch_normalization_2", "trainable": true, "axis": -1, "momentum": 0.99, "epsilon": 0.001, "center": true, "scale": true, "beta_initializer": {"class_name": "Zeros", "config": {}}, "gamma_initializer": {"class_name": "Ones", "config": {}}, "moving_mean_initializer": {"class_name": "Zeros", "config": {}}, "moving_variance_initializer": {"class_name": "Ones", "config": {}}, "beta_regularizer": null, "gamma_regularizer": null, "beta_constraint": null, "gamma_constraint": null}, "inbound_nodes": [[["separable_conv2d_2", 0, 0, {}]]]}, {"name": "activation_9", "class_name": "Activation", "config": {"name": "activation_9", "trainable": true, "activation": "tanh"}, "inbound_nodes": [[["batch_normalization_9", 0, 0, {}]]]}, {"name": "activation_2", "class_name": "Activation", "config": {"name": "activation_2", "trainable": true, "activation": "relu"}, "inbound_nodes": [[["batch_normalization_2", 0, 0, {}]]]}, {"name": "separable_conv2d_10", "class_name": "SeparableConv2D", "config": {"name": "separable_conv2d_10", "trainable": true, "filters": 32, "kernel_size": [3, 3], "strides": [1, 1], "padding": "same", "data_format": "channels_last", "dilation_rate": [1, 1], "activation": "linear", "use_bias": true, "bias_initializer": {"class_name": "Zeros", "config": {}}, "bias_regularizer": null, "activity_regularizer": null, "bias_constraint": null, "depth_multiplier": 1, "depthwise_initializer": {"class_name": "VarianceScaling", "config": {"scale": 1.0, "mode": "fan_avg", "distribution": "uniform", "seed": null}}, "pointwise_initializer": {"class_name": "VarianceScaling", "config": {"scale": 1.0, "mode": "fan_avg", "distribution": "uniform", "seed": null}}, "depthwise_regularizer": null, "pointwise_regularizer": null, "depthwise_constraint": null, "pointwise_constraint": null}, "inbound_nodes": [[["activation_9", 0, 0, {}]]]}, {"name": "separable_conv2d_3", "class_name": "SeparableConv2D", "config": {"name": "separable_conv2d_3", "trainable": true, "filters": 32, "kernel_size": [3, 3], "strides": [1, 1], "padding": "same", "data_format": "channels_last", "dilation_rate": [1, 1], "activation": "linear", "use_bias": true, "bias_initializer": {"class_name": "Zeros", "config": {}}, "bias_regularizer": null, "activity_regularizer": null, "bias_constraint": null, "depth_multiplier": 1, "depthwise_initializer": {"class_name": "VarianceScaling", "config": {"scale": 1.0, "mode": "fan_avg", "distribution": "uniform", "seed": null}}, "pointwise_initializer": {"class_name": "VarianceScaling", "config": {"scale": 1.0, "mode": "fan_avg", "distribution": "uniform", "seed": null}}, "depthwise_regularizer": null, "pointwise_regularizer": null, "depthwise_constraint": null, "pointwise_constraint": null}, "inbound_nodes": [[["activation_2", 0, 0, {}]]]}, {"name": "batch_normalization_10", "class_name": "BatchNormalization", "config": {"name": "batch_normalization_10", "trainable": true, "axis": -1, "momentum": 0.99, "epsilon": 0.001, "center": true, "scale": true, "beta_initializer": {"class_name": "Zeros", "config": {}}, "gamma_initializer": {"class_name": "Ones", "config": {}}, "moving_mean_initializer": {"class_name": "Zeros", "config": {}}, "moving_variance_initializer": {"class_name": "Ones", "config": {}}, "beta_regularizer": null, "gamma_regularizer": null, "beta_constraint": null, "gamma_constraint": null}, "inbound_nodes": [[["separable_conv2d_10", 0, 0, {}]]]}, {"name": "batch_normalization_3", "class_name": "BatchNormalization", "config": {"name": "batch_normalization_3", "trainable": true, "axis": -1, "momentum": 0.99, "epsilon": 0.001, "center": true, "scale": true, "beta_initializer": {"class_name": "Zeros", "config": {}}, "gamma_initializer": {"class_name": "Ones", "config": {}}, "moving_mean_initializer": {"class_name": "Zeros", "config": {}}, "moving_variance_initializer": {"class_name": "Ones", "config": {}}, "beta_regularizer": null, "gamma_regularizer": null, "beta_constraint": null, "gamma_constraint": null}, "inbound_nodes": [[["separable_conv2d_3", 0, 0, {}]]]}, {"name": "activation_10", "class_name": "Activation", "config": {"name": "activation_10", "trainable": true, "activation": "tanh"}, "inbound_nodes": [[["batch_normalization_10", 0, 0, {}]]]}, {"name": "activation_3", "class_name": "Activation", "config": {"name": "activation_3", "trainable": true, "activation": "relu"}, "inbound_nodes": [[["batch_normalization_3", 0, 0, {}]]]}, {"name": "max_pooling2d_2", "class_name": "MaxPooling2D", "config": {"name": "max_pooling2d_2", "trainable": true, "pool_size": [2, 2], "padding": "valid", "strides": [2, 2], "data_format": "channels_last"}, "inbound_nodes": [[["activation_10", 0, 0, {}]]]}, {"name": "average_pooling2d_2", "class_name": "AveragePooling2D", "config": {"name": "average_pooling2d_2", "trainable": true, "pool_size": [2, 2], "padding": "valid", "strides": [2, 2], "data_format": "channels_last"}, "inbound_nodes": [[["activation_3", 0, 0, {}]]]}, {"name": "separable_conv2d_11", "class_name": "SeparableConv2D", "config": {"name": "separable_conv2d_11", "trainable": true, "filters": 64, "kernel_size": [3, 3], "strides": [1, 1], "padding": "same", "data_format": "channels_last", "dilation_rate": [1, 1], "activation": "linear", "use_bias": true, "bias_initializer": {"class_name": "Zeros", "config": {}}, "bias_regularizer": null, "activity_regularizer": null, "bias_constraint": null, "depth_multiplier": 1, "depthwise_initializer": {"class_name": "VarianceScaling", "config": {"scale": 1.0, "mode": "fan_avg", "distribution": "uniform", "seed": null}}, "pointwise_initializer": {"class_name": "VarianceScaling", "config": {"scale": 1.0, "mode": "fan_avg", "distribution": "uniform", "seed": null}}, "depthwise_regularizer": null, "pointwise_regularizer": null, "depthwise_constraint": null, "pointwise_constraint": null}, "inbound_nodes": [[["max_pooling2d_2", 0, 0, {}]]]}, {"name": "separable_conv2d_4", "class_name": "SeparableConv2D", "config": {"name": "separable_conv2d_4", "trainable": true, "filters": 64, "kernel_size": [3, 3], "strides": [1, 1], "padding": "same", "data_format": "channels_last", "dilation_rate": [1, 1], "activation": "linear", "use_bias": true, "bias_initializer": {"class_name": "Zeros", "config": {}}, "bias_regularizer": null, "activity_regularizer": null, "bias_constraint": null, "depth_multiplier": 1, "depthwise_initializer": {"class_name": "VarianceScaling", "config": {"scale": 1.0, "mode": "fan_avg", "distribution": "uniform", "seed": null}}, "pointwise_initializer": {"class_name": "VarianceScaling", "config": {"scale": 1.0, "mode": "fan_avg", "distribution": "uniform", "seed": null}}, "depthwise_regularizer": null, "pointwise_regularizer": null, "depthwise_constraint": null, "pointwise_constraint": null}, "inbound_nodes": [[["average_pooling2d_2", 0, 0, {}]]]}, {"name": "batch_normalization_11", "class_name": "BatchNormalization", "config": {"name": "batch_normalization_11", "trainable": true, "axis": -1, "momentum": 0.99, "epsilon": 0.001, "center": true, "scale": true, "beta_initializer": {"class_name": "Zeros", "config": {}}, "gamma_initializer": {"class_name": "Ones", "config": {}}, "moving_mean_initializer": {"class_name": "Zeros", "config": {}}, "moving_variance_initializer": {"class_name": "Ones", "config": {}}, "beta_regularizer": null, "gamma_regularizer": null, "beta_constraint": null, "gamma_constraint": null}, "inbound_nodes": [[["separable_conv2d_11", 0, 0, {}]]]}, {"name": "batch_normalization_4", "class_name": "BatchNormalization", "config": {"name": "batch_normalization_4", "trainable": true, "axis": -1, "momentum": 0.99, "epsilon": 0.001, "center": true, "scale": true, "beta_initializer": {"class_name": "Zeros", "config": {}}, "gamma_initializer": {"class_name": "Ones", "config": {}}, "moving_mean_initializer": {"class_name": "Zeros", "config": {}}, "moving_variance_initializer": {"class_name": "Ones", "config": {}}, "beta_regularizer": null, "gamma_regularizer": null, "beta_constraint": null, "gamma_constraint": null}, "inbound_nodes": [[["separable_conv2d_4", 0, 0, {}]]]}, {"name": "activation_11", "class_name": "Activation", "config": {"name": "activation_11", "trainable": true, "activation": "tanh"}, "inbound_nodes": [[["batch_normalization_11", 0, 0, {}]]]}, {"name": "activation_4", "class_name": "Activation", "config": {"name": "activation_4", "trainable": true, "activation": "relu"}, "inbound_nodes": [[["batch_normalization_4", 0, 0, {}]]]}, {"name": "separable_conv2d_12", "class_name": "SeparableConv2D", "config": {"name": "separable_conv2d_12", "trainable": true, "filters": 64, "kernel_size": [3, 3], "strides": [1, 1], "padding": "same", "data_format": "channels_last", "dilation_rate": [1, 1], "activation": "linear", "use_bias": true, "bias_initializer": {"class_name": "Zeros", "config": {}}, "bias_regularizer": null, "activity_regularizer": null, "bias_constraint": null, "depth_multiplier": 1, "depthwise_initializer": {"class_name": "VarianceScaling", "config": {"scale": 1.0, "mode": "fan_avg", "distribution": "uniform", "seed": null}}, "pointwise_initializer": {"class_name": "VarianceScaling", "config": {"scale": 1.0, "mode": "fan_avg", "distribution": "uniform", "seed": null}}, "depthwise_regularizer": null, "pointwise_regularizer": null, "depthwise_constraint": null, "pointwise_constraint": null}, "inbound_nodes": [[["activation_11", 0, 0, {}]]]}, {"name": "separable_conv2d_5", "class_name": "SeparableConv2D", "config": {"name": "separable_conv2d_5", "trainable": true, "filters": 64, "kernel_size": [3, 3], "strides": [1, 1], "padding": "same", "data_format": "channels_last", "dilation_rate": [1, 1], "activation": "linear", "use_bias": true, "bias_initializer": {"class_name": "Zeros", "config": {}}, "bias_regularizer": null, "activity_regularizer": null, "bias_constraint": null, "depth_multiplier": 1, "depthwise_initializer": {"class_name": "VarianceScaling", "config": {"scale": 1.0, "mode": "fan_avg", "distribution": "uniform", "seed": null}}, "pointwise_initializer": {"class_name": "VarianceScaling", "config": {"scale": 1.0, "mode": "fan_avg", "distribution": "uniform", "seed": null}}, "depthwise_regularizer": null, "pointwise_regularizer": null, "depthwise_constraint": null, "pointwise_constraint": null}, "inbound_nodes": [[["activation_4", 0, 0, {}]]]}, {"name": "batch_normalization_12", "class_name": "BatchNormalization", "config": {"name": "batch_normalization_12", "trainable": true, "axis": -1, "momentum": 0.99, "epsilon": 0.001, "center": true, "scale": true, "beta_initializer": {"class_name": "Zeros", "config": {}}, "gamma_initializer": {"class_name": "Ones", "config": {}}, "moving_mean_initializer": {"class_name": "Zeros", "config": {}}, "moving_variance_initializer": {"class_name": "Ones", "config": {}}, "beta_regularizer": null, "gamma_regularizer": null, "beta_constraint": null, "gamma_constraint": null}, "inbound_nodes": [[["separable_conv2d_12", 0, 0, {}]]]}, {"name": "batch_normalization_5", "class_name": "BatchNormalization", "config": {"name": "batch_normalization_5", "trainable": true, "axis": -1, "momentum": 0.99, "epsilon": 0.001, "center": true, "scale": true, "beta_initializer": {"class_name": "Zeros", "config": {}}, "gamma_initializer": {"class_name": "Ones", "config": {}}, "moving_mean_initializer": {"class_name": "Zeros", "config": {}}, "moving_variance_initializer": {"class_name": "Ones", "config": {}}, "beta_regularizer": null, "gamma_regularizer": null, "beta_constraint": null, "gamma_constraint": null}, "inbound_nodes": [[["separable_conv2d_5", 0, 0, {}]]]}, {"name": "activation_12", "class_name": "Activation", "config": {"name": "activation_12", "trainable": true, "activation": "tanh"}, "inbound_nodes": [[["batch_normalization_12", 0, 0, {}]]]}, {"name": "activation_5", "class_name": "Activation", "config": {"name": "activation_5", "trainable": true, "activation": "relu"}, "inbound_nodes": [[["batch_normalization_5", 0, 0, {}]]]}, {"name": "max_pooling2d_3", "class_name": "MaxPooling2D", "config": {"name": "max_pooling2d_3", "trainable": true, "pool_size": [2, 2], "padding": "valid", "strides": [2, 2], "data_format": "channels_last"}, "inbound_nodes": [[["activation_12", 0, 0, {}]]]}, {"name": "average_pooling2d_3", "class_name": "AveragePooling2D", "config": {"name": "average_pooling2d_3", "trainable": true, "pool_size": [2, 2], "padding": "valid", "strides": [2, 2], "data_format": "channels_last"}, "inbound_nodes": [[["activation_5", 0, 0, {}]]]}, {"name": "separable_conv2d_13", "class_name": "SeparableConv2D", "config": {"name": "separable_conv2d_13", "trainable": true, "filters": 128, "kernel_size": [3, 3], "strides": [1, 1], "padding": "same", "data_format": "channels_last", "dilation_rate": [1, 1], "activation": "linear", "use_bias": true, "bias_initializer": {"class_name": "Zeros", "config": {}}, "bias_regularizer": null, "activity_regularizer": null, "bias_constraint": null, "depth_multiplier": 1, "depthwise_initializer": {"class_name": "VarianceScaling", "config": {"scale": 1.0, "mode": "fan_avg", "distribution": "uniform", "seed": null}}, "pointwise_initializer": {"class_name": "VarianceScaling", "config": {"scale": 1.0, "mode": "fan_avg", "distribution": "uniform", "seed": null}}, "depthwise_regularizer": null, "pointwise_regularizer": null, "depthwise_constraint": null, "pointwise_constraint": null}, "inbound_nodes": [[["max_pooling2d_3", 0, 0, {}]]]}, {"name": "separable_conv2d_6", "class_name": "SeparableConv2D", "config": {"name": "separable_conv2d_6", "trainable": true, "filters": 128, "kernel_size": [3, 3], "strides": [1, 1], "padding": "same", "data_format": "channels_last", "dilation_rate": [1, 1], "activation": "linear", "use_bias": true, "bias_initializer": {"class_name": "Zeros", "config": {}}, "bias_regularizer": null, "activity_regularizer": null, "bias_constraint": null, "depth_multiplier": 1, "depthwise_initializer": {"class_name": "VarianceScaling", "config": {"scale": 1.0, "mode": "fan_avg", "distribution": "uniform", "seed": null}}, "pointwise_initializer": {"class_name": "VarianceScaling", "config": {"scale": 1.0, "mode": "fan_avg", "distribution": "uniform", "seed": null}}, "depthwise_regularizer": null, "pointwise_regularizer": null, "depthwise_constraint": null, "pointwise_constraint": null}, "inbound_nodes": [[["average_pooling2d_3", 0, 0, {}]]]}, {"name": "batch_normalization_13", "class_name": "BatchNormalization", "config": {"name": "batch_normalization_13", "trainable": true, "axis": -1, "momentum": 0.99, "epsilon": 0.001, "center": true, "scale": true, "beta_initializer": {"class_name": "Zeros", "config": {}}, "gamma_initializer": {"class_name": "Ones", "config": {}}, "moving_mean_initializer": {"class_name": "Zeros", "config": {}}, "moving_variance_initializer": {"class_name": "Ones", "config": {}}, "beta_regularizer": null, "gamma_regularizer": null, "beta_constraint": null, "gamma_constraint": null}, "inbound_nodes": [[["separable_conv2d_13", 0, 0, {}]]]}, {"name": "batch_normalization_6", "class_name": "BatchNormalization", "config": {"name": "batch_normalization_6", "trainable": true, "axis": -1, "momentum": 0.99, "epsilon": 0.001, "center": true, "scale": true, "beta_initializer": {"class_name": "Zeros", "config": {}}, "gamma_initializer": {"class_name": "Ones", "config": {}}, "moving_mean_initializer": {"class_name": "Zeros", "config": {}}, "moving_variance_initializer": {"class_name": "Ones", "config": {}}, "beta_regularizer": null, "gamma_regularizer": null, "beta_constraint": null, "gamma_constraint": null}, "inbound_nodes": [[["separable_conv2d_6", 0, 0, {}]]]}, {"name": "activation_13", "class_name": "Activation", "config": {"name": "activation_13", "trainable": true, "activation": "tanh"}, "inbound_nodes": [[["batch_normalization_13", 0, 0, {}]]]}, {"name": "activation_6", "class_name": "Activation", "config": {"name": "activation_6", "trainable": true, "activation": "relu"}, "inbound_nodes": [[["batch_normalization_6", 0, 0, {}]]]}, {"name": "separable_conv2d_14", "class_name": "SeparableConv2D", "config": {"name": "separable_conv2d_14", "trainable": true, "filters": 128, "kernel_size": [3, 3], "strides": [1, 1], "padding": "same", "data_format": "channels_last", "dilation_rate": [1, 1], "activation": "linear", "use_bias": true, "bias_initializer": {"class_name": "Zeros", "config": {}}, "bias_regularizer": null, "activity_regularizer": null, "bias_constraint": null, "depth_multiplier": 1, "depthwise_initializer": {"class_name": "VarianceScaling", "config": {"scale": 1.0, "mode": "fan_avg", "distribution": "uniform", "seed": null}}, "pointwise_initializer": {"class_name": "VarianceScaling", "config": {"scale": 1.0, "mode": "fan_avg", "distribution": "uniform", "seed": null}}, "depthwise_regularizer": null, "pointwise_regularizer": null, "depthwise_constraint": null, "pointwise_constraint": null}, "inbound_nodes": [[["activation_13", 0, 0, {}]]]}, {"name": "separable_conv2d_7", "class_name": "SeparableConv2D", "config": {"name": "separable_conv2d_7", "trainable": true, "filters": 128, "kernel_size": [3, 3], "strides": [1, 1], "padding": "same", "data_format": "channels_last", "dilation_rate": [1, 1], "activation": "linear", "use_bias": true, "bias_initializer": {"class_name": "Zeros", "config": {}}, "bias_regularizer": null, "activity_regularizer": null, "bias_constraint": null, "depth_multiplier": 1, "depthwise_initializer": {"class_name": "VarianceScaling", "config": {"scale": 1.0, "mode": "fan_avg", "distribution": "uniform", "seed": null}}, "pointwise_initializer": {"class_name": "VarianceScaling", "config": {"scale": 1.0, "mode": "fan_avg", "distribution": "uniform", "seed": null}}, "depthwise_regularizer": null, "pointwise_regularizer": null, "depthwise_constraint": null, "pointwise_constraint": null}, "inbound_nodes": [[["activation_6", 0, 0, {}]]]}, {"name": "batch_normalization_14", "class_name": "BatchNormalization", "config": {"name": "batch_normalization_14", "trainable": true, "axis": -1, "momentum": 0.99, "epsilon": 0.001, "center": true, "scale": true, "beta_initializer": {"class_name": "Zeros", "config": {}}, "gamma_initializer": {"class_name": "Ones", "config": {}}, "moving_mean_initializer": {"class_name": "Zeros", "config": {}}, "moving_variance_initializer": {"class_name": "Ones", "config": {}}, "beta_regularizer": null, "gamma_regularizer": null, "beta_constraint": null, "gamma_constraint": null}, "inbound_nodes": [[["separable_conv2d_14", 0, 0, {}]]]}, {"name": "batch_normalization_7", "class_name": "BatchNormalization", "config": {"name": "batch_normalization_7", "trainable": true, "axis": -1, "momentum": 0.99, "epsilon": 0.001, "center": true, "scale": true, "beta_initializer": {"class_name": "Zeros", "config": {}}, "gamma_initializer": {"class_name": "Ones", "config": {}}, "moving_mean_initializer": {"class_name": "Zeros", "config": {}}, "moving_variance_initializer": {"class_name": "Ones", "config": {}}, "beta_regularizer": null, "gamma_regularizer": null, "beta_constraint": null, "gamma_constraint": null}, "inbound_nodes": [[["separable_conv2d_7", 0, 0, {}]]]}, {"name": "activation_14", "class_name": "Activation", "config": {"name": "activation_14", "trainable": true, "activation": "tanh"}, "inbound_nodes": [[["batch_normalization_14", 0, 0, {}]]]}, {"name": "activation_7", "class_name": "Activation", "config": {"name": "activation_7", "trainable": true, "activation": "relu"}, "inbound_nodes": [[["batch_normalization_7", 0, 0, {}]]]}, {"name": "conv2d_5", "class_name": "Conv2D", "config": {"name": "conv2d_5", "trainable": true, "filters": 64, "kernel_size": [1, 1], "strides": [1, 1], "padding": "valid", "data_format": "channels_last", "dilation_rate": [1, 1], "activation": "tanh", "use_bias": true, "kernel_initializer": {"class_name": "VarianceScaling", "config": {"scale": 1.0, "mode": "fan_avg", "distribution": "uniform", "seed": null}}, "bias_initializer": {"class_name": "Zeros", "config": {}}, "kernel_regularizer": null, "bias_regularizer": null, "activity_regularizer": null, "kernel_constraint": null, "bias_constraint": null}, "inbound_nodes": [[["max_pooling2d_2", 0, 0, {}]]]}, {"name": "conv2d_6", "class_name": "Conv2D", "config": {"name": "conv2d_6", "trainable": true, "filters": 64, "kernel_size": [1, 1], "strides": [1, 1], "padding": "valid", "data_format": "channels_last", "dilation_rate": [1, 1], "activation": "relu", "use_bias": true, "kernel_initializer": {"class_name": "VarianceScaling", "config": {"scale": 1.0, "mode": "fan_avg", "distribution": "uniform", "seed": null}}, "bias_initializer": {"class_name": "Zeros", "config": {}}, "kernel_regularizer": null, "bias_regularizer": null, "activity_regularizer": null, "kernel_constraint": null, "bias_constraint": null}, "inbound_nodes": [[["average_pooling2d_2", 0, 0, {}]]]}, {"name": "conv2d_1", "class_name": "Conv2D", "config": {"name": "conv2d_1", "trainable": true, "filters": 64, "kernel_size": [1, 1], "strides": [1, 1], "padding": "valid", "data_format": "channels_last", "dilation_rate": [1, 1], "activation": "tanh", "use_bias": true, "kernel_initializer": {"class_name": "VarianceScaling", "config": {"scale": 1.0, "mode": "fan_avg", "distribution": "uniform", "seed": null}}, "bias_initializer": {"class_name": "Zeros", "config": {}}, "kernel_regularizer": null, "bias_regularizer": null, "activity_regularizer": null, "kernel_constraint": null, "bias_constraint": null}, "inbound_nodes": [[["activation_14", 0, 0, {}]]]}, {"name": "conv2d_2", "class_name": "Conv2D", "config": {"name": "conv2d_2", "trainable": true, "filters": 64, "kernel_size": [1, 1], "strides": [1, 1], "padding": "valid", "data_format": "channels_last", "dilation_rate": [1, 1], "activation": "relu", "use_bias": true, "kernel_initializer": {"class_name": "VarianceScaling", "config": {"scale": 1.0, "mode": "fan_avg", "distribution": "uniform", "seed": null}}, "bias_initializer": {"class_name": "Zeros", "config": {}}, "kernel_regularizer": null, "bias_regularizer": null, "activity_regularizer": null, "kernel_constraint": null, "bias_constraint": null}, "inbound_nodes": [[["activation_7", 0, 0, {}]]]}, {"name": "conv2d_3", "class_name": "Conv2D", "config": {"name": "conv2d_3", "trainable": true, "filters": 64, "kernel_size": [1, 1], "strides": [1, 1], "padding": "valid", "data_format": "channels_last", "dilation_rate": [1, 1], "activation": "tanh", "use_bias": true, "kernel_initializer": {"class_name": "VarianceScaling", "config": {"scale": 1.0, "mode": "fan_avg", "distribution": "uniform", "seed": null}}, "bias_initializer": {"class_name": "Zeros", "config": {}}, "kernel_regularizer": null, "bias_regularizer": null, "activity_regularizer": null, "kernel_constraint": null, "bias_constraint": null}, "inbound_nodes": [[["max_pooling2d_3", 0, 0, {}]]]}, {"name": "conv2d_4", "class_name": "Conv2D", "config": {"name": "conv2d_4", "trainable": true, "filters": 64, "kernel_size": [1, 1], "strides": [1, 1], "padding": "valid", "data_format": "channels_last", "dilation_rate": [1, 1], "activation": "relu", "use_bias": true, "kernel_initializer": {"class_name": "VarianceScaling", "config": {"scale": 1.0, "mode": "fan_avg", "distribution": "uniform", "seed": null}}, "bias_initializer": {"class_name": "Zeros", "config": {}}, "kernel_regularizer": null, "bias_regularizer": null, "activity_regularizer": null, "kernel_constraint": null, "bias_constraint": null}, "inbound_nodes": [[["average_pooling2d_3", 0, 0, {}]]]}, {"name": "multiply_3", "class_name": "Multiply", "config": {"name": "multiply_3", "trainable": true}, "inbound_nodes": [[["conv2d_5", 0, 0, {}], ["conv2d_6", 0, 0, {}]]]}, {"name": "multiply_1", "class_name": "Multiply", "config": {"name": "multiply_1", "trainable": true}, "inbound_nodes": [[["conv2d_1", 0, 0, {}], ["conv2d_2", 0, 0, {}]]]}, {"name": "multiply_2", "class_name": "Multiply", "config": {"name": "multiply_2", "trainable": true}, "inbound_nodes": [[["conv2d_3", 0, 0, {}], ["conv2d_4", 0, 0, {}]]]}, {"name": "average_pooling2d_4", "class_name": "AveragePooling2D", "config": {"name": "average_pooling2d_4", "trainable": true, "pool_size": [2, 2], "padding": "valid", "strides": [2, 2], "data_format": "channels_last"}, "inbound_nodes": [[["multiply_3", 0, 0, {}]]]}], "input_layers": [["input_1", 0, 0]], "output_layers": [["multiply_1", 0, 0], ["multiply_2", 0, 0], ["average_pooling2d_4", 0, 0]]}, "inbound_nodes": [[["input_1", 0, 0, {}]]]}, {"name": "ssr_S_model", "class_name": "Model", "config": {"name": "ssr_S_model", "layers": [{"name": "input_3", "class_name": "InputLayer", "config": {"batch_input_shape": [null, 8, 8, 64], "dtype": "float32", "sparse": false, "name": "input_3"}, "inbound_nodes": []}, {"name": "input_4", "class_name": "InputLayer", "config": {"batch_input_shape": [null, 8, 8, 64], "dtype": "float32", "sparse": false, "name": "input_4"}, "inbound_nodes": []}, {"name": "input_5", "class_name": "InputLayer", "config": {"batch_input_shape": [null, 8, 8, 64], "dtype": "float32", "sparse": false, "name": "input_5"}, "inbound_nodes": []}, {"name": "feat_S_model", "class_name": "Model", "config": {"name": "feat_S_model", "layers": [{"name": "input_2", "class_name": "InputLayer", "config": {"batch_input_shape": [null, 8, 8, 64], "dtype": "float32", "sparse": false, "name": "input_2"}, "inbound_nodes": []}, {"name": "conv2d_7", "class_name": "Conv2D", "config": {"name": "conv2d_7", "trainable": true, "filters": 1, "kernel_size": [1, 1], "strides": [1, 1], "padding": "same", "data_format": "channels_last", "dilation_rate": [1, 1], "activation": "sigmoid", "use_bias": true, "kernel_initializer": {"class_name": "VarianceScaling", "config": {"scale": 1.0, "mode": "fan_avg", "distribution": "uniform", "seed": null}}, "bias_initializer": {"class_name": "Zeros", "config": {}}, "kernel_regularizer": null, "bias_regularizer": null, "activity_regularizer": null, "kernel_constraint": null, "bias_constraint": null}, "inbound_nodes": [[["input_2", 0, 0, {}]]]}, {"name": "reshape_1", "class_name": "Reshape", "config": {"name": "reshape_1", "trainable": true, "target_shape": [-1]}, "inbound_nodes": [[["conv2d_7", 0, 0, {}]]]}, {"name": "dense_1", "class_name": "Dense", "config": {"name": "dense_1", "trainable": true, "units": 960, "activation": "sigmoid", "use_bias": true, "kernel_initializer": {"class_name": "VarianceScaling", "config": {"scale": 1.0, "mode": "fan_avg", "distribution": "uniform", "seed": null}}, "bias_initializer": {"class_name": "Zeros", "config": {}}, "kernel_regularizer": null, "bias_regularizer": null, "activity_regularizer": null, "kernel_constraint": null, "bias_constraint": null}, "inbound_nodes": [[["reshape_1", 0, 0, {}]]]}, {"name": "reshape_2", "class_name": "Reshape", "config": {"name": "reshape_2", "trainable": true, "target_shape": [5, 192]}, "inbound_nodes": [[["dense_1", 0, 0, {}]]]}], "input_layers": [["input_2", 0, 0]], "output_layers": [["reshape_2", 0, 0], ["reshape_1", 0, 0]]}, "inbound_nodes": [[["input_3", 0, 0, {}]], [["input_4", 0, 0, {}]], [["input_5", 0, 0, {}]]]}, {"name": "concatenate_1", "class_name": "Concatenate", "config": {"name": "concatenate_1", "trainable": true, "axis": -1}, "inbound_nodes": [[["feat_S_model", 1, 1, {}], ["feat_S_model", 2, 1, {}], ["feat_S_model", 3, 1, {}]]]}, {"name": "dense_2", "class_name": "Dense", "config": {"name": "dense_2", "trainable": true, "units": 35, "activation": "sigmoid", "use_bias": true, "kernel_initializer": {"class_name": "VarianceScaling", "config": {"scale": 1.0, "mode": "fan_avg", "distribution": "uniform", "seed": null}}, "bias_initializer": {"class_name": "Zeros", "config": {}}, "kernel_regularizer": null, "bias_regularizer": null, "activity_regularizer": null, "kernel_constraint": null, "bias_constraint": null}, "inbound_nodes": [[["concatenate_1", 0, 0, {}]]]}, {"name": "reshape_3", "class_name": "Reshape", "config": {"name": "reshape_3", "trainable": true, "target_shape": [7, 5]}, "inbound_nodes": [[["dense_2", 0, 0, {}]]]}, {"name": "S_matrix_s1", "class_name": "Lambda", "config": {"name": "S_matrix_s1", "trainable": true, "function": ["4wEAAAAAAAAAAQAAAAQAAABTAAAAcxQAAAB0AGoBfABkARkAfABkAhkAgwJTACkDTukAAAAA6QEA\nAAApAtoCdGbaBm1hdG11bCkB2gF4qQByBgAAAPolL2NvbnRlbnQvRlNBLU5ldC9kZW1vL0ZTQU5F\nVF9tb2RlbC5wedoIPGxhbWJkYT4XAwAA8wAAAAA=\n", null, null], "function_type": "lambda", "output_shape": null, "output_shape_type": "raw", "arguments": {}}, "inbound_nodes": [[["reshape_3", 0, 0, {}], ["feat_S_model", 1, 0, {}]]]}, {"name": "reshape_4", "class_name": "Reshape", "config": {"name": "reshape_4", "trainable": true, "target_shape": [-1, 64]}, "inbound_nodes": [[["input_3", 0, 0, {}]]]}, {"name": "reshape_5", "class_name": "Reshape", "config": {"name": "reshape_5", "trainable": true, "target_shape": [-1, 64]}, "inbound_nodes": [[["input_4", 0, 0, {}]]]}, {"name": "reshape_6", "class_name": "Reshape", "config": {"name": "reshape_6", "trainable": true, "target_shape": [-1, 64]}, "inbound_nodes": [[["input_5", 0, 0, {}]]]}, {"name": "S_matrix_s2", "class_name": "Lambda", "config": {"name": "S_matrix_s2", "trainable": true, "function": ["4wEAAAAAAAAAAQAAAAQAAABTAAAAcxQAAAB0AGoBfABkARkAfABkAhkAgwJTACkDTukAAAAA6QEA\nAAApAtoCdGbaBm1hdG11bCkB2gF4qQByBgAAAPolL2NvbnRlbnQvRlNBLU5ldC9kZW1vL0ZTQU5F\nVF9tb2RlbC5wedoIPGxhbWJkYT4YAwAA8wAAAAA=\n", null, null], "function_type": "lambda", "output_shape": null, "output_shape_type": "raw", "arguments": {}}, "inbound_nodes": [[["reshape_3", 0, 0, {}], ["feat_S_model", 2, 0, {}]]]}, {"name": "S_matrix_s3", "class_name": "Lambda", "config": {"name": "S_matrix_s3", "trainable": true, "function": ["4wEAAAAAAAAAAQAAAAQAAABTAAAAcxQAAAB0AGoBfABkARkAfABkAhkAgwJTACkDTukAAAAA6QEA\nAAApAtoCdGbaBm1hdG11bCkB2gF4qQByBgAAAPolL2NvbnRlbnQvRlNBLU5ldC9kZW1vL0ZTQU5F\nVF9tb2RlbC5wedoIPGxhbWJkYT4ZAwAA8wAAAAA=\n", null, null], "function_type": "lambda", "output_shape": null, "output_shape_type": "raw", "arguments": {}}, "inbound_nodes": [[["reshape_3", 0, 0, {}], ["feat_S_model", 3, 0, {}]]]}, {"name": "concatenate_2", "class_name": "Concatenate", "config": {"name": "concatenate_2", "trainable": true, "axis": 1}, "inbound_nodes": [[["reshape_4", 0, 0, {}], ["reshape_5", 0, 0, {}], ["reshape_6", 0, 0, {}]]]}, {"name": "lambda_1", "class_name": "Lambda", "config": {"name": "lambda_1", "trainable": true, "function": ["4wEAAAAAAAAAAQAAAAYAAABTAAAAcxgAAAB0AGoBdABqAnwAZAVkAmQDjQNkBoMCUwApB07pAQAA\nAFQpAtoEYXhpc9oIa2VlcGRpbXPpQAAAAOn/////KQNyAQAAAHIBAAAAcgQAAAApA9oBS9oEdGls\nZdoDc3VtKQHaAXipAHIKAAAA+iUvY29udGVudC9GU0EtTmV0L2RlbW8vRlNBTkVUX21vZGVsLnB5\n2gg8bGFtYmRhPh0DAADzAAAAAA==\n", null, null], "function_type": "lambda", "output_shape": null, "output_shape_type": "raw", "arguments": {}}, "inbound_nodes": [[["S_matrix_s1", 0, 0, {}]]]}, {"name": "lambda_2", "class_name": "Lambda", "config": {"name": "lambda_2", "trainable": true, "function": ["4wEAAAAAAAAAAQAAAAYAAABTAAAAcxgAAAB0AGoBdABqAnwAZAVkAmQDjQNkBoMCUwApB07pAQAA\nAFQpAtoEYXhpc9oIa2VlcGRpbXPpQAAAAOn/////KQNyAQAAAHIBAAAAcgQAAAApA9oBS9oEdGls\nZdoDc3VtKQHaAXipAHIKAAAA+iUvY29udGVudC9GU0EtTmV0L2RlbW8vRlNBTkVUX21vZGVsLnB5\n2gg8bGFtYmRhPh4DAADzAAAAAA==\n", null, null], "function_type": "lambda", "output_shape": null, "output_shape_type": "raw", "arguments": {}}, "inbound_nodes": [[["S_matrix_s2", 0, 0, {}]]]}, {"name": "lambda_3", "class_name": "Lambda", "config": {"name": "lambda_3", "trainable": true, "function": ["4wEAAAAAAAAAAQAAAAYAAABTAAAAcxgAAAB0AGoBdABqAnwAZAVkAmQDjQNkBoMCUwApB07pAQAA\nAFQpAtoEYXhpc9oIa2VlcGRpbXPpQAAAAOn/////KQNyAQAAAHIBAAAAcgQAAAApA9oBS9oEdGls\nZdoDc3VtKQHaAXipAHIKAAAA+iUvY29udGVudC9GU0EtTmV0L2RlbW8vRlNBTkVUX21vZGVsLnB5\n2gg8bGFtYmRhPh8DAADzAAAAAA==\n", null, null], "function_type": "lambda", "output_shape": null, "output_shape_type": "raw", "arguments": {}}, "inbound_nodes": [[["S_matrix_s3", 0, 0, {}]]]}, {"name": "lambda_4", "class_name": "Lambda", "config": {"name": "lambda_4", "trainable": true, "function": ["4wEAAAAAAAAAAQAAAAQAAABTAAAAcxwAAAB0AGoBfABkARkAfABkAhkAgwJ8AGQDGQAbAFMAKQRO\n6QAAAADpAQAAAOkCAAAAKQLaAnRm2gZtYXRtdWwpAdoBeKkAcgcAAAD6JS9jb250ZW50L0ZTQS1O\nZXQvZGVtby9GU0FORVRfbW9kZWwucHnaCDxsYW1iZGE+KgMAAPMAAAAA\n", null, null], "function_type": "lambda", "output_shape": null, "output_shape_type": "raw", "arguments": {}}, "inbound_nodes": [[["S_matrix_s1", 0, 0, {}], ["concatenate_2", 0, 0, {}], ["lambda_1", 0, 0, {}]]]}, {"name": "lambda_5", "class_name": "Lambda", "config": {"name": "lambda_5", "trainable": true, "function": ["4wEAAAAAAAAAAQAAAAQAAABTAAAAcxwAAAB0AGoBfABkARkAfABkAhkAgwJ8AGQDGQAbAFMAKQRO\n6QAAAADpAQAAAOkCAAAAKQLaAnRm2gZtYXRtdWwpAdoBeKkAcgcAAAD6JS9jb250ZW50L0ZTQS1O\nZXQvZGVtby9GU0FORVRfbW9kZWwucHnaCDxsYW1iZGE+KwMAAPMAAAAA\n", null, null], "function_type": "lambda", "output_shape": null, "output_shape_type": "raw", "arguments": {}}, "inbound_nodes": [[["S_matrix_s2", 0, 0, {}], ["concatenate_2", 0, 0, {}], ["lambda_2", 0, 0, {}]]]}, {"name": "lambda_6", "class_name": "Lambda", "config": {"name": "lambda_6", "trainable": true, "function": ["4wEAAAAAAAAAAQAAAAQAAABTAAAAcxwAAAB0AGoBfABkARkAfABkAhkAgwJ8AGQDGQAbAFMAKQRO\n6QAAAADpAQAAAOkCAAAAKQLaAnRm2gZtYXRtdWwpAdoBeKkAcgcAAAD6JS9jb250ZW50L0ZTQS1O\nZXQvZGVtby9GU0FORVRfbW9kZWwucHnaCDxsYW1iZGE+LAMAAPMAAAAA\n", null, null], "function_type": "lambda", "output_shape": null, "output_shape_type": "raw", "arguments": {}}, "inbound_nodes": [[["S_matrix_s3", 0, 0, {}], ["concatenate_2", 0, 0, {}], ["lambda_3", 0, 0, {}]]]}, {"name": "concatenate_3", "class_name": "Concatenate", "config": {"name": "concatenate_3", "trainable": true, "axis": 1}, "inbound_nodes": [[["lambda_4", 0, 0, {}], ["lambda_5", 0, 0, {}], ["lambda_6", 0, 0, {}]]]}], "input_layers": [["input_3", 0, 0], ["input_4", 0, 0], ["input_5", 0, 0]], "output_layers": [["concatenate_3", 0, 0]]}, "inbound_nodes": [[["ssr_G_model", 1, 0, {}], ["ssr_G_model", 1, 1, {}], ["ssr_G_model", 1, 2, {}]]]}, {"name": "ssr_Cap_model", "class_name": "Model", "config": {"name": "ssr_Cap_model", "layers": [{"name": "input_6", "class_name": "InputLayer", "config": {"batch_input_shape": [null, 21, 64], "dtype": "float32", "sparse": false, "name": "input_6"}, "inbound_nodes": []}, {"name": "caps", "class_name": "CapsuleLayer", "config": {"name": "caps", "trainable": true, "num_capsule": 3, "dim_capsule": 16, "routings": 2}, "inbound_nodes": [[["input_6", 0, 0, {}]]]}, {"name": "lambda_7", "class_name": "Lambda", "config": {"name": "lambda_7", "trainable": true, "function": ["4wEAAAAAAAAAAQAAAAUAAAATAAAAcxoAAAB8AGQAZACFAogAiAGFAmQAZACFAmYDGQBTACkBTqkA\nKQHaAXgpAtoEczFfYdoEczFfYnIBAAAA+iUvY29udGVudC9GU0EtTmV0L2RlbW8vRlNBTkVUX21v\nZGVsLnB52gg8bGFtYmRhPjwDAADzAAAAAA==\n", null, [0, 1]], "function_type": "lambda", "output_shape": null, "output_shape_type": "raw", "arguments": {}}, "inbound_nodes": [[["caps", 0, 0, {}]]]}, {"name": "lambda_8", "class_name": "Lambda", "config": {"name": "lambda_8", "trainable": true, "function": ["4wEAAAAAAAAAAQAAAAUAAAATAAAAcxoAAAB8AGQAZACFAogAiAGFAmQAZACFAmYDGQBTACkBTqkA\nKQHaAXgpAtoEczJfYdoEczJfYnIBAAAA+iUvY29udGVudC9GU0EtTmV0L2RlbW8vRlNBTkVUX21v\nZGVsLnB52gg8bGFtYmRhPj8DAADzAAAAAA==\n", null, [1, 2]], "function_type": "lambda", "output_shape": null, "output_shape_type": "raw", "arguments": {}}, "inbound_nodes": [[["caps", 0, 0, {}]]]}, {"name": "lambda_9", "class_name": "Lambda", "config": {"name": "lambda_9", "trainable": true, "function": ["4wEAAAAAAAAAAQAAAAUAAAATAAAAcxoAAAB8AGQAZACFAogAiAGFAmQAZACFAmYDGQBTACkBTqkA\nKQHaAXgpAtoEczNfYdoEczNfYnIBAAAA+iUvY29udGVudC9GU0EtTmV0L2RlbW8vRlNBTkVUX21v\nZGVsLnB52gg8bGFtYmRhPkIDAADzAAAAAA==\n", null, [2, 3]], "function_type": "lambda", "output_shape": null, "output_shape_type": "raw", "arguments": {}}, "inbound_nodes": [[["caps", 0, 0, {}]]]}, {"name": "reshape_7", "class_name": "Reshape", "config": {"name": "reshape_7", "trainable": true, "target_shape": [-1]}, "inbound_nodes": [[["lambda_7", 0, 0, {}]]]}, {"name": "reshape_8", "class_name": "Reshape", "config": {"name": "reshape_8", "trainable": true, "target_shape": [-1]}, "inbound_nodes": [[["lambda_8", 0, 0, {}]]]}, {"name": "reshape_9", "class_name": "Reshape", "config": {"name": "reshape_9", "trainable": true, "target_shape": [-1]}, "inbound_nodes": [[["lambda_9", 0, 0, {}]]]}], "input_layers": [["input_6", 0, 0]], "output_layers": [["reshape_7", 0, 0], ["reshape_8", 0, 0], ["reshape_9", 0, 0]]}, "inbound_nodes": [[["ssr_S_model", 1, 0, {}]]]}, {"name": "ssr_F_Cap_model", "class_name": "Model", "config": {"name": "ssr_F_Cap_model", "layers": [{"name": "input_7", "class_name": "InputLayer", "config": {"batch_input_shape": [null, 16], "dtype": "float32", "sparse": false, "name": "input_7"}, "inbound_nodes": []}, {"name": "input_8", "class_name": "InputLayer", "config": {"batch_input_shape": [null, 16], "dtype": "float32", "sparse": false, "name": "input_8"}, "inbound_nodes": []}, {"name": "input_9", "class_name": "InputLayer", "config": {"batch_input_shape": [null, 16], "dtype": "float32", "sparse": false, "name": "input_9"}, "inbound_nodes": []}, {"name": "lambda_12", "class_name": "Lambda", "config": {"name": "lambda_12", "trainable": true, "function": ["4wEAAAAAAAAAAQAAAAQAAABTAAAAcxQAAAB8AGQAZACFAmQBZAKFAmYCGQBTACkDTukIAAAA6RAA\nAACpACkB2gF4cgMAAAByAwAAAPolL2NvbnRlbnQvRlNBLU5ldC9kZW1vL0ZTQU5FVF9tb2RlbC5w\nedoIPGxhbWJkYT5ZAwAA8wAAAAA=\n", null, null], "function_type": "lambda", "output_shape": null, "output_shape_type": "raw", "arguments": {}}, "inbound_nodes": [[["input_7", 0, 0, {}]]]}, {"name": "lambda_15", "class_name": "Lambda", "config": {"name": "lambda_15", "trainable": true, "function": ["4wEAAAAAAAAAAQAAAAQAAABTAAAAcxQAAAB8AGQAZACFAmQBZAKFAmYCGQBTACkDTukIAAAA6RAA\nAACpACkB2gF4cgMAAAByAwAAAPolL2NvbnRlbnQvRlNBLU5ldC9kZW1vL0ZTQU5FVF9tb2RlbC5w\nedoIPGxhbWJkYT5kAwAA8wAAAAA=\n", null, null], "function_type": "lambda", "output_shape": null, "output_shape_type": "raw", "arguments": {}}, "inbound_nodes": [[["input_8", 0, 0, {}]]]}, {"name": "lambda_18", "class_name": "Lambda", "config": {"name": "lambda_18", "trainable": true, "function": ["4wEAAAAAAAAAAQAAAAQAAABTAAAAcxQAAAB8AGQAZACFAmQBZAKFAmYCGQBTACkDTukIAAAA6RAA\nAACpACkB2gF4cgMAAAByAwAAAPolL2NvbnRlbnQvRlNBLU5ldC9kZW1vL0ZTQU5FVF9tb2RlbC5w\nedoIPGxhbWJkYT5vAwAA8wAAAAA=\n", null, null], "function_type": "lambda", "output_shape": null, "output_shape_type": "raw", "arguments": {}}, "inbound_nodes": [[["input_9", 0, 0, {}]]]}, {"name": "dense_3", "class_name": "Dense", "config": {"name": "dense_3", "trainable": true, "units": 9, "activation": "relu", "use_bias": true, "kernel_initializer": {"class_name": "VarianceScaling", "config": {"scale": 1.0, "mode": "fan_avg", "distribution": "uniform", "seed": null}}, "bias_initializer": {"class_name": "Zeros", "config": {}}, "kernel_regularizer": null, "bias_regularizer": null, "activity_regularizer": null, "kernel_constraint": null, "bias_constraint": null}, "inbound_nodes": [[["lambda_12", 0, 0, {}]]]}, {"name": "dense_4", "class_name": "Dense", "config": {"name": "dense_4", "trainable": true, "units": 9, "activation": "relu", "use_bias": true, "kernel_initializer": {"class_name": "VarianceScaling", "config": {"scale": 1.0, "mode": "fan_avg", "distribution": "uniform", "seed": null}}, "bias_initializer": {"class_name": "Zeros", "config": {}}, "kernel_regularizer": null, "bias_regularizer": null, "activity_regularizer": null, "kernel_constraint": null, "bias_constraint": null}, "inbound_nodes": [[["lambda_15", 0, 0, {}]]]}, {"name": "dense_5", "class_name": "Dense", "config": {"name": "dense_5", "trainable": true, "units": 9, "activation": "relu", "use_bias": true, "kernel_initializer": {"class_name": "VarianceScaling", "config": {"scale": 1.0, "mode": "fan_avg", "distribution": "uniform", "seed": null}}, "bias_initializer": {"class_name": "Zeros", "config": {}}, "kernel_regularizer": null, "bias_regularizer": null, "activity_regularizer": null, "kernel_constraint": null, "bias_constraint": null}, "inbound_nodes": [[["lambda_18", 0, 0, {}]]]}, {"name": "lambda_10", "class_name": "Lambda", "config": {"name": "lambda_10", "trainable": true, "function": ["4wEAAAAAAAAAAQAAAAQAAABTAAAAcxQAAAB8AGQAZACFAmQBZAKFAmYCGQBTACkDTukAAAAA6QQA\nAACpACkB2gF4cgMAAAByAwAAAPolL2NvbnRlbnQvRlNBLU5ldC9kZW1vL0ZTQU5FVF9tb2RlbC5w\nedoIPGxhbWJkYT5TAwAA8wAAAAA=\n", null, null], "function_type": "lambda", "output_shape": null, "output_shape_type": "raw", "arguments": {}}, "inbound_nodes": [[["input_7", 0, 0, {}]]]}, {"name": "lambda_13", "class_name": "Lambda", "config": {"name": "lambda_13", "trainable": true, "function": ["4wEAAAAAAAAAAQAAAAQAAABTAAAAcxQAAAB8AGQAZACFAmQBZAKFAmYCGQBTACkDTukAAAAA6QQA\nAACpACkB2gF4cgMAAAByAwAAAPolL2NvbnRlbnQvRlNBLU5ldC9kZW1vL0ZTQU5FVF9tb2RlbC5w\nedoIPGxhbWJkYT5eAwAA8wAAAAA=\n", null, null], "function_type": "lambda", "output_shape": null, "output_shape_type": "raw", "arguments": {}}, "inbound_nodes": [[["input_8", 0, 0, {}]]]}, {"name": "lambda_16", "class_name": "Lambda", "config": {"name": "lambda_16", "trainable": true, "function": ["4wEAAAAAAAAAAQAAAAQAAABTAAAAcxQAAAB8AGQAZACFAmQBZAKFAmYCGQBTACkDTukAAAAA6QQA\nAACpACkB2gF4cgMAAAByAwAAAPolL2NvbnRlbnQvRlNBLU5ldC9kZW1vL0ZTQU5FVF9tb2RlbC5w\nedoIPGxhbWJkYT5pAwAA8wAAAAA=\n", null, null], "function_type": "lambda", "output_shape": null, "output_shape_type": "raw", "arguments": {}}, "inbound_nodes": [[["input_9", 0, 0, {}]]]}, {"name": "lambda_11", "class_name": "Lambda", "config": {"name": "lambda_11", "trainable": true, "function": ["4wEAAAAAAAAAAQAAAAQAAABTAAAAcxQAAAB8AGQAZACFAmQBZAKFAmYCGQBTACkDTukEAAAA6QgA\nAACpACkB2gF4cgMAAAByAwAAAPolL2NvbnRlbnQvRlNBLU5ldC9kZW1vL0ZTQU5FVF9tb2RlbC5w\nedoIPGxhbWJkYT5WAwAA8wAAAAA=\n", null, null], "function_type": "lambda", "output_shape": null, "output_shape_type": "raw", "arguments": {}}, "inbound_nodes": [[["input_7", 0, 0, {}]]]}, {"name": "lambda_14", "class_name": "Lambda", "config": {"name": "lambda_14", "trainable": true, "function": ["4wEAAAAAAAAAAQAAAAQAAABTAAAAcxQAAAB8AGQAZACFAmQBZAKFAmYCGQBTACkDTukEAAAA6QgA\nAACpACkB2gF4cgMAAAByAwAAAPolL2NvbnRlbnQvRlNBLU5ldC9kZW1vL0ZTQU5FVF9tb2RlbC5w\nedoIPGxhbWJkYT5hAwAA8wAAAAA=\n", null, null], "function_type": "lambda", "output_shape": null, "output_shape_type": "raw", "arguments": {}}, "inbound_nodes": [[["input_8", 0, 0, {}]]]}, {"name": "lambda_17", "class_name": "Lambda", "config": {"name": "lambda_17", "trainable": true, "function": ["4wEAAAAAAAAAAQAAAAQAAABTAAAAcxQAAAB8AGQAZACFAmQBZAKFAmYCGQBTACkDTukEAAAA6QgA\nAACpACkB2gF4cgMAAAByAwAAAPolL2NvbnRlbnQvRlNBLU5ldC9kZW1vL0ZTQU5FVF9tb2RlbC5w\nedoIPGxhbWJkYT5sAwAA8wAAAAA=\n", null, null], "function_type": "lambda", "output_shape": null, "output_shape_type": "raw", "arguments": {}}, "inbound_nodes": [[["input_9", 0, 0, {}]]]}, {"name": "reshape_10", "class_name": "Reshape", "config": {"name": "reshape_10", "trainable": true, "target_shape": [3, 3]}, "inbound_nodes": [[["dense_3", 0, 0, {}]]]}, {"name": "reshape_11", "class_name": "Reshape", "config": {"name": "reshape_11", "trainable": true, "target_shape": [3, 3]}, "inbound_nodes": [[["dense_4", 0, 0, {}]]]}, {"name": "reshape_12", "class_name": "Reshape", "config": {"name": "reshape_12", "trainable": true, "target_shape": [3, 3]}, "inbound_nodes": [[["dense_5", 0, 0, {}]]]}, {"name": "delta_s1", "class_name": "Dense", "config": {"name": "delta_s1", "trainable": true, "units": 3, "activation": "tanh", "use_bias": true, "kernel_initializer": {"class_name": "VarianceScaling", "config": {"scale": 1.0, "mode": "fan_avg", "distribution": "uniform", "seed": null}}, "bias_initializer": {"class_name": "Zeros", "config": {}}, "kernel_regularizer": null, "bias_regularizer": null, "activity_regularizer": null, "kernel_constraint": null, "bias_constraint": null}, "inbound_nodes": [[["lambda_10", 0, 0, {}]]]}, {"name": "delta_s2", "class_name": "Dense", "config": {"name": "delta_s2", "trainable": true, "units": 3, "activation": "tanh", "use_bias": true, "kernel_initializer": {"class_name": "VarianceScaling", "config": {"scale": 1.0, "mode": "fan_avg", "distribution": "uniform", "seed": null}}, "bias_initializer": {"class_name": "Zeros", "config": {}}, "kernel_regularizer": null, "bias_regularizer": null, "activity_regularizer": null, "kernel_constraint": null, "bias_constraint": null}, "inbound_nodes": [[["lambda_13", 0, 0, {}]]]}, {"name": "delta_s3", "class_name": "Dense", "config": {"name": "delta_s3", "trainable": true, "units": 3, "activation": "tanh", "use_bias": true, "kernel_initializer": {"class_name": "VarianceScaling", "config": {"scale": 1.0, "mode": "fan_avg", "distribution": "uniform", "seed": null}}, "bias_initializer": {"class_name": "Zeros", "config": {}}, "kernel_regularizer": null, "bias_regularizer": null, "activity_regularizer": null, "kernel_constraint": null, "bias_constraint": null}, "inbound_nodes": [[["lambda_16", 0, 0, {}]]]}, {"name": "local_delta_stage1", "class_name": "Dense", "config": {"name": "local_delta_stage1", "trainable": true, "units": 3, "activation": "tanh", "use_bias": true, "kernel_initializer": {"class_name": "VarianceScaling", "config": {"scale": 1.0, "mode": "fan_avg", "distribution": "uniform", "seed": null}}, "bias_initializer": {"class_name": "Zeros", "config": {}}, "kernel_regularizer": null, "bias_regularizer": null, "activity_regularizer": null, "kernel_constraint": null, "bias_constraint": null}, "inbound_nodes": [[["lambda_11", 0, 0, {}]]]}, {"name": "local_delta_stage2", "class_name": "Dense", "config": {"name": "local_delta_stage2", "trainable": true, "units": 3, "activation": "tanh", "use_bias": true, "kernel_initializer": {"class_name": "VarianceScaling", "config": {"scale": 1.0, "mode": "fan_avg", "distribution": "uniform", "seed": null}}, "bias_initializer": {"class_name": "Zeros", "config": {}}, "kernel_regularizer": null, "bias_regularizer": null, "activity_regularizer": null, "kernel_constraint": null, "bias_constraint": null}, "inbound_nodes": [[["lambda_14", 0, 0, {}]]]}, {"name": "local_delta_stage3", "class_name": "Dense", "config": {"name": "local_delta_stage3", "trainable": true, "units": 3, "activation": "tanh", "use_bias": true, "kernel_initializer": {"class_name": "VarianceScaling", "config": {"scale": 1.0, "mode": "fan_avg", "distribution": "uniform", "seed": null}}, "bias_initializer": {"class_name": "Zeros", "config": {}}, "kernel_regularizer": null, "bias_regularizer": null, "activity_regularizer": null, "kernel_constraint": null, "bias_constraint": null}, "inbound_nodes": [[["lambda_17", 0, 0, {}]]]}], "input_layers": [["input_7", 0, 0], ["input_8", 0, 0], ["input_9", 0, 0]], "output_layers": [["reshape_10", 0, 0], ["reshape_11", 0, 0], ["reshape_12", 0, 0], ["delta_s1", 0, 0], ["delta_s2", 0, 0], ["delta_s3", 0, 0], ["local_delta_stage1", 0, 0], ["local_delta_stage2", 0, 0], ["local_delta_stage3", 0, 0]]}, "inbound_nodes": [[["ssr_Cap_model", 1, 0, {}], ["ssr_Cap_model", 1, 1, {}], ["ssr_Cap_model", 1, 2, {}]]]}, {"name": "pred_pose", "class_name": "Lambda", "config": {"name": "pred_pose", "trainable": true, "function": ["4wUAAAAAAAAAEAAAAAcAAABTAAAAc9YBAAB8AGQBGQBkAGQAhQJkAGQAhQJkAWYDGQBkARQAfQV8\nAGQBGQBkAGQAhQJkAGQAhQJkAWYDGQBkARQAfQZ8AGQBGQBkAGQAhQJkAGQAhQJkAWYDGQBkARQA\nfQd8AWQCGgB9CHwCZAIaAH0JfANkAhoAfQpkA30LeEB0AGQBfAGDAkQAXTJ9DHwFfAx8CBgAfABk\nBBkAFwB8AGQBGQBkAGQAhQJkAGQAhQJ8DGYDGQAUABcAfQVxglcAfAV8AWQFfAR8AGQGGQAUABcA\nFAAbAH0FeEB0AGQBfAKDAkQAXTJ9DXwGfA18CRgAfABkBxkAFwB8AGQFGQBkAGQAhQJkAGQAhQJ8\nDWYDGQAUABcAfQZx3FcAfAZ8AWQFfAR8AGQGGQAUABcAFAAbAHwCZAV8BHwAZAgZABQAFwAUABsA\nfQZ4QnQAZAF8A4MCRABdNH0OfAd8DnwKGAB8AGQJGQAXAHwAZAIZAGQAZACFAmQAZACFAnwOZgMZ\nABQAFwB9B5ABcUpXAHwHfAFkBXwEfABkBhkAFAAXABQAGwB8AmQFfAR8AGQIGQAUABcAFAAbAHwD\nZAV8BHwAZAoZABQAFwAUABsAfQd8BXwGFwB8BxcAfAsUAH0PfA9TACkLTukAAAAA6QIAAADpYwAA\nAOkGAAAA6QEAAADpAwAAAOkHAAAA6QQAAADpCAAAAOkFAAAAKQHaBXJhbmdlKRDaAXjaAnMx2gJz\nMtoCczPaCGxhbWJkYV9k2gFh2gFi2gFj2gJkadoCZGraAmRr2gFW2gFp2gFq2gFr2gRwcmVkqQBy\nHAAAAPolL2NvbnRlbnQvRlNBLU5ldC9kZW1vL0ZTQU5FVF9tb2RlbC5wedoKU1NSX21vZHVsZXsD\nAABzJAAAAAABHgEeAR4CCAEIAQgCBAMQATIBGAIQATIBLAIQATQBQAIQAg==\n", null, null], "function_type": "lambda", "output_shape": null, "output_shape_type": "raw", "arguments": {"s1": 3, "s2": 3, "s3": 3, "lambda_d": 1}}, "inbound_nodes": [[["ssr_F_Cap_model", 1, 0, {}], ["ssr_F_Cap_model", 1, 1, {}], ["ssr_F_Cap_model", 1, 2, {}], ["ssr_F_Cap_model", 1, 3, {}], ["ssr_F_Cap_model", 1, 4, {}], ["ssr_F_Cap_model", 1, 5, {}], ["ssr_F_Cap_model", 1, 6, {}], ["ssr_F_Cap_model", 1, 7, {}], ["ssr_F_Cap_model", 1, 8, {}]]]}], "input_layers": [["input_1", 0, 0]], "output_layers": [["pred_pose", 0, 0]]}}}, "weightsManifest": [{"paths": ["group1-shard1of1.bin"], "weights": [{"name": "caps/W", "shape": [3, 21, 16, 64], "dtype": "float32"}, {"name": "dense_3/kernel", "shape": [8, 9], "dtype": "float32"}, {"name": "dense_3/bias", "shape": [9], "dtype": "float32"}, {"name": "dense_4/kernel", "shape": [8, 9], "dtype": "float32"}, {"name": "dense_4/bias", "shape": [9], "dtype": "float32"}, {"name": "dense_5/kernel", "shape": [8, 9], "dtype": "float32"}, {"name": "dense_5/bias", "shape": [9], "dtype": "float32"}, {"name": "delta_s1/kernel", "shape": [4, 3], "dtype": "float32"}, {"name": "delta_s1/bias", "shape": [3], "dtype": "float32"}, {"name": "delta_s2/kernel", "shape": [4, 3], "dtype": "float32"}, {"name": "delta_s2/bias", "shape": [3], "dtype": "float32"}, {"name": "delta_s3/kernel", "shape": [4, 3], "dtype": "float32"}, {"name": "delta_s3/bias", "shape": [3], "dtype": "float32"}, {"name": "local_delta_stage1/kernel", "shape": [4, 3], "dtype": "float32"}, {"name": "local_delta_stage1/bias", "shape": [3], "dtype": "float32"}, {"name": "local_delta_stage2/kernel", "shape": [4, 3], "dtype": "float32"}, {"name": "local_delta_stage2/bias", "shape": [3], "dtype": "float32"}, {"name": "local_delta_stage3/kernel", "shape": [4, 3], "dtype": "float32"}, {"name": "local_delta_stage3/bias", "shape": [3], "dtype": "float32"}, {"name": "separable_conv2d_8/depthwise_kernel", "shape": [3, 3, 3, 1], "dtype": "float32"}, {"name": "separable_conv2d_8/pointwise_kernel", "shape": [1, 1, 3, 16], "dtype": "float32"}, {"name": "separable_conv2d_8/bias", "shape": [16], "dtype": "float32"}, {"name": "separable_conv2d_1/depthwise_kernel", "shape": [3, 3, 3, 1], "dtype": "float32"}, {"name": "separable_conv2d_1/pointwise_kernel", "shape": [1, 1, 3, 16], "dtype": "float32"}, {"name": "separable_conv2d_1/bias", "shape": [16], "dtype": "float32"}, {"name": "batch_normalization_8/gamma", "shape": [16], "dtype": "float32"}, {"name": "batch_normalization_8/beta", "shape": [16], "dtype": "float32"}, {"name": "batch_normalization_1/gamma", "shape": [16], "dtype": "float32"}, {"name": "batch_normalization_1/beta", "shape": [16], "dtype": "float32"}, {"name": "separable_conv2d_9/depthwise_kernel", "shape": [3, 3, 16, 1], "dtype": "float32"}, {"name": "separable_conv2d_9/pointwise_kernel", "shape": [1, 1, 16, 32], "dtype": "float32"}, {"name": "separable_conv2d_9/bias", "shape": [32], "dtype": "float32"}, {"name": "separable_conv2d_2/depthwise_kernel", "shape": [3, 3, 16, 1], "dtype": "float32"}, {"name": "separable_conv2d_2/pointwise_kernel", "shape": [1, 1, 16, 32], "dtype": "float32"}, {"name": "separable_conv2d_2/bias", "shape": [32], "dtype": "float32"}, {"name": "batch_normalization_9/gamma", "shape": [32], "dtype": "float32"}, {"name": "batch_normalization_9/beta", "shape": [32], "dtype": "float32"}, {"name": "batch_normalization_2/gamma", "shape": [32], "dtype": "float32"}, {"name": "batch_normalization_2/beta", "shape": [32], "dtype": "float32"}, {"name": "separable_conv2d_10/depthwise_kernel", "shape": [3, 3, 32, 1], "dtype": "float32"}, {"name": "separable_conv2d_10/pointwise_kernel", "shape": [1, 1, 32, 32], "dtype": "float32"}, {"name": "separable_conv2d_10/bias", "shape": [32], "dtype": "float32"}, {"name": "separable_conv2d_3/depthwise_kernel", "shape": [3, 3, 32, 1], "dtype": "float32"}, {"name": "separable_conv2d_3/pointwise_kernel", "shape": [1, 1, 32, 32], "dtype": "float32"}, {"name": "separable_conv2d_3/bias", "shape": [32], "dtype": "float32"}, {"name": "batch_normalization_10/gamma", "shape": [32], "dtype": "float32"}, {"name": "batch_normalization_10/beta", "shape": [32], "dtype": "float32"}, {"name": "batch_normalization_3/gamma", "shape": [32], "dtype": "float32"}, {"name": "batch_normalization_3/beta", "shape": [32], "dtype": "float32"}, {"name": "separable_conv2d_11/depthwise_kernel", "shape": [3, 3, 32, 1], "dtype": "float32"}, {"name": "separable_conv2d_11/pointwise_kernel", "shape": [1, 1, 32, 64], "dtype": "float32"}, {"name": "separable_conv2d_11/bias", "shape": [64], "dtype": "float32"}, {"name": "separable_conv2d_4/depthwise_kernel", "shape": [3, 3, 32, 1], "dtype": "float32"}, {"name": "separable_conv2d_4/pointwise_kernel", "shape": [1, 1, 32, 64], "dtype": "float32"}, {"name": "separable_conv2d_4/bias", "shape": [64], "dtype": "float32"}, {"name": "batch_normalization_11/gamma", "shape": [64], "dtype": "float32"}, {"name": "batch_normalization_11/beta", "shape": [64], "dtype": "float32"}, {"name": "batch_normalization_4/gamma", "shape": [64], "dtype": "float32"}, {"name": "batch_normalization_4/beta", "shape": [64], "dtype": "float32"}, {"name": "separable_conv2d_12/depthwise_kernel", "shape": [3, 3, 64, 1], "dtype": "float32"}, {"name": "separable_conv2d_12/pointwise_kernel", "shape": [1, 1, 64, 64], "dtype": "float32"}, {"name": "separable_conv2d_12/bias", "shape": [64], "dtype": "float32"}, {"name": "separable_conv2d_5/depthwise_kernel", "shape": [3, 3, 64, 1], "dtype": "float32"}, {"name": "separable_conv2d_5/pointwise_kernel", "shape": [1, 1, 64, 64], "dtype": "float32"}, {"name": "separable_conv2d_5/bias", "shape": [64], "dtype": "float32"}, {"name": "batch_normalization_12/gamma", "shape": [64], "dtype": "float32"}, {"name": "batch_normalization_12/beta", "shape": [64], "dtype": "float32"}, {"name": "batch_normalization_5/gamma", "shape": [64], "dtype": "float32"}, {"name": "batch_normalization_5/beta", "shape": [64], "dtype": "float32"}, {"name": "separable_conv2d_13/depthwise_kernel", "shape": [3, 3, 64, 1], "dtype": "float32"}, {"name": "separable_conv2d_13/pointwise_kernel", "shape": [1, 1, 64, 128], "dtype": "float32"}, {"name": "separable_conv2d_13/bias", "shape": [128], "dtype": "float32"}, {"name": "separable_conv2d_6/depthwise_kernel", "shape": [3, 3, 64, 1], "dtype": "float32"}, {"name": "separable_conv2d_6/pointwise_kernel", "shape": [1, 1, 64, 128], "dtype": "float32"}, {"name": "separable_conv2d_6/bias", "shape": [128], "dtype": "float32"}, {"name": "batch_normalization_13/gamma", "shape": [128], "dtype": "float32"}, {"name": "batch_normalization_13/beta", "shape": [128], "dtype": "float32"}, {"name": "batch_normalization_6/gamma", "shape": [128], "dtype": "float32"}, {"name": "batch_normalization_6/beta", "shape": [128], "dtype": "float32"}, {"name": "separable_conv2d_14/depthwise_kernel", "shape": [3, 3, 128, 1], "dtype": "float32"}, {"name": "separable_conv2d_14/pointwise_kernel", "shape": [1, 1, 128, 128], "dtype": "float32"}, {"name": "separable_conv2d_14/bias", "shape": [128], "dtype": "float32"}, {"name": "separable_conv2d_7/depthwise_kernel", "shape": [3, 3, 128, 1], "dtype": "float32"}, {"name": "separable_conv2d_7/pointwise_kernel", "shape": [1, 1, 128, 128], "dtype": "float32"}, {"name": "separable_conv2d_7/bias", "shape": [128], "dtype": "float32"}, {"name": "batch_normalization_14/gamma", "shape": [128], "dtype": "float32"}, {"name": "batch_normalization_14/beta", "shape": [128], "dtype": "float32"}, {"name": "batch_normalization_7/gamma", "shape": [128], "dtype": "float32"}, {"name": "batch_normalization_7/beta", "shape": [128], "dtype": "float32"}, {"name": "conv2d_5/kernel", "shape": [1, 1, 32, 64], "dtype": "float32"}, {"name": "conv2d_5/bias", "shape": [64], "dtype": "float32"}, {"name": "conv2d_6/kernel", "shape": [1, 1, 32, 64], "dtype": "float32"}, {"name": "conv2d_6/bias", "shape": [64], "dtype": "float32"}, {"name": "conv2d_1/kernel", "shape": [1, 1, 128, 64], "dtype": "float32"}, {"name": "conv2d_1/bias", "shape": [64], "dtype": "float32"}, {"name": "conv2d_2/kernel", "shape": [1, 1, 128, 64], "dtype": "float32"}, {"name": "conv2d_2/bias", "shape": [64], "dtype": "float32"}, {"name": "conv2d_3/kernel", "shape": [1, 1, 64, 64], "dtype": "float32"}, {"name": "conv2d_3/bias", "shape": [64], "dtype": "float32"}, {"name": "conv2d_4/kernel", "shape": [1, 1, 64, 64], "dtype": "float32"}, {"name": "conv2d_4/bias", "shape": [64], "dtype": "float32"}, {"name": "batch_normalization_8/moving_mean", "shape": [16], "dtype": "float32"}, {"name": "batch_normalization_8/moving_variance", "shape": [16], "dtype": "float32"}, {"name": "batch_normalization_1/moving_mean", "shape": [16], "dtype": "float32"}, {"name": "batch_normalization_1/moving_variance", "shape": [16], "dtype": "float32"}, {"name": "batch_normalization_9/moving_mean", "shape": [32], "dtype": "float32"}, {"name": "batch_normalization_9/moving_variance", "shape": [32], "dtype": "float32"}, {"name": "batch_normalization_2/moving_mean", "shape": [32], "dtype": "float32"}, {"name": "batch_normalization_2/moving_variance", "shape": [32], "dtype": "float32"}, {"name": "batch_normalization_10/moving_mean", "shape": [32], "dtype": "float32"}, {"name": "batch_normalization_10/moving_variance", "shape": [32], "dtype": "float32"}, {"name": "batch_normalization_3/moving_mean", "shape": [32], "dtype": "float32"}, {"name": "batch_normalization_3/moving_variance", "shape": [32], "dtype": "float32"}, {"name": "batch_normalization_11/moving_mean", "shape": [64], "dtype": "float32"}, {"name": "batch_normalization_11/moving_variance", "shape": [64], "dtype": "float32"}, {"name": "batch_normalization_4/moving_mean", "shape": [64], "dtype": "float32"}, {"name": "batch_normalization_4/moving_variance", "shape": [64], "dtype": "float32"}, {"name": "batch_normalization_12/moving_mean", "shape": [64], "dtype": "float32"}, {"name": "batch_normalization_12/moving_variance", "shape": [64], "dtype": "float32"}, {"name": "batch_normalization_5/moving_mean", "shape": [64], "dtype": "float32"}, {"name": "batch_normalization_5/moving_variance", "shape": [64], "dtype": "float32"}, {"name": "batch_normalization_13/moving_mean", "shape": [128], "dtype": "float32"}, {"name": "batch_normalization_13/moving_variance", "shape": [128], "dtype": "float32"}, {"name": "batch_normalization_6/moving_mean", "shape": [128], "dtype": "float32"}, {"name": "batch_normalization_6/moving_variance", "shape": [128], "dtype": "float32"}, {"name": "batch_normalization_14/moving_mean", "shape": [128], "dtype": "float32"}, {"name": "batch_normalization_14/moving_variance", "shape": [128], "dtype": "float32"}, {"name": "batch_normalization_7/moving_mean", "shape": [128], "dtype": "float32"}, {"name": "batch_normalization_7/moving_variance", "shape": [128], "dtype": "float32"}, {"name": "conv2d_7/kernel", "shape": [1, 1, 64, 1], "dtype": "float32"}, {"name": "conv2d_7/bias", "shape": [1], "dtype": "float32"}, {"name": "dense_1/kernel", "shape": [64, 960], "dtype": "float32"}, {"name": "dense_1/bias", "shape": [960], "dtype": "float32"}, {"name": "dense_2/kernel", "shape": [192, 35], "dtype": "float32"}, {"name": "dense_2/bias", "shape": [35], "dtype": "float32"}]}]}